models/supplimentaryModels/best_demon_L2_dataset.pth (torch, 36056 bytes, 29 tensors)

input_proj.weight f4 [20, 3]
000000 d2 f7 c2 bf 8c 00 35 bf 16 bd 19 bf ae ba ff be
       -1.5231879 -0.7070396 -0.6005415 -0.49947113
000010 e6 3e 27 bd 35 1a af 3f c8 26 ba be e7 2f 8c 3e
       -0.04083147 1.3679873 -0.36357713 0.27380297
000020 9b f8 0b 3f ce dc 83 3f e0 81 5c 3f e6 3a 9a be
       0.54676217 1.0301759 0.86135674 -0.3012306
000030 cf 61 d9 3f 81 95 9f bb 0d 91 a4 3e e8 f3 d3 be
       1.6982974 -0.004870117 0.32141915 -0.41397023
000040 87 26 ac 3f 1a b1 88 bf 77 b9 4b bd 32 d0 69 bf
       1.3449258 -1.0679047 -0.04973742 -0.91333306
000050 94 80 02 3e 16 4a c9 3d 7d 99 c2 be 77 6a 0f bf
       0.12744361 0.09828584 -0.38007727 -0.5602183
000060 69 36 c2 be 33 a7 f8 be 81 20 07 bf 55 bc ea 3d
       -0.37932137 -0.48565063 -0.5278397 0.11461703
000070 51 b7 8e bd d1 c8 3e bf 40 6b a4 3c c7 42 16 bf
       -0.069685586 -0.7452517 0.020070672 -0.58695644
000080 95 fb 3a be ef d5 62 3e b5 2e bc 3d dd 8b 8c 3e
       -0.18260033 0.22151922 0.09188596 0.27450457
000090 5c 43 6a bf 94 ce 60 3e b0 3d d0 3c aa 27 38 3f
       -0.9150903 0.21953803 0.02542004 0.7193552
0000a0 cc 6e b2 bc 47 96 26 3f 47 ca fe 3e 5f 45 30 be
       -0.021781348 0.65073055 0.497637 -0.17213963
0000b0 46 9d 71 3e 5a 25 df bd 46 44 64 3d c8 c7 bd bf
       0.23595151 -0.10895796 0.055729173 -1.4826593
0000c0 75 af 58 3f 74 b8 e2 3e a1 9f 7c 3f 36 c7 4d bf
       0.84642726 0.44281352 0.98681074 -0.80382097
0000d0 0f 43 40 3f 0e 46 59 bf 8e cd 95 3e 7b 08 9e bf
       0.75102323 -0.8487252 0.29258388 -1.2346338
0000e0 57 42 9c 3e 2a 54 a1 be ac c4 79 bf 80 0b 01 c0
       0.30519363 -0.31509525 -0.9756572 -2.016327

input_proj.bias f4 [20]
000000 7c 10 be 3e 4f 58 21 3e 73 fe e3 be 59 f1 5a be
       0.37121952 0.15756343 -0.44530067 -0.2138113
000010 b4 47 da be 20 86 91 3d b5 a3 02 bd b2 6b af be
       -0.4263283 0.071056604 -0.031894404 -0.34261853
000020 4a aa af bb 38 1c 4d bf 0c 6a 26 3e 4e 08 51 3f
       -0.005360876 -0.80121183 0.16251391 0.81653297
000030 7e fc a9 be 24 3c 94 bd 23 3f e9 be eb 46 16 bf
       -0.3320045 -0.072380334 -0.45555982 -0.5870196
000040 7d 6f fb 3e 56 a7 84 be f3 9c 4e bf 19 77 1c bf
       0.49108496 -0.25908917 -0.80708236 -0.6111923

layers.0.conv.norm.weight f4 [20]
000000 4f dc 1a 3f ae 21 44 3f 1b 40 3e 3f ea 99 c2 39
       0.60492414 0.7661389 0.7431657 0.00037117238
000010 e9 be 30 3f 59 54 3c 3f f1 d4 f8 3e 55 90 42 3b
       0.69041306 0.73566204 0.4859996 0.002968808
000020 27 c5 22 3f fc 4a 6c 3a dc 63 c8 3a d4 39 95 3d
       0.6358208 0.0009013859 0.001528855 0.072864205
000030 62 62 e2 3e a6 33 6b 3f 47 34 05 3e 7d 2f 4d 3f
       0.44215685 0.91875684 0.13008223 0.80150586
000040 16 8f 13 3f 81 8e 56 3f 49 d9 82 b9 7f 53 1a 3f
       0.57640207 0.83811194 -0.00024957422 0.60283655

layers.0.conv.norm.bias f4 [20]
000000 5a aa 93 bc 59 73 38 be f5 72 8f bd f9 2a 7f 39
       -0.018025566 -0.18012752 -0.07004348 0.00024334704
000010 12 6d 96 bb 04 2e 50 3e d3 f0 40 be 1d e8 90 bb
       -0.004590639 0.20330054 -0.18841867 -0.0044222013
000020 8e 10 c5 3d 0a da aa 3a 12 63 93 b9 0c 74 d2 bd
       0.09622298 0.0013034951 -0.00028111838 -0.102760404
000030 76 96 41 3e 8b 04 18 be 8d 42 88 bc ab 86 91 3e
       0.18905053 -0.14845483 -0.016633296 0.28423056
000040 8b 1b e1 be b7 3c 68 3e 3d 6a b5 ba e2 53 e9 3e
       -0.43966326 0.22679411 -0.0013840866 0.4557181

layers.0.conv.msg_mlp.0.weight f4 [20, 20]
000000 8b 38 cf 02 65 84 e0 82 20 92 d5 82 8b ba a6 81
       3.044837e-37 -3.2989833e-37 -3.1381409e-37 -6.1246445e-38
000010 cb e7 e2 82 c7 11 d9 82 97 0f 4c 82 ed c2 13 81
       -3.3340758e-37 -3.1895488e-37 -1.4992027e-37 -2.7139488e-38
000020 4d c5 e2 02 f2 97 38 81 0e 67 45 00 c2 94 25 03
       3.332096e-37 -3.3904478e-38 6.373618e-39 4.8659908e-37
000030 3d 4e 1d 83 38 6f f8 82 4e d6 0d 83 91 5b d4 02
       -4.6227966e-37 -3.6504161e-37 -4.1682186e-37 3.1203157e-37
000040 f6 91 d1 82 8c 34 fa 82 33 33 7e 82 0d 5c e0 02
       -3.0793567e-37 -3.676436e-37 -1.8675666e-37 3.2966676e-37
000050 94 aa d0 82 f2 2e cf 82 22 99 d0 02 5a 08 8f 82
       -3.066076e-37 -3.0442862e-37 3.0650747e-37 -2.1016755e-37
000060 4f 92 c0 02 47 05 c9 82 74 b0 c3 02 da 93 ff 81
       2.8295841e-37 -2.9537325e-37 2.8753954e-37 -9.388436e-38
000070 df a2 d0 82 a2 2c 3d 83 54 84 b9 82 c9 3d c9 82
       -3.0656337e-37 -5.5593344e-37 -2.725926e-37 -2.9569759e-37
000080 e4 64 c6 82 a6 e3 c6 82 b0 9a d2 02 60 66 d1 02
       -2.9151394e-37 -2.922415e-37 3.0945513e-37 3.076855e-37
000090 56 a1 cd 82 44 74 d6 82 14 3e 38 81 f3 4e bf 02
       -3.0214645e-37 -3.1511207e-37 -3.3840001e-38 2.8110242e-37
0000a0 1c d8 13 03 b8 cc ea 82 f5 e9 13 03 63 ee 33 01
       4.34475e-37 -3.4500713e-37 4.3467987e-37 3.3048142e-38
0000b0 be 77 fa 02 1a e2 f5 82 3c 60 3b 81 28 5c 87 82
       3.6802927e-37 -3.612929e-37 -3.441552e-38 -1.9889362e-37
0000c0 46 58 71 01 a0 fe 66 81 a8 33 ae 01 ab 79 8f 80
       4.4328042e-38 -4.2427013e-38 6.399163e-38 -1.3176122e-38
0000d0 40 22 42 83 83 5d f6 82 f2 7c fe 00 18 cb ec 02
       -5.7050793e-37 -3.6200124e-37 2.3371038e-38 3.4793653e-37
0000e0 3b 8e ee 82 fb 33 fb 82 ee c6 99 01 d8 35 fa 02
       -3.5052593e-37 -3.691097e-37 5.6488774e-38 3.6765103e-37
0000f0 36 9b 45 80 c6 64 97 80 81 2f 37 00 d6 f3 65 00
       -6.392328e-39 -1.390331e-38 5.067993e-39 9.362857e-39
000100 41 b5 bf 80 20 da a4 80 6e a8 21 80 ca 4e 5a 80
       -1.7605601e-38 -1.513927e-38 -3.090993e-39 -8.293459e-39
000110 08 e0 92 80 19 44 a5 80 52 af 7f 00 92 90 43 00
       -1.348835e-38 -1.5177286e-38 1.1726001e-38 6.20484e-39
000120 ba 42 25 00 6c e7 39 00 c6 23 84 00 db dd 87 00
       3.42185e-39 5.317642e-39 1.2135119e-38 1.2477379e-38
000130 05 c0 98 80 5b be c3 80 b8 2e be 80 d4 b8 9d 00
       -1.4027879e-38 -1.7976208e-38 -1.7465504e-38 1.4484477e-38
000140 90 b8 e4 81 66 e1 d2 81 aa cd c6 01 75 eb 0b 00
       -8.4018807e-38 -7.746525e-38 7.3028826e-38 1.094657e-39
000150 cd c8 9e 01 90 bd 05 82 26 8c 4c 02 9f f1 4d 00
       5.832817e-38 -9.825699e-38 1.5027774e-37 7.15801e-39
000160 01 f4 37 02 94 dc d7 80 17 e1 e5 80 66 7c 19 01
       1.3514742e-37 -1.982376e-38 -2.1111076e-38 2.8190913e-38
000170 24 2b f1 81 3a cf b4 81 a3 60 1d 00 6f 7f ba 01
       -8.859132e-38 -6.641891e-38 2.697896e-39 6.850847e-38
000180 f2 c2 b3 81 2c 83 b7 81 38 0f b1 80 09 35 e8 01
       -6.603395e-38 -6.7411806e-38 -1.6260342e-38 8.529944e-38
000190 0f a7 31 00 e7 ee ce 00 c8 66 00 81 c6 98 69 81
       4.559869e-39 1.9003814e-38 -2.358363e-38 -4.290495e-38
0001a0 a9 33 87 81 ed 91 b6 81 22 10 91 01 76 61 00 02
       -4.9665297e-38 -6.7065634e-38 5.328774e-38 9.431925e-38
0001b0 d3 d7 51 80 73 2a eb 81 0e d8 f0 01 7b 5f 26 80
       -7.516098e-39 -8.638628e-38 8.84721e-38 -3.524001e-39
0001c0 ae 0f 22 80 c5 a6 f5 80 da c3 a1 01 8d 12 03 00
       -3.128032e-39 -2.2559522e-38 5.942309e-38 2.82161e-40
0001d0 bf 0d ae 80 56 dd af 00 7a bc 43 82 7d 19 47 80
       -1.5984308e-38 1.6150612e-38 -1.4380428e-37 -6.529464e-39
0001e0 b8 dd a2 bd 70 9c a9 3b 3f 53 38 bd 3b 32 0b 3b
       -0.07952446 0.0051761195 -0.045001265 0.0021239656
0001f0 2b c9 c0 bd a9 90 a7 3e 60 6c 93 be 08 7b 15 bc
       -0.0941337 0.32727554 -0.2879362 -0.009123571
000200 34 c9 17 be 64 99 5e 3b a0 69 c5 ba 8c 55 e9 3a
       -0.14822847 0.003396594 -0.0015061386 0.0017801984
000210 d9 18 4f 3e 4c 28 75 bd db a1 89 bd fe 89 52 3e
       0.20224322 -0.059852883 -0.067203246 0.20560452
000220 6b 77 10 3d 86 e3 dd 3e 16 dd 3b 3a 16 ba 70 bd
       0.035270136 0.4333765 0.0007166428 -0.058771215
000230 24 8d dc 02 7a 49 d7 02 7c e5 f2 02 b0 6b 80 81
       3.2407105e-37 3.1633584e-37 3.5690422e-37 -4.71743e-38
000240 2b e3 f1 82 76 5b da 82 e3 86 45 03 79 c4 53 82
       -3.5542155e-37 -3.2084717e-37 5.804794e-37 -1.5558217e-37
000250 26 96 f3 02 7e da 79 01 27 ee 11 00 05 d3 8d 01
       3.5791822e-37 4.5890838e-38 1.646636e-39 5.209802e-38
000260 72 a1 1e 83 34 fd f3 82 b8 9f 24 03 c6 ea d9 82
       -4.6617357e-37 -3.5850972e-37 4.8378617e-37 -3.2020038e-37
000270 d7 ce d6 82 63 5f 02 83 58 f3 e2 80 1c 31 d9 02
       -3.1563194e-37 -3.8313065e-37 -2.0842117e-38 3.1913472e-37
000280 e2 d6 3d 00 cd 76 16 00 9b 0a 46 80 5b 86 a9 00
       5.67905e-39 2.062999e-39 -6.432289e-39 1.5568397e-38
000290 12 38 2d 80 ea 3c 67 81 2b 52 1f 80 01 6f 7b 80
       -4.152712e-39 -4.2471703e-38 -2.876377e-39 -1.1335587e-38
0002a0 f6 fb 28 00 35 9b 39 00 6f e9 19 80 d8 e5 e7 80
       3.763806e-39 5.290301e-39 -2.379628e-39 -2.1296452e-38
0002b0 14 2f 5f 80 be 4b 3f 80 90 1b 07 00 2b 54 23 80
       -8.74126e-39 -5.812807e-39 6.52736e-40 -3.244436e-39
0002c0 66 ab 20 00 e3 ac 32 00 fd c9 0d 81 3d ff 14 80
       3.000222e-39 4.653795e-39 -2.604253e-38 -1.928272e-39
0002d0 63 2d 85 80 1c 27 ae 80 05 00 af 00 3c 50 70 01
       -1.2230403e-38 -1.5993406e-38 1.6071219e-38 4.4138603e-38
0002e0 6a e2 25 80 70 6a ae 80 a9 94 1c 00 14 e8 60 00
       -3.479135e-39 -1.6017559e-38 2.624723e-39 8.899462e-39
0002f0 d1 ae 56 80 74 93 54 00 20 d0 c1 81 9e 35 a2 80
       -7.960565e-39 7.767078e-39 -7.119565e-38 -1.4896585e-38
000300 ed d0 b5 00 ba 8a 7a 80 6f 4c 26 00 15 53 88 00
       1.6697173e-38 -1.1253696e-38 3.517168e-39 1.2519432e-38
000310 6d 06 a2 80 7b aa ca 80 68 cc 03 00 5d 3c ce 80
       -1.4879656e-38 -1.8611927e-38 3.48834e-40 -1.8939766e-38
000320 fc eb 48 80 d0 c2 6f 00 d2 e4 3b 80 9f 80 65 00
       -6.696811e-39 1.0263626e-38 -5.50038e-39 9.321526e-39
000330 43 e1 46 00 18 aa 4c 81 3a 25 3e 80 13 7f 90 00
       6.509293e-39 -3.759092e-38 -5.707155e-39 1.3269897e-38
000340 8e 68 25 80 b7 da 12 01 75 30 b5 80 e9 1d 39 80
       -3.43542e-39 2.6972885e-38 -1.6639608e-38 -5.245353e-39
000350 d0 72 17 80 34 67 61 81 0f 87 05 00 7e 24 5d 01
       -2.153403e-39 -4.1400018e-38 5.07627e-40 4.061747e-38
000360 fc c7 48 81 52 98 7b 80 9c 2a 16 01 de 08 57 01
       -3.687768e-38 -1.1350408e-38 2.758122e-38 3.9495625e-38
000370 3b 9a cf 02 ea fd c6 82 c2 32 da 82 35 e8 83 81
       3.050444e-37 -2.9239225e-37 -3.2061355e-37 -4.8455e-38
000380 1c 37 c3 82 0d 5f bf 82 1d 4b eb 02 9d 5c 1d 80
       -2.8684306e-37 -2.8119484e-37 3.457326e-37 -2.696453e-39
000390 f9 42 d2 02 c4 4d 85 82 d3 7e 28 01 07 c0 ef 02
       3.0895167e-37 -1.9587229e-37 3.094772e-38 3.5228112e-37
0003a0 ad be e2 82 6c c3 cb 82 c0 20 e7 82 19 ac ca 02
       -3.3317158e-37 -2.9940336e-37 -3.3961197e-37 2.9780012e-37
0003b0 22 dc d9 82 fc ad d9 82 06 15 6e 82 a3 3e c9 02
       -3.2011634e-37 -3.1985146e-37 -1.7491512e-37 2.9570247e-37
0003c0 66 28 d8 82 ab 17 d7 82 73 43 c4 02 02 01 23 81
       -3.1761535e-37 -3.1604995e-37 2.8838326e-37 -2.9939095e-38
0003d0 56 87 f1 02 19 00 d3 82 c5 dd cc 02 8c f9 76 01
       3.5489446e-37 -3.100372e-37 3.0102395e-37 4.5362105e-38
0003e0 af f5 bc 82 c6 91 49 03 f0 7f 3f 83 45 2b ae 82
       -2.7765133e-37 5.923593e-37 -5.627672e-37 -2.5591838e-37
0003f0 51 40 d4 82 f2 f6 d5 82 d2 40 b5 02 c9 8a cd 02
       -3.1187516e-37 -3.1439277e-37 2.6632765e-37 3.0201702e-37

layers.0.conv.msg_mlp.0.bias f4 [20]
000000 99 c2 df 82 1f 01 cf 82 f0 e0 e8 82 22 99 3e 00
       -3.2878599e-37 -3.041656e-37 -3.4218444e-37 5.748734e-39
000010 f0 9c 98 81 a4 25 a1 80 5e 0e 05 be bf 23 d2 82
       -5.6061176e-38 -1.4799018e-38 -0.12993762 -3.0877244e-37
000020 1f 30 4a 81 99 76 5f 00 2b 21 14 81 fa 84 bf 82
       -3.7136066e-38 8.766917e-39 -2.7207104e-38 -2.8141252e-37
000030 59 a3 c2 82 39 43 ce 82 15 be 7f b9 da 01 3f 3c
       -2.8599495e-37 -3.0307563e-37 -0.00024389506 0.011658156
000040 e4 4f c7 81 8c 7e 51 3d dd b0 c5 82 24 4b 9c 3c
       -7.321569e-38 0.051146075 -2.9048063e-37 0.019078799

layers.0.conv.msg_mlp.2.weight f4 [20, 20]
000000 f3 b9 e0 82 d4 7b d1 82 78 17 02 03 c5 1f 2c 81
       -3.3020571e-37 -3.0780864e-37 3.8230507e-37 -3.1614204e-38
000010 3e b7 d8 81 67 72 f8 00 a4 96 64 3d 19 a5 e1 02
       -7.960881e-38 2.2816243e-38 0.055807725 3.315554e-37
000020 13 24 92 80 94 ad 4b 00 29 f2 55 00 5b 5c ca 82
       -1.3420923e-38 6.94993e-39 7.892888e-39 -2.9734242e-37
000030 5c d9 c4 82 17 82 d0 02 7f 22 8b 38 98 a7 61 3f
       -2.892437e-37 3.063752e-37 6.634462e-05 0.8814635
000040 a3 a8 08 82 8b 1d 52 3e 82 0a cd 02 02 69 96 be
       -1.0040098e-37 0.20519082 3.0128074e-37 -0.2937699
000050 ed 25 00 83 ec d2 c4 82 b3 02 03 03 9e 53 91 00
       -3.7659356e-37 -2.8920675e-37 3.850054e-37 1.3346143e-38
000060 85 3b cc 01 1c cb 22 01 7f 71 93 bd ad a1 ed 02
       7.502317e-38 2.9900425e-38 -0.07199382 3.4916817e-37
000070 40 e2 6a 80 78 9e 98 00 37 97 50 01 21 ef d4 02
       -9.815726e-39 1.4015843e-38 3.8312058e-38 3.1287854e-37
000080 45 30 ca 02 08 9a c6 82 35 89 67 36 fa 30 f7 be
       2.9708938e-37 -2.9181895e-37 3.4501547e-06 -0.48279554
000090 bc 96 34 82 75 b7 bc be 89 eb c1 02 d7 fe 02 bd
       -1.326757e-37 -0.36858717 2.8493992e-37 -0.031981315
0000a0 c6 a5 f2 82 29 c9 be 82 93 80 0d 03 8d 32 50 00
       -3.5653853e-37 -2.803345e-37 4.158377e-37 7.364974e-39
0000b0 df 2c e4 81 26 1b 85 00 c4 39 48 3e c6 0f fe 02
       -8.381836e-38 1.222386e-38 0.19553286 3.7331e-37
0000c0 0d 09 68 80 08 e7 d1 00 47 8e 41 80 12 ef cd 82
       -9.554138e-39 1.9276497e-38 -6.020347e-39 -3.0259262e-37
0000d0 23 f7 bf 02 9e 58 c9 82 0a 68 5d b8 4a e1 1a 3f
       2.8206777e-37 -2.958516e-37 -5.27874e-05 0.60500014
0000e0 26 b5 2e 82 9a 77 98 3e 8f 11 c4 02 a3 c0 79 bd
       -1.2835488e-37 0.2977875 2.880969e-37 -0.06097473
0000f0 70 85 dd 82 9a 75 b9 82 1b 97 0f 03 7d c0 98 00
       -3.254962e-37 -2.7250807e-37 4.2197384e-37 1.4028047e-38
000100 7f 14 f1 81 29 82 04 00 8c 56 01 3f b7 d4 eb 82
       -8.855883e-38 4.14035e-40 0.50522685 -3.465224e-37
000110 c5 23 56 80 96 bc 78 00 03 c2 2a 80 fe 13 bd 82
       -7.910684e-39 1.1087911e-38 -3.926689e-39 -2.778253e-37
000120 50 e9 c9 02 8b 43 c6 82 fe f9 77 b8 bc 50 0a 3e
       2.966821e-37 -2.9132253e-37 -5.9122212e-05 0.1350736
000130 41 98 19 81 40 97 1e 3f a9 91 cb 82 90 e4 6a 3f
       -2.82109e-38 0.6194954 -2.9911774e-37 0.9175501
000140 73 ae f1 02 88 e6 c4 02 f9 a6 0b 83 4c b6 01 01
       3.5511896e-37 2.893193e-37 -4.1040104e-37 2.382435e-38
000150 bd 8c e4 81 1e 24 ec 00 62 88 bd bd f1 18 f6 82
       -8.395592e-38 2.1686133e-38 -0.092545286 -3.6160767e-37
000160 f7 00 19 80 bc 82 b7 00 46 69 04 80 06 b0 c6 02
       -2.296234e-39 1.6852794e-38 -4.05107e-40 2.9194518e-37
000170 00 a4 c0 02 f1 03 ce 82 c4 8d d5 b5 ec 08 5a be
       2.8305996e-37 -3.0271242e-37 -1.5910996e-06 -0.21292466
000180 fa bb 1e 02 a7 64 c0 3d 05 87 d1 82 04 eb 26 3e
       1.1661953e-37 0.09394198 -3.0787287e-37 0.16300589
000190 b1 12 d0 82 63 38 ce 02 95 f2 e4 82 e2 de 53 00
       -3.0573581e-37 3.0301344e-37 -3.3640824e-37 7.702301e-39
0001a0 4e 99 b6 81 71 a1 03 00 36 c8 c7 be ba 18 d4 02
       -6.707622e-38 3.33421e-40 -0.39019936 3.1164793e-37
0001b0 4a a4 23 81 cd ae c5 00 be 02 64 81 44 01 d2 82
       -3.0056243e-38 1.81543e-38 -4.1878954e-38 -3.0857453e-37
0001c0 83 a4 d7 82 ac 02 da 02 f1 10 fb 38 d6 b1 c5 bd
       -3.1685836e-37 3.2033755e-37 0.00011971768 -0.0965306
0001d0 82 ed 22 01 9f d7 c6 be 78 24 cb 82 c4 5f 3d bf
       2.9925104e-38 -0.3883638 -2.9849101e-37 -0.7397425
0001e0 0b bb 00 03 78 ea c0 02 1e 8c c2 82 6b c4 83 80
       3.7830534e-37 2.8346443e-37 -2.8586161e-37 -1.2100911e-38
0001f0 fa 3b 26 82 9c 7d 5d 81 a9 78 cc 3e 46 c7 05 83
       -1.2212966e-37 -4.068141e-38 0.39935806 -3.931394e-37
000200 a3 ba 04 00 70 67 7b 00 88 2e 28 00 4d a0 d4 82
       4.34295e-40 1.1332872e-38 3.690112e-39 -3.1242608e-37
000210 02 06 d3 02 e9 7e cc 82 8c 25 1d 36 ba b9 91 be
       3.1007112e-37 -3.0047949e-37 2.3416678e-06 -0.2846201
000220 c6 5a e9 80 3a 68 aa bd ea 21 a3 82 11 68 43 3e
       -2.1430234e-38 -0.08320661 -2.3970163e-37 0.19082667
000230 be c2 e7 82 ca 05 c1 02 52 9c 18 83 b5 86 50 00
       -3.4054176e-37 2.8362124e-37 -4.4848232e-37 7.395163e-39
000240 ab b0 f2 81 c5 04 89 00 b9 f5 03 3f 74 f2 f6 02
       -8.9150266e-38 1.2583174e-38 0.5154682 3.6285613e-37
000250 4b 34 27 80 04 87 c1 00 32 46 28 00 73 84 c5 02
       -3.600344e-39 1.7772685e-38 3.698601e-39 2.902257e-37
000260 72 78 cb 82 9c ea c3 02 7d d8 0f 37 a5 f1 4e 3f
       -2.9897301e-37 2.8787334e-37 8.573869e-06 0.8083747
000270 c8 77 06 01 3e b6 3a 3f 7c da ce 82 44 c3 fd 3d
       2.4697852e-38 0.7293433 -3.0394383e-37 0.123907596
000280 2c ac ed 02 7e ad d5 82 94 ea 08 83 0c 22 71 80
       3.4922842e-37 -3.1397117e-37 -4.023609e-37 -1.0389625e-38
000290 ca 49 fd 01 e0 54 09 80 72 41 5d be b9 13 f3 02
       9.3043404e-38 -8.56967e-40 -0.21606997 3.5716961e-37
0002a0 a5 a5 3a 80 00 1d 52 00 81 ed 51 80 44 ed da 02
       -5.385881e-39 7.540914e-39 -7.523876e-39 3.2168405e-37
0002b0 6e 0a c9 02 0a a4 df 82 e3 68 a6 b7 74 b8 8d 3c
       2.9540282e-37 -3.2861059e-37 -1.9837584e-05 0.017299868
0002c0 82 70 0b 01 bd cf b8 3e a2 17 c9 02 f4 2f 05 3f
       2.5610988e-38 0.36095992 2.954786e-37 0.52026296
0002d0 10 4d 03 03 56 78 bc 02 cf 5b 11 03 2e 96 d2 00
       3.8585903e-37 2.7693187e-37 4.271706e-37 1.9339329e-38
0002e0 57 5d fc 81 5f 1d 81 01 3d 8b b8 3c 81 16 fc 02
       -9.2704116e-38 4.742926e-38 0.022527331 3.7040989e-37
0002f0 e1 0d 69 00 33 06 0b 00 c9 69 18 80 f7 8b d1 02
       9.647706e-39 1.012414e-39 -2.242e-39 3.0790126e-37
000300 f2 5c d5 02 04 fa d8 82 6b 2b 35 37 98 7e 7b 3e
       3.1350885e-37 -3.188185e-37 1.079855e-05 0.2456001
000310 1a a3 33 02 e5 29 c1 3e 98 0e cb 82 b3 64 b5 3e
       1.3197651e-37 0.37727275 -2.9836546e-37 0.3542839
000320 37 e4 f0 02 fd 76 26 81 f7 6c bf 81 ad 34 9c 00
       3.539582e-37 -3.0574755e-38 -7.0318676e-38 1.4345234e-38
000330 67 22 14 82 cb 41 2c 80 a2 31 8c bf fa f3 ff 02
       -1.0883196e-37 -4.064364e-39 -1.0952647 3.7608918e-37
000340 e0 1b 3f 00 d7 9b 1e 00 a4 71 46 00 ad 57 d2 02
       5.795636e-39 2.81097e-39 6.469251e-39 3.090705e-37
000350 60 d6 c0 02 8d 0c d3 82 54 71 c4 b8 99 b0 26 3d
       2.833491e-37 -3.1010867e-37 -9.367117e-05 0.04069576
000360 c1 b4 e5 80 ef 96 e4 3e 32 59 a8 02 f6 8f 2d 3e
       -2.1095171e-38 0.44646403 2.4736577e-37 0.16949448
000370 03 3f e6 82 d9 39 d2 82 06 90 f4 82 8d 5e 6b 80
       -3.383163e-37 -3.088993e-37 -3.5935243e-37 -9.860317e-39
000380 b6 fa a2 01 1f 7d 87 81 80 2e f2 be af c6 d8 82
       5.9869154e-38 -4.977071e-38 -0.47301102 -3.1852386e-37
000390 9c 61 2b 00 6f c0 97 80 1f 49 2a 01 96 28 cf 82
       3.983942e-39 -1.3936192e-38 3.127653e-38 -3.0439212e-37
0003a0 ea 96 d7 02 87 80 d6 82 bd cc 01 b9 da 0f 91 3d
       3.167803e-37 -3.1518245e-37 -0.0001237867 0.070831016
0003b0 ca b4 09 82 9c 05 64 be 07 55 d7 02 a3 82 f6 3d
       -1.0117054e-37 -0.22267765 3.1640214e-37 0.12036636
0003c0 30 aa d6 82 3b 31 c3 82 59 6f 02 03 00 bf 8c 00
       -3.1542157e-37 -2.8680932e-37 3.8331387e-37 1.2925487e-38
0003d0 5f af d1 81 3b 74 c2 00 ef df 04 be 65 20 e9 02
       -7.702612e-38 1.7857782e-38 -0.12976049 3.4254867e-37
0003e0 5a e4 75 80 18 00 9b 80 a6 d1 5f 00 88 cb c9 02
       -1.082667e-38 -1.4234536e-38 8.79958e-39 2.9651117e-37
0003f0 07 8e c1 82 1d b1 c3 02 e9 df 80 38 b9 c5 94 3d
       -2.844032e-37 2.8754333e-37 6.145222e-05 0.07264275

layers.0.conv.msg_mlp.2.bias f4 [20]
000000 7f d8 1a 3d cf 64 17 3d c5 20 f6 bd 77 8b fa bd
       0.037804123 0.036961373 -0.12017969 -0.12233632
000010 68 ef ab be ba c3 9a be e1 c2 0c 3e 49 1d aa be
       -0.3358109 -0.30227453 0.13746215 -0.33225468
000020 a4 6b c8 3e e4 1f 9b be 5a 6e e4 bd c2 a8 c2 3e
       0.39144623 -0.30297768 -0.111538604 0.38019377
000030 22 5a a3 3c 0e 01 9d be 20 69 41 3f c8 46 bd 3d
       0.01994044 -0.30664867 0.75551033 0.09242016
000040 37 b1 20 bf cb 52 23 be a2 e0 91 3e d0 b8 a5 be
       -0.6277041 -0.15949552 0.28491694 -0.32367563

layers.0.mlp.norm.weight f4 [20]
000000 bb fd 93 3f 11 98 3f 3f ae 00 6d 3f 28 82 89 3f
       1.1561807 0.7484141 0.9257916 1.0742846
000010 31 52 59 3f 7d 2f 68 3f ff 5b 3e 3f e6 4d 17 3f
       0.8489104 0.9069746 0.74359125 0.5910324
000020 0e 77 cc 3e 7e de 4a 3f 47 d6 20 3f 06 81 9f 3e
       0.39934582 0.79245746 0.6282696 0.31153125
000030 6d 8d 00 3f 14 ac 81 3f 50 b2 77 3f 62 ab 8b 3f
       0.502158 1.0130639 0.9675646 1.0911677
000040 44 ec 06 40 fa f9 29 3f 57 b3 67 3f 61 dc 14 3f
       2.1081705 0.6639706 0.90508026 0.5814877

layers.0.mlp.norm.bias f4 [20]
000000 a8 e2 a2 bc 8a 04 28 be 9d ce 20 3e 28 36 15 bd
       -0.019883469 -0.16407982 0.15703817 -0.0364286
000010 6c 55 ef 3d ab 9c 5e 3e 50 b5 b6 be fb 2b 1a be
       0.11686215 0.21739452 -0.35685205 -0.1505584
000020 59 83 09 bf 09 2d 61 3e 45 ee 81 be dc 90 c6 be
       -0.53716046 0.21989836 -0.25377098 -0.38782394
000030 cc 72 5c 3e c7 7b 53 3d dc c9 2e 3d b5 55 ee bd
       0.21528167 0.051631715 0.042672977 -0.11637441
000040 ab 57 4f 3e 36 5d 79 3e 35 e7 25 bd c0 41 39 3f
       0.20248286 0.24351963 -0.0405037 0.7236595

layers.0.mlp.mlp.0.weight f4 [48, 20]
000000 4a fa 36 be d5 df 33 3e 09 8d 74 3d 22 98 19 3d
       -0.17868915 0.17565854 0.059704814 0.0374986
000010 9e f8 36 3e 5b c5 27 3e e8 99 91 3b e2 0c 19 be
       0.17868277 0.16383879 0.004443396 -0.1494632
000020 21 fb cc bd ce 59 c1 bd ff 70 a1 39 2a b0 3c 3e
       -0.100088365 -0.09440957 0.00030792502 0.18426576
000030 93 05 75 bc 44 e5 44 3e 18 a6 a3 3c 93 df a6 be
       -0.014954942 0.19228083 0.01997666 -0.3259245
000040 37 0b a7 3f e3 af 80 bd 82 55 2d be 6c c7 3f be
       1.3050297 -0.06283548 -0.1692715 -0.18728417
000050 ff 05 1a 3d 7d e4 3d bd 4d f5 ed bc cd e0 e4 3b
       0.037603375 -0.04636048 -0.029047633 0.006984806
000060 99 35 a7 bc 3b e9 1a bc b2 fc d1 bc cd ed ee bb
       -0.0204113 -0.009455021 -0.02563319 -0.0072915317
000070 49 63 21 3b 66 8d f7 bc fe 55 9f 3c db ea 20 3d
       0.002462583 -0.030218791 0.019450184 0.039286476
000080 10 f0 07 bd 62 ee 05 bd 01 49 6f bc 65 98 dd bb
       -0.033187926 -0.032698043 -0.014604808 -0.0067625516
000090 93 01 3b 3d 7b 98 82 3c 6a ad 70 bd 2b 02 0e bc
       0.0456558 0.015941849 -0.05875913 -0.008667509
0000a0 88 f7 36 be ae 82 08 bf 84 2b ea 3b d5 34 0e 3d
       -0.17867863 -0.533244 0.0071463007 0.034718353
0000b0 5c e0 7c 3f b7 61 1e bd 65 6b aa be d7 99 17 3f
       0.98779845 -0.038667407 -0.3328506 0.59219116
0000c0 59 0b 96 be 1a c9 0d 3f 78 9e d1 3e c4 fa 3c be
       -0.29305533 0.5538498 0.40941215 -0.18455034
0000d0 fd bb e8 be 1c bf 8e 3e 21 a9 24 bf 46 de 60 be
       -0.45455924 0.2788018 -0.6432057 -0.2195979
0000e0 78 3f d8 3e a5 de 43 bd a6 40 f5 bd 7c 6b 0b 3f
       0.42235923 -0.047819752 -0.11975221 0.54460883
0000f0 22 db 90 be 60 d9 4c bc 5a 8e 62 be 3b be 2b bf
       -0.28292185 -0.012502998 -0.22124615 -0.67087144
000100 34 66 28 3d 36 59 b6 3e ca 92 13 bc c8 0f 28 be
       0.041113093 0.35614938 -0.009007165 -0.1641227
000110 67 7b 2c 3d 84 42 68 3d e1 86 4c 3e f8 f7 b9 3c
       0.042109873 0.05670406 0.19973327 0.022701249
000120 87 e8 ce 3d 84 15 c1 be 5c f3 84 3e c9 63 d8 3e
       0.10102945 -0.37711728 0.25966918 0.4226363
000130 0b c7 d0 bd 3f 4f cf bd e9 cd df 3e cb 06 98 3e
       -0.101942144 -0.10122537 0.43711784 0.29692683
000140 3c b5 26 bf 68 3c b4 3c ac 04 22 bf c7 93 80 bd
       -0.6512029 0.02200146 -0.6328838 -0.06278186
000150 c9 44 0e 3f 54 28 20 3e d4 7f 88 3d 4a 04 70 be
       0.5557371 0.15640384 0.06665006 -0.23439136
000160 83 bc f1 bd 4e 3d 14 be 02 a0 c4 bd a3 8b 34 3e
       -0.11803534 -0.14476511 -0.096008316 0.17631392
000170 98 4e 44 bd d1 fe ad 3d bd 86 ed 3e e9 3c 5a 3d
       -0.047926515 0.08495868 0.4639186 0.053280745
000180 6b 94 5d 3f 0e c8 32 be 56 27 a9 3e 2f f4 bc 3c
       0.8655459 -0.17459127 0.33037823 0.023065655
000190 5c f5 48 be 96 4f d2 3e c5 22 fd bd fb 8d a5 3e
       -0.19624847 0.41076344 -0.123601474 0.32334885
0001a0 e8 c0 d6 bd c6 c7 41 3d 70 99 8c 3e 10 99 a4 be
       -0.10486013 0.04730966 0.27460814 -0.32148027
0001b0 25 01 a6 39 c7 65 9b be cb 2d 90 be c5 21 25 3e
       0.0003166284 -0.30351087 -0.28159937 0.16126163
0001c0 76 0b 93 bc 88 32 90 3d 79 70 0f 3e 29 f9 70 3d
       -0.017949801 0.07040888 0.14007749 0.058831368
0001d0 e6 6e 18 3f c7 69 08 be 35 34 be be 14 74 b8 be
       0.5954422 -0.13321601 -0.37149206 -0.3602606
0001e0 8c aa 11 3d bc d8 cb 3e 50 4c 0d bf 87 81 48 bf
       0.035563037 0.39813793 -0.5519457 -0.78322643
0001f0 05 d8 4e bc 81 b4 3d 3e d4 97 e6 3b 83 07 0e bf
       -0.012624745 0.18525888 0.0070371423 -0.5548021
000200 df eb 0c 3c c1 8d f7 bd 16 93 d3 3e 84 c5 81 3d
       0.008601158 -0.12087584 0.41323155 0.06336501
000210 45 77 5e 3e 07 32 33 bf d3 25 f3 3d 19 8e 64 3e
       0.21725185 -0.6999821 0.11872449 0.22319831
000220 38 58 02 3e 07 d3 53 be ef b8 ff 3e 89 9c 07 3e
       0.12728965 -0.2068597 0.4994578 0.13243307
000230 f1 89 68 3e a3 c3 17 3e 3e 40 93 3d 39 75 0c bf
       0.2270887 0.14820723 0.071899876 -0.5486637
000240 c2 b0 48 3d 4e a6 f0 3d 91 52 f6 bd 13 09 c1 3d
       0.048996694 0.1175047 -0.12027467 0.09425559
000250 2d ee 6e bd dc cd f4 bd 05 0d 29 3e 69 af 4e 3d
       -0.05833261 -0.11953327 0.16508873 0.050460253
000260 84 05 95 3d 7b cc 58 3d aa 35 04 bc ce 83 b0 be
       0.07276443 0.052929383 -0.008069435 -0.3447556
000270 07 56 ec 3e 89 3b 2a 3c 19 48 61 bd 86 92 57 be
       0.46159384 0.010390171 -0.0550004 -0.21051988
000280 d5 fa 27 3e 84 99 4d be 12 48 06 3e 54 0e dc be
       0.16404279 -0.20078093 0.1311343 -0.42979681
000290 73 9c 11 be 8c bf 2d 3d 1c 54 2d bd 84 a4 e2 3d
       -0.14219837 0.042419 -0.04231654 0.11066535
0002a0 cd a5 3e 3d 82 83 cc bd 82 10 9f 3e 4a f9 ba 3d
       0.04654484 -0.099860206 0.31067282 0.09129579
0002b0 bb 19 83 3d c5 db 44 3c fd 09 6a bd 32 be 56 be
       0.06401392 0.012015288 -0.05713843 -0.20970991
0002c0 dc 4b 40 be 6d 8c 8c 3d 00 d7 fa 3d b2 da 98 bc
       -0.18778938 0.068627216 0.12248039 -0.01865897
0002d0 1b 8c 2e be 65 2d 46 bd 07 02 6c bd 98 34 5a be
       -0.17045633 -0.048383135 -0.05761912 -0.21309125
0002e0 4a 38 9c 3d ab e6 a3 3e bc f1 9f bd f0 ca d9 3b
       0.07627924 0.32011923 -0.07809779 0.0066465065
0002f0 e1 10 86 3b 7b 8a 11 3d b3 79 61 3d 4a 34 f0 3c
       0.0040913676 0.035532456 0.055047702 0.029321808
000300 5c 99 a4 bc 1c 30 03 bd d6 30 3b be fa e7 e5 3d
       -0.020092659 -0.032028303 -0.18280348 0.11225887
000310 06 73 f5 3e c9 c5 79 3d 5f e6 1d be 79 6d 23 3c
       0.47939318 0.06097964 -0.15419911 0.009974831
000320 95 2e 2b be 9c 91 ad 3e ce 69 7e 3e d8 96 17 3e
       -0.16716988 0.33900154 0.24845049 0.14803636
000330 32 e8 72 3e 6c 16 91 3e 35 2e 87 bc 3a 99 9c bc
       0.23721388 0.2833742 -0.016501525 -0.019116033
000340 fc 64 88 bd 4a e5 55 bb 1a e1 64 3e 17 18 9c 3d
       -0.06659886 -0.0032637888 0.22351494 0.07621782
000350 0b 8f 82 3d 2a 6e e1 3e b9 1b c1 be d3 aa 69 be
       0.063749395 0.4402936 -0.37716463 -0.2281907
000360 af 7a e8 3f 68 f3 e0 bc 35 01 2d be cb 80 9c be
       1.816244 -0.027459815 -0.16894992 -0.3056701
000370 f5 ff dc 3b 51 14 44 3b 44 13 be bb b7 4d b1 3a
       0.0067443796 0.0029919336 -0.0058006365 0.0013527189
000380 e8 7e 91 bb 39 c2 8a bc cb 4e f7 3c 22 79 df 3b
       -0.004440177 -0.016938316 0.030188939 0.00681986
000390 67 5b 4b bb d1 2a ee 3b 2f 69 07 bd c6 94 89 bc
       -0.0031029822 0.0072682877 -0.033059295 -0.016794574
0003a0 12 03 23 3c 26 01 ad 3c e0 09 a8 3a c5 34 d7 3c
       0.0099494625 0.021118712 0.0012820326 0.02627028
0003b0 f5 17 dc ba ab e5 96 bc 4d 97 8f 3c 3e e6 4c 3c
       -0.0016791808 -0.018420061 0.0175282 0.012506066
0003c0 9b c7 21 be 00 60 bf bd 07 d1 6d bd 41 b8 21 be
       -0.157988 -0.093444824 -0.058060672 -0.15792944
0003d0 63 88 a4 3d b3 b9 83 3e 0c c6 0d be 1b f2 19 3d
       0.08033826 0.25727615 -0.1384508 0.037584405
0003e0 85 c5 af 3b 88 d3 27 3d 0e 21 f3 3d 3a d7 6c 3d
       0.0053641223 0.040973216 0.11871539 0.057822444
0003f0 2a 62 bf bc f8 cc 91 bb e9 22 5f be 36 24 10 bc
       -0.023362238 -0.004449483 -0.21790661 -0.008797696

layers.0.mlp.mlp.0.bias f4 [48]
000000 f6 fe 6d 3e 4b 8c 11 3d 80 5c 10 be 0d 7f d7 be
       0.23241791 0.035534184 -0.14097786 -0.4208912
000010 87 e7 7a 3d 43 d2 a4 3d e4 7e 4c be 1c 9b dc bd
       0.061255958 0.08047917 -0.1997028 -0.10771772
000020 7a 72 d5 be 40 86 82 be 08 e1 52 3e 06 02 dd b9
       -0.416889 -0.2549305 0.20593655 -0.00042153912
000030 79 37 7d be 08 39 4f be 6a 0d d7 be cf 40 33 ba
       -0.24728192 -0.202366 -0.42002422 -0.00068379653
000040 51 63 f7 bc 0c 43 58 be 5d f4 85 be 7d 7e c3 bd
       -0.030198725 -0.21119326 -0.26162997 -0.0954561
000050 1e b1 e5 bc 6c 76 93 3c 33 ba 8d be 4e e0 e1 bd
       -0.028038558 0.018000804 -0.2768112 -0.11029111
000060 89 9d e4 bd 1c 2b 19 bd 85 82 8b be 6c a8 8e bc
       -0.1116286 -0.037394628 -0.27248016 -0.017414294
000070 f9 e7 b9 be 90 96 e0 be ef 96 33 be 95 ae 82 be
       -0.36309794 -0.4386487 -0.17538045 -0.2552382
000080 9d 57 29 3c fd 0d 67 be d0 3f 09 bd a2 d2 2e be
       0.01033583 -0.2256393 -0.033508122 -0.17072538
000090 1b c2 c6 bc 60 da 90 bd 5b da 10 bf 26 39 ca be
       -0.024262479 -0.07072902 -0.56583184 -0.39496726
0000a0 eb d9 2a be e0 bc da be 66 a6 3a be ba 03 d8 bc
       -0.16684692 -0.42722225 -0.18227538 -0.026368964
0000b0 11 eb 1e be 11 18 7b bd b0 35 d4 bc 37 48 61 be
       -0.15519358 -0.06130225 -0.025904506 -0.22000204

layers.0.mlp.mlp.3.weight f4 [20, 48]
000000 17 55 41 bf df 12 2d bb b0 a7 06 3e 12 e3 06 3e
       -0.7552046 -0.0026408953 0.13149905 0.13172558
000010 15 d0 04 bf e8 dd f1 bc 9d 98 97 3e f5 92 80 3d
       -0.5188001 -0.029524758 0.29608622 0.0627803
000020 ad f6 56 be 22 a4 1d bc 64 44 35 bf 4a c9 a5 3b
       -0.20992537 -0.009621652 -0.7080748 0.005059396
000030 0a 20 92 3b fd 25 6c 3e bf e0 78 3e 6e d4 3f bd
       0.0044593858 0.23061366 0.24304484 -0.046833448
000040 69 c1 21 3b 3a 16 4a 3b ae 8d 33 3d e5 e0 67 be
       0.0024681932 0.0030836002 0.04383629 -0.22644384
000050 f7 d8 e9 3c 87 16 03 3d be 9d 34 3f 1d 99 d6 3d
       0.02854584 0.032003906 0.70553195 0.10478423
000060 30 26 9d 3c e7 6e 2e bc f2 aa bb bc c5 f2 d4 3b
       0.019183248 -0.010646558 -0.022908662 0.006498667
000070 58 4a b9 3d 55 10 97 bb cd c3 61 be 35 f9 d7 3c
       0.09047383 -0.004610101 -0.22047348 0.026363948
000080 45 dc 74 bc ec 4f d9 3e 29 9c 67 3d 05 ed 88 3c
       -0.0149450945 0.42443788 0.05654541 0.016714582
000090 f0 e3 e6 3b a4 d1 88 be 3b 2a 86 3e a4 24 b1 3e
       0.0070462152 -0.26722443 0.26204094 0.34598267
0000a0 d1 75 85 be f3 3d ca 3e c2 8f ad 3e 18 5c 66 3d
       -0.2606645 0.39500389 0.3389874 0.05624017
0000b0 18 4d ad 3e 80 38 40 3f 9d db ea 3c 98 65 37 be
       0.3384788 0.7508621 0.028669173 -0.17909849
0000c0 53 47 b4 3e 94 bb 83 3d ee ef ce be 26 47 e5 3d
       0.35210666 0.06432262 -0.40417427 0.11195211
0000d0 0a 4a e5 3e 24 32 85 3e 00 fc c0 bd 45 05 9f bc
       0.4478305 0.26014817 -0.09423065 -0.019411692
0000e0 78 26 89 be 71 aa 05 be 86 d1 c7 3e 7d 8b 10 bd
       -0.26787162 -0.130533 0.3902704 -0.035289276
0000f0 b9 00 8f be c7 cf 14 3c 37 59 15 be bb ac e6 3d
       -0.2793024 0.009082741 -0.14584814 0.112634145
000100 c5 6f c7 bb e7 5a a3 3d de f2 7d be 8b c7 35 3e
       -0.006086322 0.079763226 -0.24799678 0.17751901
000110 a9 10 fc 3c c9 c0 25 3e 54 ff e3 bc 60 d4 22 3e
       0.030769663 0.16186823 -0.02783171 0.15901327
000120 2a fe c0 be d9 1b 40 bd 34 9d 3f be 52 de 67 bc
       -0.37693912 -0.046901558 -0.18712312 -0.014152126
000130 e4 ab c3 bc 22 7b 87 be 0a d7 02 bd 76 04 49 be
       -0.023885675 -0.2646113 -0.03194336 -0.19630608
000140 9c cc 64 3d 8b d0 3c 3f 1d 09 c2 bd 89 57 93 bd
       0.055859193 0.7375571 -0.094743945 -0.071944304
000150 fd 6e 80 bc 42 df bf 3e 4f 54 08 3e 5f 2e a3 be
       -0.015677923 0.3747502 0.13313411 -0.31871316
000160 00 49 8a 3d a5 24 39 bd a6 9b 37 be e3 8f 0c bc
       0.06752205 -0.045200963 -0.17930469 -0.008579227
000170 be e7 7d be 58 01 eb 3d 85 45 a9 bc 9e 33 84 be
       -0.24795434 0.11474866 -0.020663032 -0.2582063
000180 3d 34 64 3e a3 7b a5 bc 4e 4c 75 bd e6 8a a1 bd
       0.22285552 -0.020200556 -0.059887223 -0.07887821
000190 71 d8 05 3f 88 5e 4a 3d 46 1a d9 3d d4 b9 7c be
       0.5228339 0.04940656 0.106007144 -0.24680263
0001a0 dd 3e 46 be 3b ae e1 3d 17 22 33 bd 05 4e 11 ba
       -0.19359918 0.1101956 -0.043733682 -0.0005542937
0001b0 78 6e 9a 3d 08 fc 02 3f 2b 95 d5 3d d3 11 29 3e
       0.075406015 0.5116582 0.10428842 0.16510706
0001c0 93 70 28 3d ab 4a c9 be c6 b2 b3 3d 2e b7 6c 3e
       0.041122984 -0.3931478 0.08774333 0.23116753
0001d0 dc af ac be a5 a7 74 be 09 79 15 bf a2 5a 30 bf
       -0.3372792 -0.23892076 -0.5838781 -0.68888295
0001e0 f3 c5 c6 3e 56 14 c3 3c ed 61 9c 3d 77 f3 84 3b
       0.38822898 0.023813408 0.07635865 0.0040573436
0001f0 3f fc 14 3c 28 36 d8 bd 65 e8 10 bd 33 c8 fe 3d
       0.009093343 -0.105572045 -0.03537788 0.12440529
000200 4b c5 7a bb aa 67 28 3e 23 3b 5d 3d 38 40 ab 3e
       -0.0038264568 0.16445795 0.054011475 0.33447433
000210 97 4a 04 3d 6d 52 e6 3e 80 b4 c0 3d 7f 7b c2 3e
       0.032297697 0.4498476 0.09409428 0.37984845
000220 c4 bc 34 3d 5f 5d ba 3d d7 60 d4 3e 86 5c 8e be
       0.044125333 0.090998404 0.41480133 -0.27804965
000230 89 f0 11 bf bb 5f 43 bf d4 e9 14 3d 45 f2 f7 be
       -0.5700765 -0.7631795 0.03635581 -0.48427024
000240 56 8f a9 3a eb 1c be 3b 75 f7 b5 be 13 e4 5d 3d
       0.0012936394 0.005801787 -0.35540357 0.054172587
000250 6b 69 03 3f 67 59 cb be 5b bc 96 bd 18 e6 b6 bc
       0.5133273 -0.39716646 -0.07360145 -0.022326514
000260 36 cd a4 bc 9f 4e 2b 3e fe b1 9b 3d 25 5a 86 3c
       -0.020117383 0.1672921 0.07602309 0.016400406
000270 04 46 83 3e 7a f2 fc 3e b0 87 86 bd 2d 10 c1 3e
       0.25639355 0.49403745 -0.06568849 0.37707654
000280 19 54 c9 3b 13 14 38 be eb 44 30 3e 18 a3 3e 3e
       0.0061440584 -0.17976408 0.1721379 0.18616903
000290 65 c5 a4 bd ad 8b c9 bd c5 e0 e1 be 84 8e 77 be
       -0.080454625 -0.09841094 -0.44116798 -0.24175459
0002a0 85 df cb 3e 2b a6 87 3c a6 ca 42 3e 09 1a 00 3c
       0.3981897 0.016558727 0.19022617 0.007818707
0002b0 7b 02 74 3d 60 5a 94 bd d3 09 b7 bc 28 c9 4b 3e
       0.059572678 -0.072438 -0.022343552 0.19900954
0002c0 87 88 f2 ba 15 15 06 3f 86 5f 37 3d 69 65 71 3e
       -0.0018503823 0.5237592 0.044768833 0.23573841
0002d0 e6 ee ab 3c 55 87 d8 3e 90 52 1a 3e 1f a8 37 3f
       0.02098794 0.4229075 0.15070558 0.7174091
0002e0 df 4a 26 3e 69 f9 1b be 25 49 62 3e 4f 29 cd be
       0.16239499 -0.15231861 0.22098215 -0.40070578
0002f0 92 8c cc be d4 c6 09 bf eb 67 fe 3b be fc 51 3e
       -0.39950997 -0.5381901 0.007763853 0.2050657
000300 c8 98 76 3e b2 ab 55 bd 51 c1 06 bf 26 a2 8b bc
       0.24081719 -0.052165695 -0.5263873 -0.017045092
000310 83 92 c3 3e af e5 ed 3d ec 10 48 3e da cd a0 3c
       0.38197717 0.11616074 0.19537705 0.019629408
000320 5c fe 1a be 94 f1 81 3c c7 8e 1b 3f 2a 29 78 bb
       -0.15136093 0.015862264 0.60764736 -0.0037866333
000330 73 0f f4 3c 2f eb ea 3d cf fb 8b 3e f9 e5 03 3f
       0.029792523 0.11470639 0.27340552 0.51522785
000340 8b c5 4e 3c d2 7c 06 3e 29 77 03 bd c9 20 56 3e
       0.01262034 0.13133553 -0.03209606 0.20910944
000350 3a f9 91 3c 73 a4 54 3d b9 6e a5 be 17 a6 62 3e
       0.017819036 0.051914643 -0.32311037 0.22133671
000360 8d e3 c2 3e ea b9 af 3c 67 95 75 3b cc 2f fe 3b
       0.38064232 0.021450955 0.0037473084 0.0077571627
000370 ca bc 85 bd 24 b7 10 be 19 d0 29 bd 2a 38 ec 3c
       -0.06530149 -0.14132363 -0.041458223 0.028835375
000380 da 33 ee bc d3 43 c0 3e 26 27 9d 3d 3c 29 e0 3d
       -0.02907746 0.37551746 0.076734826 0.10945365
000390 dc 03 e5 3c d0 8a 8c 3e 15 63 88 3d 71 6e ed bc
       0.027955942 0.27449656 0.066595234 -0.028983327
0003a0 4c 6e 4f 3e 20 a9 bb 3e d2 0c 89 be 98 87 18 3d
       0.20256919 0.3665247 -0.26767594 0.037238687
0003b0 b3 53 99 bd bd 33 56 be 27 42 3e 3c e3 63 2e be
       -0.074866675 -0.20918174 0.011612452 -0.17030291
0003c0 27 8f a5 3c 2b 14 68 3b 68 cd f7 3e 72 af 6e 3e
       0.020209862 0.0035412412 0.483989 0.23309115
0003d0 5a 88 de be be b0 25 3e de 15 37 3e d8 3e e5 bd
       -0.43463403 0.16180703 0.17879435 -0.11193627
0003e0 f8 87 62 3e b5 bf c8 bb 50 e8 cb 3d d4 01 ac ba
       0.2212218 -0.006126369 0.099564195 -0.0013123103
0003f0 a2 98 2e 3b 65 b4 5c bd db dc 15 3e 9b a5 b5 3e
       0.002664127 -0.053882975 0.14635031 0.3547791

layers.0.mlp.mlp.3.bias f4 [20]
000000 60 b8 9d be 15 79 92 3d 36 3f 65 be 0c 51 e3 be
       -0.3080473 0.07152001 -0.22387394 -0.4439777
000010 f0 8f b7 bd 78 86 b8 bd b3 02 2a be e6 81 e5 be
       -0.08963001 -0.09010023 -0.16602592 -0.44825667
000020 5f a3 54 3e 67 99 d5 bd a4 15 3e 3d 47 cf 98 3e
       0.20765446 -0.1042965 0.046407357 0.2984564
000030 ae 08 22 be 25 1f cf 3b d4 5d 83 3e c0 36 7e bc
       -0.15823624 0.0063208514 0.25657523 -0.015515983
000040 b5 ef a6 bd 57 d3 c5 bc 97 ea 51 bc b8 29 47 be
       -0.08151189 -0.024148626 -0.012812278 -0.19449508

layers.1.conv.norm.weight f4 [20]
000000 3a 58 40 3f 41 68 89 3f a9 75 2e 3f 11 22 0a 3f
       0.75134623 1.0734941 0.68148285 0.5395823
000010 6d 9e 64 3f d2 5c 93 3f 06 25 84 3e e5 2d 19 3f
       0.8930424 1.1512702 0.25809497 0.59835654
000020 e7 51 60 3f f6 8b da 3e f0 73 37 3f a8 0a 03 3f
       0.87624973 0.42684907 0.7166128 0.51188135
000030 c8 b0 44 3f ee 58 a9 3e bc f0 23 3f 19 1f a0 3e
       0.76832247 0.3307566 0.64039207 0.31273726
000040 d6 28 99 3f 03 8e c1 3e f7 23 2b 3f 41 47 8a 3e
       1.1965587 0.3780366 0.66851753 0.27007487

layers.1.conv.norm.bias f4 [20]
000000 14 51 83 be 8a 31 ed bd cf 4a bc bd b8 49 b8 be
       -0.25647795 -0.115817145 -0.09193956 -0.35993743
000010 c6 4b 79 3e 5a 30 0d bd c0 53 cc bd ce 78 36 be
       0.24345312 -0.03446994 -0.099769115 -0.17819521
000020 ea b6 65 be 40 4e a9 3e 01 3b 40 be 0f fd ed be
       -0.22433057 0.33067513 -0.18772508 -0.4648213
000030 7a c3 45 3e 01 59 cc bc 44 84 de bd 8f ee 8b 3e
       0.1931285 -0.024944784 -0.108650714 0.27330443
000040 6c 21 2a 3c 1b 2b f5 3c 40 ab af 3d 79 40 f8 3e
       0.010383945 0.02992778 0.08577585 0.4848669

layers.1.conv.msg_mlp.0.weight f4 [20, 20]
000000 dc 5b 7f 3c 52 5d 19 3e 6b 4c bb bd 2d cc 2e be
       0.015585866 0.14977005 -0.09145435 -0.17070074
000010 90 f8 cb bd 16 74 af bd 01 14 20 3b 61 bb 2f 3e
       -0.09959519 -0.085670635 0.0024425986 0.17161323
000020 80 02 04 be 77 47 76 3e a9 8a 8e 3e 54 09 e6 bd
       -0.12891579 0.24050699 0.27840164 -0.11232248
000030 d6 91 0e be 78 b9 44 3e 2f 0e df be 38 b6 a6 3d
       -0.1392282 0.19211376 -0.4356551 0.08140224
000040 42 85 41 3e 09 15 c4 3d b6 01 30 3d 16 9b 78 be
       0.1889849 0.09574325 0.04297038 -0.2427791
000050 2d 14 eb 3b de 52 80 bb 99 4b 34 3d f9 5f 33 3d
       0.007174036 -0.0039161285 0.044017408 0.0437927
000060 65 ef 89 3c fe 26 14 3d 5d 7a 46 bd 1b 68 78 bb
       0.016837785 0.03617 -0.04845654 -0.0037903849
000070 8d be 5d 3d b4 36 a2 3c 95 c3 9c 3d 47 1b 93 3c
       0.0541368 0.019801475 0.07654492 0.017957343
000080 ef 93 4d 3d 19 e2 5a bd ad ab a7 bd fe 35 91 bd
       0.05018991 -0.05343828 -0.081870414 -0.07090376
000090 ab a9 33 3c a2 42 85 3d 48 d2 6b bd f0 95 72 3c
       0.010965745 0.0650685 -0.057573587 0.014806256
0000a0 68 f1 04 be 42 30 88 3c 2b 82 32 3e 3b 47 f4 3d
       -0.12982714 0.016624574 0.17432468 0.11927649
0000b0 c8 9f 4e 3e d9 a8 53 3f 91 17 45 3e 99 7b 9c 3d
       0.20178139 0.82679516 0.19247271 0.07640762
0000c0 6e b1 5c be b0 f4 54 bd 4a 79 c0 be b7 27 0f be
       -0.21552059 -0.051991165 -0.37592536 -0.13979994
0000d0 0e 84 a6 3c 6b 86 87 3e bc e2 10 be 1a da 9f be
       0.02032664 0.2646974 -0.14148992 -0.31221086
0000e0 01 f0 d8 3e 3d ac 8c bd c9 0f aa be 9b ff fd bd
       0.42370608 -0.06868789 -0.33215168 -0.124022685
0000f0 1d e2 a4 bc a7 78 28 bc a0 d7 1e 3d 36 df c4 3c
       -0.02012735 -0.010282672 0.038779855 0.024032217
000100 f7 c5 0b 3c 13 32 e3 3c fd 5b e2 3b 39 9b 0a 3c
       0.008531085 0.027733838 0.0069079385 0.0084598595
000110 d3 bf 65 bc 95 da e1 3b 25 d2 67 3c ef 78 45 3b
       -0.014022785 0.006892512 0.014149223 0.0030131896
000120 0b 6f 24 bd 4e f6 ff 3b 48 e2 97 bc 77 40 eb 3a
       -0.04014496 0.007811344 -0.018540516 0.0017948289
000130 43 75 68 3c 55 cf 93 39 36 e1 b0 bc 65 8c c9 37
       0.014188114 0.000281925 -0.021591764 2.4026443e-05
000140 e7 02 b0 3d a0 cc b1 bd 84 d6 d3 3e 06 cf cc 3e
       0.085943036 -0.08681607 0.413746 0.40001696
000150 49 b1 18 3e 92 09 5b 3f 70 20 66 be 6c 27 aa 3e
       0.14911379 0.8556148 -0.22473311 0.33233202
000160 db 12 b5 be 02 96 ac 3d 7b 3e 85 3c 2b c8 28 bf
       -0.35365948 0.08427049 0.016265145 -0.6593043
000170 ab c3 bc 3d 7d 05 8e 3d 61 65 0a bf ef 85 c7 be
       0.09217008 0.069346406 -0.5406094 -0.3896937
000180 aa 25 ff 3e 01 4a 9b 3e d3 e1 23 bf ae bf fd 3d
       0.49833423 0.30329898 -0.64016455 0.123900756
000190 28 82 58 3e 8c 51 93 3e e0 35 ec be f8 99 01 3e
       0.211434 0.28773153 -0.46134853 0.1265639
0001a0 ae be 59 bd e9 fa 9f 3e 54 20 8f bc e2 fc af bc
       -0.053160362 0.31246117 -0.01747147 -0.021482889
0001b0 9c 02 1c 3e 6e a4 19 be 15 60 9f be 43 68 c3 3e
       0.1523537 -0.15004131 -0.31127992 0.38165483
0001c0 a8 4e 19 3f 89 44 b6 bb 83 55 c5 3d a6 68 83 be
       0.59885645 -0.0055623692 0.09635451 -0.25665778
0001d0 73 db 36 3e a8 cd 5e 3e 5e 84 a5 be 8d 5c 8b be
       0.1785715 0.21758139 -0.3232755 -0.27219048
0001e0 8b c5 1a bb e2 02 46 3b 5a 83 e7 b8 db a2 52 ba
       -0.002361628 0.003021412 -0.000110394045 -0.00080351316
0001f0 c1 5f a5 3a 72 02 1d 3b bf 11 c1 3a 75 63 e1 ba
       0.0012617038 0.0023957756 0.001473002 -0.0017195778
000200 75 93 09 bb a0 d3 a3 39 71 ad 6d bb 60 58 a7 3a
       -0.0020992432 0.00031247456 -0.003626671 0.0012767427
000210 9a ae 77 3a b4 f8 1f 3b e4 17 8e ba 5c 0d 31 b9
       0.000944832 0.0024409713 -0.001084086 -0.00016885012
000220 e6 82 15 3b 99 0f 65 3a d0 39 5d b9 7c 85 c8 b9
       0.0022813617 0.0008737981 -0.00021097739 -0.00038246426
000230 47 a3 e3 3b 17 81 13 bc ab 0a 91 3c da b1 d8 3d
       0.0069469544 -0.009002945 0.017705282 0.105807975
000240 7b 67 7f 3c 9f e3 da 3d bc 7c 44 bd 45 d4 aa bc
       0.0155886365 0.106879465 -0.04797052 -0.020853171
000250 69 09 4a 3d 8b e4 f3 bb 0c 7a d5 3d 1a 36 af 3d
       0.04932538 -0.007443016 0.10423669 0.08555241
000260 58 f6 81 3d 40 31 d6 bd c8 65 db bd ec 72 ee bd
       0.063458145 -0.104586124 -0.107127726 -0.11643013
000270 fa 26 23 3b 49 11 6f 3d 9d 56 b5 bd 92 8a 4c bb
       0.0024895058 0.058366094 -0.08854411 -0.0031210524
000280 9a 29 88 3b bb b1 9e bb 3a b9 23 3b 03 7d d1 3b
       0.00415535 -0.0048429645 0.002498223 0.0063930764
000290 47 67 2b 3a 1c f2 30 bb 72 94 24 bb 7a c3 3c 3c
       0.0006538522 -0.0026999777 -0.0025112894 0.011521215
0002a0 3e ab 3d 3b 42 d9 7e 3b 5f cc 87 bb a4 5b 85 ba
       0.002894118 0.003888682 -0.004144236 -0.0010174406
0002b0 fe 85 b1 bb 53 c4 1e 3a 58 d5 6a ba 2d 0c 83 ba
       -0.0054175844 0.0006056476 -0.00089581823 -0.0009998136
0002c0 ff 25 3a bb c5 4f 8f 3b 60 24 a1 39 93 86 af 3b
       -0.0028403995 0.004373523 0.00030735414 0.0053566187
0002d0 e6 98 68 bb cd 9c 1a 3c 0d a1 00 3c a1 c0 55 3c
       -0.0035491525 0.009436798 0.0078508975 0.013046415
0002e0 ce ef 79 bc 60 85 31 3d 49 70 f6 3c be fc 7c bc
       -0.015254928 0.043340087 0.030082839 -0.015441118
0002f0 4d a5 cd 3b a7 36 f1 bc ef 64 21 bd 97 77 89 3c
       0.006275809 -0.029445006 -0.0394029 0.016780658
000300 e0 6a a7 3c fd c5 ee 3c 28 5e c5 3c 1f 3d 27 3a
       0.020436704 0.029147143 0.024092749 0.0006379652
000310 fd c0 42 bc ff 33 aa bc 29 e2 01 bc 20 ef 4b bc
       -0.011886832 -0.020776747 -0.007927456 -0.012447149
000320 2f e4 18 bf 2b 2a 29 3f 00 1b 91 3e 28 9a ec bb
       -0.5972318 0.6607997 0.28340912 -0.0072205253
000330 10 8a 00 3f b4 d9 96 be f0 30 58 bd 45 23 f3 be
       0.50210667 -0.2946297 -0.052781045 -0.47487846
000340 69 a7 e8 be 8e 4a bd 3b da 15 f0 bd 7e 36 27 bd
       -0.45440224 0.00577671 -0.11722918 -0.040823452
000350 5e 3b 5f be 08 fe 9a 3e 3e 08 c1 bd 35 d5 d9 3c
       -0.2179999 0.30271935 -0.094254 0.026590923
000360 36 64 29 3f a2 57 fd bd 92 4d 05 3e 65 e8 d0 bd
       0.66168535 -0.1237023 0.13017872 -0.10200576
000370 a0 1b 23 3e 08 fb 0a 3d f6 b0 54 3e 68 1a d7 3c
       0.15928507 0.03393081 0.2077063 0.026257709
000380 a1 ef 50 bd c8 13 69 3e 0f a7 f1 bd 45 5f d7 bd
       -0.051009778 0.22761452 -0.11799442 -0.10516218
000390 92 05 ef 3d 76 bb 8f bd d3 08 1f 3e ee d1 35 3d
       0.11670984 -0.07018177 0.1553071 0.044389658
0003a0 cf 0e 9e bd 99 19 02 be 71 a4 f6 bc ae 79 4e 3c
       -0.07717668 -0.12705077 -0.030107709 0.012602253
0003b0 cd 43 af 3d 31 81 ef 3d ba 5c 06 be 50 0e 99 bd
       0.08557854 0.11694563 -0.1312131 -0.07473433
0003c0 2e 23 5a 3c e5 ef 54 3d c2 50 8a be f8 2e c1 be
       0.013314052 0.051986594 -0.27014738 -0.37731147
0003d0 11 a2 af be 6e 7b 89 3f 0a 61 b8 3d e3 29 12 be
       -0.34303334 1.0740793 0.09002884 -0.14273791
0003e0 f1 fa 44 bf b7 d7 bd be 4e 5a 91 3e f2 8c e8 3e
       -0.76945406 -0.3707864 0.2838921 0.45420033
0003f0 7c d9 4a 3e af 62 da 3c 72 a6 f1 3d e4 0c 06 be
       0.19809526 0.026658384 0.11799325 -0.13090855

layers.1.conv.msg_mlp.0.bias f4 [20]
000000 c9 df bc bd fa 73 55 bc f5 10 56 be dd 0b 12 bd
       -0.09222371 -0.013028139 -0.20904906 -0.035655845
000010 d0 8a 8e 3d 83 3a 6d be 74 92 b7 b9 7e db f1 bc
       0.0696007 -0.23166852 -0.00035013596 -0.029523607
000020 c8 d4 49 3a 59 52 7a bc 9a f7 2a 3e 2d 54 d3 bd
       0.00076992484 -0.015278422 0.16696015 -0.1031879
000030 1c c3 4e be b2 89 f1 bb e2 9c c5 b9 bd b3 2c be
       -0.20191616 -0.007371151 -0.00037691655 -0.1686544
000040 19 7d 9b bc 4b bb 4c bd 59 00 6d ba 31 a8 92 bc
       -0.01898055 -0.049983304 -0.00090408843 -0.017902466
