models/supplimentaryModels/best_demon_TTFI_len=4996_qbits=32_{Gen=false_L1=15_cp=0.0001_w=Inf}_{L2=2_cp=5.0e-5}.pth (torch, 366582 bytes, 29 tensors)

input_proj.weight f4 [64, 3]
0.3682977 0.55029577 -0.9085569 -0.16838682 -0.394463 0.09205585 -0.28880042 0.09372181
0.7751422 0.46597907 -0.058985464 -0.9738391 -0.6705511 0.8204315 -0.054819666 0.4831494
0.34700453 1.1096017 0.16828099 0.16226706 0.738084 1.125701 0.1799589 -1.4237928
-0.6703996 -0.6157452 0.59286964 0.5820802 0.5204565 0.0056299996 1.216242 -0.39787582
1.514263 -0.39573643 -1.3176317 0.82964486 0.3982203 0.17016156 0.59507203 0.1012534
0.9663611 -1.500509 -0.5542681 -0.579668 0.3063512 -0.39764944 -0.073923685 1.1665102
0.87442935 -0.39544868 -0.6875603 -0.55262154 0.08983742 0.8649358 0.834212 -0.509428
-0.043843843 0.14854373 0.36270672 -0.0585721 1.3499457 -1.0771979 -0.63713115 -0.60911304
-0.18840426 -0.30583233 -0.4386338 0.043045104 -0.73817396 -0.55875164 0.25832826 -0.11624455
-0.09973449 0.052163493 -0.13398649 -0.6261569 -0.036692925 0.5804017 -0.44438764 -0.107009284
0.45297322 -0.7331667 -0.67464536 0.18091497 -0.20526874 0.14148557 -1.3564441 -0.4744469
0.25066593 0.91731215 -1.3233291 1.0599792 0.30959895 -0.5054835 -0.4967372 -0.7178488
0.76521206 0.19905804 -0.82340914 0.43760365 1.0341192 -1.0878416 -0.94212246 0.16880022
1.0172206 0.32649535 0.4677465 0.25186256 0.5592648 0.4577774 -0.7902189 -0.42136747
0.51725465 0.8470689 -0.6717976 -0.9634347 0.5943701 -0.21334553 -0.26582193 1.020057
-0.28127822 -0.62481254 -0.30671924 -0.30239794 -0.5952161 0.124465786 0.32257804 0.25725538
-0.44688797 0.006075628 -0.2313023 -0.80300194 -0.49912435 0.2912476 -0.07392344 -0.19559185
-0.4702857 0.30906105 -0.9689634 0.15744203 0.26883876 0.2756565 0.01647865 -0.014681523
-1.227285 0.24863872 1.8238547 -0.38020882 -1.150778 0.3192317 0.91600335 -1.3741058
-0.32250032 -1.0912776 -0.77848184 0.5623989 -0.57901937 -0.0054957634 0.6094303 -0.5025229
0.07448411 0.46222284 0.31552884 -0.5516718 -0.43034106 -0.5191689 0.5339661 -0.8893048
0.66824657 -0.8911709 0.16111483 0.7356358 -0.075696185 -0.2548072 -0.21862818 -0.37018824
-0.060542032 0.88094634 -0.03740882 -0.08724134 -1.1120185 0.029709127 -0.21855545 -0.62030554
1.6461592 -0.61193246 -0.045192003 0.6000375 -0.4758839 -0.14306381 0.036271986 1.3120096
00000000: 8491 bc3e 2fe0 0c3f 2f97 68bf 986d 2cbe
00000010: 0ef7 c9be c787 bc3d a6dd 93be 38f1 bf3d
00000020: b86f 463f cf94 ee3e be9a 71bd 854d 79bf
00000030: 3da9 2bbf cc07 523f 968a 60bd 5c5f f73e
00000040: 94aa b13e 6e07 8e3f da51 2c3e 5629 263e
00000050: 13f3 3c3f f816 903f 2547 383e d83e b6bf
00000060: 4f9f 2bbf 7aa1 1dbf 4ec6 173f 3503 153f
00000070: a33c 053f dc7b b83b d1ad 9b3f 61b6 cbbe
00000080: 5fd3 c13f f79d cabe 28a8 a8bf 9b63 543f
00000090: 88e3 cb3e d53e 2e3e a456 183f f15d cf3d
000000a0: 7163 773f ae10 c0bf 84e4 0dbf 1f65 14bf
000000b0: 11da 9c3e b598 cbbe 4d65 97bd 3550 953f
000000c0: 9ada 5f3f 4078 cabe f403 30bf 9b78 0dbf
000000d0: aefc b73d 6f6c 5d3f eb8e 553f e069 02bf
000000e0: 9a95 33bd d91b 183e b2b4 b93e 4ce9 6fbd
000000f0: 05cb ac3f 9fe1 89bf 071b 23bf d5ee 1bbf
00000100: 0ced 40be 0e96 9cbe 9c94 e0be 1050 303d
00000110: f8f8 3cbf 590a 0fbf 9a43 843e 9f11 eebd
00000120: 9941 ccbd 63a9 553d c133 09be d24b 20bf
00000130: 524b 16bd 3595 143f c786 e3be af27 dbbd
00000140: 1bec e73e d0b0 3bbf 8fb5 2cbf c641 393e
00000150: f831 52be 98e1 103e f69f adbf b4ea f2be
00000160: 4957 803e f8d4 6a3f d962 a9bf 66ad 873f
00000170: c183 9e3e 5e67 01bf 5754 febe f0c4 37bf
00000180: f0e4 433f dfd5 4b3e f1ca 52bf 960d e03e
00000190: 055e 843f 653e 8bbf f02e 71bf f7d9 2c3e
000001a0: 4934 823f 662a a73e 787c ef3e 21f4 803e
000001b0: fa2b 0f3f cd61 ea3e c94b 4abf 7abd d7be
000001c0: cd6a 043f 82d9 583f edfa 2bbf a8a3 76bf
000001d0: a428 183f 4077 5abe d019 88be 3a91 823f
000001e0: b303 90be b7f3 1fbf 4e0a 9dbe e7d3 9abe
000001f0: 1560 18bf ebe7 fe3d f328 a53e fab6 833e
00000200: 80ce e4be 1016 c73b 83da 6cbe 8991 4dbf
00000210: 3a8d ffbe 681e 953e 2c65 97bd 3b49 48be
00000220: 4ac9 f0be 403d 9e3e fc0d 78bf 7c38 213e
00000230: 3ca5 893e d922 8d3e 3cfe 863c c58a 70bc
00000240: ad17 9dbf 269b 7e3e 1274 e93f bbaa c2be
00000250: b24c 93bf 5672 a33e 327f 6a3f b3e2 afbf
00000260: c31e a5be fcae 8bbf 964a 47bf 60f9 0f3f
00000270: 9d3a 14bf ce15 b4bb a003 1c3f 57a5 00bf
00000280: 208b 983d 79a8 ec3e ff8c a13e 5d3a 0dbf
00000290: aa55 dcbe 41e8 04bf 01b2 083f 7ba9 63bf
000002a0: 3512 2b3f c723 64bf 49fb 243e a152 3c3f
000002b0: 9a06 9bbd 1776 82be 11e0 5fbe 5089 bdbe
000002c0: ecfa 77bd b385 613f fe39 19bd 96ab b2bd
000002d0: 9f56 8ebf 8e60 f33c 00cd 5fbe 58cc 1ebf
000002e0: 58b5 d23f 9ba7 1cbf 401b 39bd 0f9c 193f
000002f0: 0ea7 f3be 527f 12be ef91 143d eeef a73f

input_proj.bias f4 [64]
0.44369742 -0.41590816 -0.4716896 0.35372868 0.41329345 0.3619861 -0.23222846 -0.1444091
0.5593513 -0.5851109 0.39879084 -0.24199104 -0.2910288 0.39878014 0.26290455 -0.03592393
-0.4690737 -0.046636198 -0.6919249 -0.2991249 -0.030487258 0.20128843 0.16899711 -0.0013705008
-0.51077324 0.42963865 0.12587206 -0.49359587 -0.33139345 -0.17773055 0.3448098 0.41229194
-0.5298099 0.47562197 -0.33112058 -0.25245497 0.18575612 -0.118799105 0.28783607 0.007185024
0.3526348 0.46956006 -0.41097647 0.20226675 0.30736583 -0.010309249 0.44961944 0.20356092
0.12212326 0.30008337 0.07259114 0.18914102 -0.32450905 0.020219717 0.44206473 0.30737114
-0.05447765 -0.27045015 0.15952198 -0.3994171 -0.003962063 0.37210277 -0.0044463705 0.013994849
00000000: 4f2c e33e eaf1 d4be 4d81 f1be ed1b b53e
00000010: 339b d33e 3e56 b93e 4ccd 6dbe fbdf 13be
00000020: a631 0f3f d4c9 15bf 502e cc3e 80cc 77be
00000030: ba01 95be e92c cc3e 6d9b 863e f924 13bd
00000040: 6e2a f0be 9905 3fbd fe21 31bf e626 99be
00000050: 6ac0 f9bc 8e1e 4e3e 940d 2d3e 60a2 b3ba
00000060: 09c2 02bf 99f9 db3e 9be4 003e 99b8 fcbe
00000070: 67ac a9be fffe 35be e98a b03e ee17 d33e
00000080: 9fa1 07bf b984 f33e a388 a9be c741 81be
00000090: da36 3e3e f24c f3bd 405f 933e 5a70 eb3b
000000a0: 8c8c b43e 2d6a f03e 826b d2be 041f 4f3e
000000b0: 0e5f 9d3e 20e8 28bc 8534 e63e 4672 503e
000000c0: c21b fa3d 87a4 993e aaaa 943d 2fae 413e
000000d0: 0d26 a6be d2a3 a53c 4f56 e23e c05f 9d3e
000000e0: f523 5fbd 7178 8abe bb59 233e 6680 ccbe
000000f0: 32d4 81bb 4184 be3e dcb2 91bb a74a 653c

layers.0.conv.norm.weight f4 [64]
0.7681302 0.57148 0.43989137 0.7910371 0.7048302 0.84915644 1.0780256 1.0364046
0.86184496 0.78737336 0.9548862 0.8285297 0.9670178 0.93884295 1.0515836 0.7979258
0.7710578 0.7528146 0.63845694 0.59387606 1.0081393 1.0104183 1.0969852 0.7435767
0.5030046 0.5633782 0.92737067 0.82006395 0.93255144 0.7228195 0.9025835 1.0724587
0.7447359 0.9244145 0.8993367 0.73223686 0.8782815 1.0508398 0.82841855 0.94823205
0.0092495615 0.5366386 0.109351054 1.1313854 0.7637672 0.5850516 0.7608396 0.8030243
1.0245049 0.81197196 0.94235027 1.0424902 0.6718038 0.6735557 0.7373631 1.1374111
1.058494 0.74090856 0.8497169 0.73122144 0.8815251 1.0666661 0.9789424 0.8573242
00000000: 2ea4 443f 834c 123f 7139 e13e 6881 4a3f
00000010: c16f 343f 5162 593f befc 893f e8a8 843f
00000020: dfa1 5c3f 4d91 493f 6c73 743f 861a 543f
00000030: 7b8e 773f 0358 703f 4b9a 863f dd44 4c3f
00000040: 0b64 453f 75b8 403f ea71 233f 4308 183f
00000050: b50a 813f 6355 813f 036a 8c3f 0b5b 3e3f
00000060: e9c4 003f 8e39 103f 2a68 6d3f b6ef 513f
00000070: b1bb 6e3f b30a 393f b60f 673f 5446 893f
00000080: 03a7 3e3f 6ea6 6c3f ee3a 663f e073 3b3f
00000090: 0ed7 603f eb81 863f 3d13 543f 56bf 723f
000000a0: 798b 173c 2661 093f 72f3 df3d 3dd1 903f
000000b0: 3f86 433f f1c5 153f 62c6 423f 0093 4d3f
000000c0: fa22 833f 65dd 4f3f de3d 713f 5270 853f
000000d0: 55fb 2b3f 256e 2c3f d4c3 3c3f b096 913f
000000e0: bb7c 873f 2fac 3d3f 0c87 593f 5431 3b3f
000000f0: a1ab 613f 8488 883f f89b 7a3f 9979 5b3f

layers.0.conv.norm.bias f4 [64]
-0.21766764 0.4343073 0.23111808 -0.18539418 -0.253719 -0.16795693 -0.06002735 -0.05625549
-0.09434952 0.085178904 -0.11942396 0.18670693 -0.04826646 0.012724682 0.041371226 -0.13218237
0.22938766 0.038272105 0.30672616 0.13475996 0.024376737 0.07843531 0.07336458 0.16556482
0.42471159 -0.3187548 -0.049762376 0.2106453 0.14127073 0.013259458 -0.14183763 0.038510423
0.2521291 -0.120374046 0.017649818 -0.08162886 -0.17851141 -0.11854954 -0.11663659 -0.07673117
0.001734508 -0.19256306 0.07312952 0.05754442 -0.10392616 0.10515203 -0.1872667 -0.18594758
-0.044346802 -0.15262195 0.010849214 0.048670482 0.23647329 -0.12032751 -0.14457451 0.026896972
-0.010166652 0.13741001 -0.0064515457 0.07433354 0.14906858 -0.0033636324 -0.0026119826 -0.15697585
00000000: 44e4 5ebe 875d de3e 38aa 6c3e f9d7 3dbe
00000010: 75e7 81be e7fc 2bbe 3ddf 75bd 286c 66bd
00000020: 523a c1bd 4772 ae3d 8d94 f4bd 1a30 3f3e
00000030: 0db3 45bd 2f7b 503c e074 293d d15a 07be
00000040: 99e4 6a3e 36c3 1c3d 360b 9d3e 84fe 093e
00000050: b9b1 c73c b1a2 a03d 2b40 963d d389 293e
00000060: cc73 d93e d433 a3be a2d3 4bbd 67b3 573e
00000070: 46a9 103e 333e 593c e23d 11be 1bbd 1d3d
00000080: 1117 813e ab86 f6bd 5a96 903c 082d a7bd
00000090: b2cb 36be 1aca f2bd 2adf eebd 3b25 9dbd
000000a0: 6e58 e33a 402f 45be eec4 953d b3b3 6b3d
000000b0: 3dd7 d4bd f359 d73d d8c2 3fbe 0b69 3ebe
000000c0: fea4 35bd ee48 1cbe e7c0 313c b35a 473d
000000d0: 0e26 723e 456e f6bd 570b 14be 0a57 dc3c
000000e0: 0792 26bc 36b5 0c3e 7d67 d3bb 2f3c 983d
000000f0: 6fa5 183e 6370 5cbb cc2d 2bbb 47be 20be

layers.0.conv.msg_mlp.0.weight f4 [64, 64]
-0.12828994 0.08229153 0.06879281 -0.22791326 0.019605124 0.12551646 0.24303046 -0.2627376
0.18187343 -0.08769105 0.06798256 0.15129186 0.17088291 -0.1560241 0.24398686 0.1121883
-0.12783949 0.058550645 0.013370924 -0.04968778 -0.1901003 -0.16678317 -0.16251795 -0.032917164
-0.023021158 0.14724775 0.1557021 0.020140337 -0.2193134 0.12464984 0.06094537 -0.16845751
-0.085242994 -0.29684088 0.09868371 -0.122199796 -0.116846256 0.09504272 0.06436326 0.18597093
-0.002163832 0.04278046 0.0406942 -0.20242456 0.05805776 0.13257779 0.112413436 -0.08386522
0.2902533 0.1356076 -0.15323718 0.11864055 0.15107097 0.10332994 -0.034211263 -0.1456363
-0.11874654 -0.18540913 0.03222964 -0.12905255 0.06755838 -0.079008214 -0.09776202 0.12282224
-0.006433139 2.1537557e-05 0.002275204 -0.005687006 6.0854807e-05 -0.018435305 2.5140023e-06 -0.0017999995
-0.00038814874 0.00039965168 -0.02044312 0.0057068146 -0.0027483094 -0.0067642317 0.0001750252 0.0027321812
0.00024310914 0.0018654213 0.0012682917 5.9837594e-06 -0.0015674266 0.004922334 0.005783117 0.001729029
-1.5506015e-10 0.00018564197 0.0003376994 0.017939387 0.014957683 0.004484132 -0.0005908095 0.00010027864
0.00044102722 -0.008288827 0.0074878833 -5.768502e-05 -0.0048307283 0.005153801 0.001231413 -5.7253146e-05
6.963557e-39 -3.692038e-08 -0.00020807346 -0.0038043926 -0.0004710553 -2.5322062e-13 -0.0005862824 -0.0057315626
0.0018527851 0.0003836931 -0.0023565844 0.0017665689 0.005485804 0.0035290632 -0.007369195 0.0034850263
-0.0044979653 -0.00013419251 -9.531595e-13 0.00043604273 0.011458005 0.001663719 -7.446497e-06 -0.00010000567
-0.023336103 0.05491665 -0.02944168 -0.08566125 -0.0820676 -0.07468189 0.12833332 -0.021200852
-0.054872353 -0.118833184 0.053011965 -0.0399762 0.042293254 0.11584991 -0.06298191 0.07179409
0.047267575 -0.056972437 -0.012394437 -0.043222 -0.0024462885 0.0013392535 -0.12188202 -0.07689696
-0.010268847 0.057633225 -0.008606448 0.1633284 0.028187873 -0.09753896 -0.025688546 0.028260902
0.118635006 -0.0721213 -0.02855621 -0.03002233 0.069448814 0.12287844 0.050996866 -0.039176986
-0.002384539 0.027494792 -0.019502109 -0.15191858 -0.039160583 -0.043560542 -0.03817166 -0.12774761
0.024402017 -0.036474742 -0.029223824 -0.01041088 -0.0017908515 -0.016049836 0.10688093 0.09292752
0.012357732 0.0214325 0.08151255 0.032258634 -0.043220013 0.06336805 0.026586903 0.0750948
-0.026520254 0.014597676 0.01611883 -0.02044048 -0.018330926 -0.033034507 0.02282262 0.020431282
-0.026184244 0.025569974 -0.03797888 0.018610453 0.022967424 -0.025303612 -0.022683665 -0.0009369434
0.022785243 -0.007367217 0.023649113 0.018503364 0.0058044647 -0.01531148 -0.0040280186 -0.0019647481
0.015329712 -0.01585482 -0.015423784 0.03416494 0.030488888 0.0119552985 -0.017203843 -0.02577343
0.024006201 -0.032686654 0.034679342 0.02097052 -0.005075369 0.017244786 -0.019349817 -0.01455135
7.257375e-39 -0.019639727 0.001639772 -0.016340034 -0.019667381 -0.0043230387 -0.020688718 -0.01773444
-0.018898314 -0.018939642 -0.0074100303 -0.015570013 0.021965992 0.0048842216 -0.02880511 -0.01888758
0.0021159595 0.016573282 -0.0141511485 0.020854114 0.015766157 -0.02409506 0.016006373 -0.015582228
00000000: 705e 03be 7688 a83d 3fe3 8c3d 1862 69be
00000010: ed9a a03c 6387 003e fadc 783e 8b85 86be
00000020: 073d 3a3e 5d97 b3bd 713a 8b3d 41ec 1a3e
00000030: eefb 2e3e c8c4 1fbe b1d7 793e fbc2 e53d
00000040: 5be8 02be cdd2 6f3d b811 5b3c 6a85 4bbd
00000050: a7a9 42be 35c9 2abe 1b6b 26be 26d4 06bd
00000060: de96 bcbc 1dc8 163e 5f70 1f3e 59fd a43c
00000070: b193 60be 6a48 ff3d daa1 793d 2080 2cbe
00000080: e193 aebd 87fb 97be af1a ca3d e343 fabd
00000090: 174d efbd c2a5 c23d e3d0 833d 2a6f 3e3e
000000a0: 14cf 0dbb 903a 2f3d f6ae 263d 6248 4fbe
000000b0: f9cd 6d3d 79c2 073e 0439 e63d 87c1 abbd
000000c0: 159c 943e b8dc 0a3e 35ea 1cbe d1f9 f23d
000000d0: 59b2 1a3e a69e d33d 1c21 0cbd af21 15be
000000e0: 6331 f3bd e4db 3dbe 3a03 043d 5a26 04be
000000f0: 0c5c 8a3d 0fcf a1bd 7437 c8bd 3a8a fb3d
00000100: 15cd d2bb 8dab b437 971b 153b 105a babb
00000110: 5a3e 7f38 a305 97bc 3bb6 2836 f6ed ebba
00000120: 7180 cbb9 5788 d139 5478 a7bc 3b00 bb3b
00000130: fb1c 34bb 7da6 ddbb f886 3739 650e 333b
00000140: 1deb 7e39 2781 f43a cf3c a63a 1ac8 c836
00000150: 1c72 cdba 884b a13b 4d80 bd3b 96a0 e23a
00000160: 8d7d 2aaf e3a8 4239 3f0d b139 9ff5 923c
00000170: 1211 753c a0ef 923b 8ee0 1aba af4c d238
00000180: ac39 e739 dccd 07bc eb5c f53b d2f2 71b8
00000190: 164b 9ebb 37e1 a83b 5d67 a13a 1923 70b8
000001a0: 90d3 4b00 6392 1eb3 4b2e 5ab9 1e53 79bb
000001b0: f9f7 f6b9 f08c 8eaa bfb0 19ba d5cf bbbb
000001c0: 27d9 f23a 6b2a c939 ed70 1abb 378c e73a
000001d0: 42c2 b33b db47 673b 4a79 f1bb 0a65 643b
000001e0: ab63 93bb 07b6 0cb9 3125 86ab aa9c e439
000001f0: 5bba 3b3c 2511 da3a ecdc f9b6 23ba d1b8
00000200: 5b2b bfbc 48f0 603d ae2f f1bc 2a6f afbd
00000210: 0f13 a8bd d2f2 98bd cf69 033e 69ad adbc
00000220: d5c1 60bd d05e f3bd 1323 593d 15be 23bd
00000230: b13b 2d3d b842 ed3d a9fc 80bd c808 933d
00000240: a59b 413d ee5b 69bd 0912 4bbc 8d09 31bd
00000250: e951 20bb e489 af3a 489d f9bd 277c 9dbd
00000260: ab3e 28bc d110 6c3d 0f02 0dbc 8f3f 273e
00000270: 41ea e63c 82c2 c7bd c970 d2bc 6883 e73c
00000280: e9f6 f23d 55b4 93bd b7ee e9bc 64f1 f5bc
00000290: 2e3b 8e3d b1a7 fb3d 17e2 503d 0c78 20bd
000002a0: ed45 1cbb c23c e13c e3c2 9fbc 8b90 1bbe
000002b0: d966 20bd 8a6c 32bd e359 1cbd 45d0 02be
000002c0: bde6 c73c 8a66 15bd cd66 efbc 6592 2abc
000002d0: 01bb eaba f27a 83bc 64e4 da3d c950 be3d
000002e0: 1678 4a3c 3693 af3c 0df0 a63d a121 043d
000002f0: 7807 31bd 1cc7 813d c7cc d93c 4dcb 993d
00000300: 0141 d9bc 172b 6f3c a30b 843c cb72 a7bc
00000310: bd2a 96bc 314f 07bd 81f6 ba3c 815f a73c
00000320: 5780 d6bc 1f78 d13c be8f 1bbd f374 983c
00000330: 2e26 bc3c 8549 cfbc 18d3 b9bc 359d 75ba
00000340: 1ea8 ba3c b268 f1bb c9bb c13c 5e94 973c
00000350: 6133 be3b 00dd 7abc 78fd 83bb 01c3 00bb
00000360: 7929 7b3c f8e1 81bc 0ab4 7cbc 89f0 0b3d
00000370: d5c3 f93c 28e0 433c 13ef 8cbc cd22 d3bc
00000380: a7a8 c43c 71e2 05bd ed0b 0e3d 5eca ab3c
00000390: 484f a6bb f044 8d3c 8283 9ebc c968 6ebc
000003a0: 9c06 4f00 7ee3 a0bc 9eed d63a 89db 85bc
000003b0: 7d1d a1bc 47a8 8dbb 637b a9bc d147 91bc
000003c0: a3d0 9abc 4f27 9bbc d7cf f2bb 5e19 7fbc
000003d0: 06f2 b33c d20b a03b b2f8 ebbc 20ba 9abc
000003e0: e9ab 0a3b b1c4 873c 38da 67bc 3fd6 aa3c
000003f0: 0728 813c 0163 c5bc cc1f 833c 9a4c 7fbc

layers.0.conv.msg_mlp.0.bias f4 [64]
0.08338803 -0.017204441 -0.029513087 -0.032093015 -0.017880999 -0.030397074 0.048762903 -0.020299835
-0.00329369 -0.0037201897 0.0883138 -0.00068622467 0.08428658 -0.02480586 -0.06245812 -0.028240431
-3.684013e-11 -0.047018234 -0.0014608849 -0.0003330353 -0.005153771 -0.015266784 0.022707567 -0.026681336
-1.0291753e-14 -0.0060893307 -0.001663174 -0.029541617 -0.026682505 -0.000613656 -0.015465408 -0.020944811
-0.0035841768 -0.0043037315 -0.029633155 0.09738387 -0.015280843 -0.0059216474 -0.174973 -0.0064555756
-0.039919917 -0.008188167 -0.0013754561 -0.0030922776 -0.041833464 -0.07705188 0.053544722 -0.024776014
-0.018908298 -0.03437805 -0.020256273 -0.024494445 0.14901024 -0.15785076 0.071923055 -0.105944164
-0.14197972 -0.019211074 0.037693255 -0.015519821 -0.12111371 -0.03379716 0.0048066694 -0.021361183
00000000: 58c7 aa3d 54f0 8cbc 6ec5 f1bc f773 03bd
00000010: 2c7b 92bc 4903 f9bc 9cbb 473d d74b a6bc
00000020: f3da 57bb 6dce 73bb dedd b43d c2e3 33ba
00000030: 719e ac3d a935 cbbc 16d4 7fbd 7a58 e7bc
00000040: 4d06 22ae 3196 40bd 2a7b bfba 3e9b aeb9
00000050: f7e0 a8bb 8821 7abc 3805 ba3c d192 dabc
00000060: 5566 39a8 0289 c7bb dcfe d9ba 4301 f2bc
00000070: 4595 dabc c2dd 20ba 9f62 7dbc 7494 abbc
00000080: 82e4 6abb 5106 8dbb 3bc1 f2bc 3271 c73d
00000090: 805c 7abc 610a c2bb 1f2c 33be 4b89 d3bb
000000a0: 1183 23bd a927 06bc a648 b4ba cfa7 4abb
000000b0: 9159 2bbd 60cd 9dbd b651 5b3d 11f7 cabc
000000c0: 93e5 9abc 00d0 0cbd 7cf0 a5bc 93a8 c8bc
000000d0: 2496 183e a1a3 21be 654c 933d 41f9 d8bd
000000e0: 2263 11be 8b60 9dbc 3e64 1a3d d946 7ebc
000000f0: 770a f8bd e46e 0abd 4481 9d3b a6fd aebc

layers.0.conv.msg_mlp.2.weight f4 [64, 64]
0.09858048 0.009776378 -0.044947054 0.01837536 0.059997555 -0.0014977693 -0.058444124 -0.014081054
4.940571e-05 -0.00086573925 0.04754299 -2.1657718e-30 -0.0911072 0.040522236 0.00021144845 0.004573136
-4.104932e-13 0.026007207 9.808672e-06 2.0904773e-12 0.0021507137 0.01441932 -0.06479552 0.00818391
7.553873e-22 0.01578746 -3.6485483e-06 0.023309218 -0.006850438 -0.0015588022 -0.0013102916 -0.012836455
-0.00010959582 -0.02397351 0.07093797 -0.100032926 -0.00048967975 -2.558093e-07 -0.06451596 -1.2056512e-06
-0.02843458 0.00011928477 -0.0001548711 0.004873888 -0.04249836 0.031576708 -0.07627182 0.016861657
0.0025835254 -0.12322597 -0.02255259 -0.0037466702 -0.03996961 -0.051774986 -0.02362662 0.002293777
-0.08407418 -0.07304967 -0.12703592 -0.008809928 -0.16844423 0.006837469 -0.067224 -0.015016508
-0.099811435 -0.00079638715 -0.09338336 -0.0068143564 0.017192023 -0.008230796 0.19661951 0.010443727
-4.9287837e-06 -0.0003063404 -0.22076268 -1.0364529e-09 -0.24515215 -0.004945228 -0.022984702 0.044004288
1.5523416e-24 0.011095419 1.4115626e-06 -1.4586358e-24 -0.0001631667 -0.0042813043 0.01958841 -0.057555635
3.537144e-39 -0.0072197546 3.5612659e-06 0.005394186 0.01925508 8.596368e-06 -0.013490619 0.009165386
0.00012774646 -0.011209491 0.055359475 0.09297872 0.018089658 3.6318377e-13 -0.03852349 -2.8735057e-14
0.026000064 -2.6947399e-05 1.3596294e-21 -1.2760378e-05 0.04194691 -0.0020760864 0.043411378 0.039076496
0.035364863 0.035663847 -0.031012502 -0.026346853 0.09803474 -0.09323553 0.034764357 -0.06450859
0.017755248 -0.020517573 -0.012544728 -0.0011327185 -0.03909032 -0.034117304 0.0077440864 0.002966969
-0.004026411 0.00032448888 -0.19410592 -0.023372624 0.020031078 -9.504111e-05 0.28235286 0.002080449
-4.7108165e-06 -0.004303301 -0.04251608 -6.4188405e-11 -0.15906847 -0.0026387165 -0.009427845 0.012730232
1.856535e-30 -0.007605255 1.7524526e-13 2.216713e-39 0.0015975749 -0.010705565 -0.0017349045 -0.041716594
2.234847e-39 -0.0102062095 -4.2344734e-08 0.015182811 0.0071351742 5.2604713e-07 -0.012008205 0.019229181
0.00045161456 -0.04252032 0.025787178 -0.049865864 0.030700304 5.7218038e-21 -0.045208894 -4.5842876e-13
0.016437178 -5.1498535e-11 1.219454e-09 -0.00018984808 0.010027741 -0.003556375 0.020826615 -0.0003654607
-0.005337648 0.09124637 0.005430173 -0.012486603 0.19115373 -0.10632648 0.030982014 0.03083361
0.007960908 -0.1138518 0.018455043 -0.0012837987 0.04452256 -0.0349059 -0.054605294 0.0076401164
-0.010505992 -0.004080706 -0.07842067 0.0076851766 0.026775094 -0.00397619 -0.08257992 -0.013823661
0.00015598872 -0.0006561326 0.020154087 1.8744033e-09 -0.090134285 0.0026697938 0.007914859 -8.405187e-05
-1.1244807e-16 0.018580504 1.14960085e-05 8.4383673e-20 0.0013258792 0.0180476 0.007991725 0.022200854
-2.5371954e-29 0.01094068 -7.278742e-05 0.0023621554 -0.0012124536 -0.00030275757 0.02173793 0.0050180284
-0.00026102745 0.015341178 0.02139043 -0.09280443 -0.012199361 -8.535689e-10 -0.09288933 -1.4218178e-11
-0.03867091 2.0336589e-05 -1.3594544e-05 0.002924901 -0.045456637 -0.00037143956 -0.1576108 0.015155677
-0.0021827752 -0.051915206 -0.009685319 -0.0017145853 -0.024091031 -0.11808507 -0.14222455 -0.019221345
-0.035622794 0.03023724 -0.058054127 -0.003668855 0.06512915 -0.0024057096 0.065219305 -0.0082939565
00000000: 90e4 c93d 1a2d 203c 671a 38bd ec87 963c
00000010: ffbf 753d cc50 c4ba 1b63 6fbd 39b4 66bc
00000020: fa38 4f38 c7f2 62ba 70bc 423d 52b5 2f8e
00000030: 6996 babd a5fa 253d 43b8 5d39 3fda 953b
00000040: 4e16 e7aa 110d d53c ed8f 2437 b11a 132c
00000050: fdf2 0c3b 033f 6c3c 83b3 84bd ce15 063c
00000060: 434d 641c b454 813c 95d9 74b6 f9f2 be3c
00000070: a479 e0bb b950 ccba 17be abba ff4f 52bc
00000080: cfd6 e5b8 1864 c4bc ed47 913d 10de ccbd
00000090: da5d 00ba 2a56 89b4 f220 84bd dcd1 a1b5
000000a0: a3ef e8bc 8628 fa38 e564 22b9 23b5 9f3b
000000b0: c312 2ebd 9456 013d 6634 9cbd 7521 8a3c
000000c0: 5d50 293b e65d fcbd 36c0 b8bc b28a 75bb
000000d0: 2cb7 23bd 0212 54bd 9d8c c1bc 3153 163b
000000e0: 152f acbd 119b 95bd b415 02be 8457 10bc
000000f0: a57c 2cbe d90c e03b bdac 89bd cd07 76bc
00000100: f069 ccbd a3c4 50ba c63f bfbd f74a dfbb
00000110: 49d6 8c3c 76da 06bc a056 493e 2a1c 2b3c
00000120: ee61 a5b6 509c a0b9 9d0f 62be f272 8eb0
00000130: 2a09 7bbe 940b a2bb 6a4a bcbc d73d 343d
00000140: 9636 f017 8fc9 353c ec74 bd35 84b6 e197
00000150: ba17 2bb9 2f4a 8cbb e077 a03c 75bf 6bbd
00000160: 1e84 2600 b193 ecbb 15fe 6e36 b6c1 b03b
00000170: d4bc 9d3c 1f39 1037 c207 5dbc 6a2a 163c
00000180: aef3 0539 03a8 37bc 9ec0 623d a16b be3d
00000190: c330 943c 4c74 cc2a cfca 1dbd 4469 01a9
000001a0: 16fe d43c 190d e2b7 1d76 cd1c 6815 56b7
000001b0: 86d0 2b3d f30e 08bb 21d0 313d ad0e 203d
000001c0: bfda 103d 4114 123d ee0d febc 5bd5 d7bc
000001d0: 70c6 c83d 45f2 bebd 1265 0e3d 141d 84bd
000001e0: 7473 913c 7814 a8bc 6788 4dbc ba77 94ba
000001f0: 2c1d 20bd 96be 0bbd 1bc2 fd3b 7b71 423b
00000200: fcef 83bb 2920 aa39 b4c3 46be f277 bfbc
00000210: 3718 a43c cf50 c7b8 8e90 903e 2458 083b
00000220: 9b11 9eb6 b502 8dbb 5725 2ebd dc26 8dae
00000230: d8e2 22be 51ee 2cbb 3f77 1abc 7792 503c
00000240: b99e 160e 8135 f9bb 024f 452a 4b23 1800
00000250: b865 d13a 6566 2fbc bc65 e3ba 05df 2abd
00000260: d855 1800 f237 27bc 87de 35b3 53c1 783c
00000270: 2ece e93b af35 0d35 10be 44bc 8486 9d3c
00000280: aec6 ec39 c929 2ebd a23f d33c 2640 4cbd
00000290: 347f fb3c e429 d81d f62c 39bd 4609 01ab
000002a0: 43a7 863c 327e 62ae b999 a730 f511 47b9
000002b0: 654b 243c 1212 69bb 949c aa3c 4e9b bfb9
000002c0: 70e7 aebb 60df ba3d 98ef b13b 9c94 4cbc
000002d0: cebd 433e b3c1 d9bd fecd fd3c c496 fc3c
000002e0: 786e 023c 222b e9bd 082f 973c 2345 a8ba
000002f0: 4a5d 363d 7df9 0ebd cda9 5fbd f159 fa3b
00000300: 5321 2cbc 71b7 85bb 049b a0bd efd3 fb3b
00000310: 7157 db3c b34a 82bb a91f a9bd a37c 62bc
00000320: e790 2339 5000 2cba 2f1a a53c dace 0031
00000330: 5398 b8bd b5f7 2e3b 53ad 013c 0145 b0b8
00000340: d0a4 01a5 2436 983c fbde 4037 cd3e c71f
00000350: 20c9 ad3a 8fd8 933c b9ef 023c 91de b53c
00000360: aea6 0090 8a40 333c 73a5 98b8 64ce 1a3b
00000370: 31eb 9eba 6fbb 9eb9 be13 b23c 466e a43b
00000380: 83da 88b9 9059 7b3c fc3a af3c 4010 bebd
00000390: d4df 47bc 92a0 6ab0 c33c bebd fb20 7aad
000003a0: 6365 1ebd 7e98 aa37 1f14 64b7 b2af 3f3b
000003b0: bd30 3abd c6bd c2b9 ba64 21be 844f 783c
000003c0: e40c 0fbb 0aa5 54bd 2caf 1ebc f0bb e0ba
000003d0: 8e5a c5bc 96d6 f1bd 50a3 11be 1576 9dbc
000003e0: 35e9 11bd 17b4 f73c 2aca 6dbd 2c71 70bb
000003f0: 6f62 853d 1ca9 1dbb b391 853d 60e3 07bc

layers.0.conv.msg_mlp.2.bias f4 [64]
0.37684834 0.11425828 -0.05438146 0.16942811 -0.10252032 0.15727815 0.25337842 -0.06846892
0.51802313 -0.16260144 0.025234804 -0.063203774 -0.22584736 0.2734522 0.21380585 -0.058750864
-0.19286065 0.34538633 -0.12474412 0.2222993 -0.08839016 0.15282504 0.21236563 -0.033393163
0.16882679 0.122009754 0.13807337 0.008410244 -0.09540521 0.3004282 0.09899474 -0.12486647
-0.18505098 0.5024373 -0.26332372 0.12958206 -0.025807159 0.21504802 -0.1956262 -0.07956588
-0.06411691 0.033193942 0.30512616 -0.09874328 0.09660204 0.049883373 0.009361665 -0.12314099
0.2273102 -0.25644597 -0.087915406 0.0042401934 -0.054476026 -0.024749015 0.07100708 0.3842584
0.024538603 -0.0046485555 -0.021223383 -0.227718 0.016185574 0.4704484 0.0041908366 0.012663125
00000000: 44f2 c03e 3f00 ea3d 18bf 5ebd 907e 2d3e
00000010: 2cf6 d1bd 860d 213e d1ba 813e 6f39 8cbd
00000020: 2a9d 043f fe80 26be 38b9 ce3c fb70 81bd
00000030: 8844 67be ed01 8c3e ecef 5a3e bfa4 70bd
00000040: 437d 45be 7ad6 b03e d879 ffbd 6da2 633e
00000050: e605 b5bd 2b7e 1c3e 6076 593e 45c7 08bd
00000060: eee0 2c3e 40e0 f93d 1b63 0d3e 1fcb 093c
00000070: cf63 c3bd bad1 993e c1bd ca3d feb9 ffbd
00000080: 017e 3dbe bb9f 003f 5ed2 86be 29b1 043e
00000090: 8969 d3bc 8c35 5c3e 3c52 48be 70f3 a2bd
000000a0: ba4f 83bd 5ff6 073d 7f39 9c3e eb39 cabd
000000b0: 4ad7 c53d 8252 4c3d ab61 193c 5831 fcbd
000000c0: 01c4 683e e34c 83be fe0c b4bd 52f1 8a3b
000000d0: 4122 5fbd 72be cabc 296c 913d 84bd c43e
000000e0: 2e05 c93c e952 98bb a9dc adbc e82e 69be
000000f0: 9c97 843c 9dde f03e 4953 893b ff78 4f3c

layers.0.mlp.norm.weight f4 [64]
1.2389578 0.27127597 0.4864348 0.94189876 0.6577077 0.32049128 0.6680552 1.6711259
1.0243925 0.9760688 0.7085635 0.8282529 0.9035524 1.5114918 0.80817926 0.84588903
1.0980244 1.0024574 0.9560774 0.629577 1.1523353 0.7610428 1.0553445 0.35609505
0.44186395 1.0839354 0.6557927 0.8289144 1.0895907 0.80534005 1.1097362 0.88255733
1.3624594 1.7085946 1.2103136 0.7063301 0.8921353 0.96349347 1.041935 1.128173
0.5439884 0.59758586 0.69477344 0.96699524 0.80177546 0.6696554 0.965407 0.50299525
1.8451284 0.8611238 0.916038 1.1345662 0.7798379 0.8218379 0.5925208 1.4331403
0.8211281 0.8949468 0.22680417 1.1094897 0.5920272 1.4219902 0.7833535 0.80734986
00000000: 2b96 9e3f afe4 8a3e fb0d f93e 4720 713f
00000010: 885f 283f 6f17 a43e aa05 2b3f 74e7 d53f
00000020: 4b1f 833f a5df 793f 6b64 353f 6208 543f
00000030: 364f 673f 9078 c13f d6e4 4e3f 2f8c 583f
00000040: 108c 8c3f 8650 803f 7dc1 743f f52b 213f
00000050: b97f 933f b3d3 423f 8715 873f 1752 b63e
00000060: fe3b e23e 65be 8a3f 08e2 273f bc33 543f
00000070: b577 8b3f c42a 4e3f d60b 8e3f 47ef 613f
00000080: 1265 ae3f 3ab3 da3f 8eeb 9a3f 0dd2 343f
00000090: fb62 643f 82a7 763f 205e 853f f967 903f
000000a0: d342 0b3f 63fb 183f acdc 313f 008d 773f
000000b0: 2841 4d3f 896e 2b3f ea24 773f 4cc4 003f
000000c0: 2b2d ec3f 9c72 5c3f 7781 6a3f 7739 913f
000000d0: 75a3 473f f863 523f 71af 173f 2471 b73f
000000e0: 7335 523f 3c1b 653f 5a3f 683e c203 8e3f
000000f0: 188f 173f c603 b63f db89 483f 7bae 4e3f

layers.0.mlp.norm.bias f4 [64]
-0.010009446 0.0009332464 -0.06895801 -0.03444459 -0.09363097 -0.41313395 -0.069941126 -0.051279433
0.084207036 -0.005559831 -0.1731153 -0.00042386938 -0.03427425 0.026867328 -0.053883977 -0.08531992
0.011857923 0.03979762 0.04687827 -0.12827076 -0.08463894 -0.013856265 -0.01124479 0.28465858
-0.0036189943 0.027795985 -0.18958426 0.12020881 0.021093128 0.02038597 0.0020687093 -0.03207059
0.0058839615 0.07782809 -0.004676208 -0.069916986 -0.103483416 0.05142695 0.018341579 -0.01420882
0.024916084 -0.0009042899 0.35290822 -0.034212075 0.0679542 0.0721235 0.039467413 -0.025095113
0.05147983 -0.09132365 -0.116349176 0.010505232 0.112772495 0.13009377 -0.12885192 -0.040043
-0.16359225 -0.09553619 -0.011093058 -0.04016931 0.13268201 0.15259874 0.0012252574 -0.26916918
00000000: a9fe 23bc 1ba5 743a db39 8dbd c515 0dbd
00000010: 98c1 bfbd 4b86 d3be 4b3d 8fbd 620a 52bd
00000020: bd74 ac3d 3e2f b6bb 2345 31be c93a deb9
00000030: 2863 0cbd df18 dc3c 72b5 5cbd 36bc aebd
00000040: bc47 423c d402 233d 6e03 403d 6959 03be
00000050: 2e57 adbd 6305 63bc 113c 38bc c5be 913e
00000060: a62c 6dbb 68b4 e33c 6022 42be 0930 f63d
00000070: 7fcb ac3c 7a00 a73c 2f93 073b 735c 03bd
00000080: 3fce c03b 5564 9f3d e03a 99bb a330 8fbd
00000090: 1def d3bd 11a5 523d 1441 963c 1ccc 68bc
000000a0: d11c cc3c de0d 6dba 63b0 b43e f621 0cbd
000000b0: 922b 8b3d 7cb5 933d 95a8 213d 4494 cdbc
000000c0: 84dc 523d e507 bbbd 7a48 eebd 231e 2c3c
000000d0: 44f5 e63d 4d37 053e c2f1 03be 2104 24bd
000000e0: ba84 27be 7aa8 c3bd a8bf 35bc 9388 24bd
000000f0: cbdd 073e d842 1c3e d198 a03a 8bd0 89be

layers.0.mlp.mlp.0.weight f4 [256, 64]
0.01404297 -0.103855476 -0.024851754 0.1276749 0.09386793 -0.030428778 -0.0016012343 0.39933956
-0.21280734 0.1263239 0.101423845 -0.035882846 0.20039867 0.10978303 0.02945236 -0.16401584
0.061193436 0.015122159 0.1533716 0.1441029 0.35697097 0.0060631954 -0.4930103 0.07575885
0.04656454 0.093693905 0.029000174 -0.076263025 -0.11423726 -0.17659312 -0.007619891 -0.49100506
0.44205028 -0.0988631 -0.15349297 0.21693857 0.049164504 -0.11351293 -0.042498562 -0.10977891
-0.1710749 -0.28842556 0.106268354 -0.024957588 -0.1977056 -0.029890591 -0.3140856 -0.0818329
-0.39114976 -0.03026276 0.010116456 -0.2124659 -0.011944531 0.02520521 -0.06897788 -0.202295
0.050445214 0.22136101 -0.09509639 0.43710575 -0.17583637 -0.21702881 -0.0055475906 -0.008290528
-0.3951053 0.16592613 0.16110274 -0.3342026 -0.302619 -0.027783304 0.0642799 -0.12042198
-0.0702531 0.08897215 0.037656773 0.12938717 0.11838771 -0.4157858 -0.07910621 0.23731236
0.121095926 -0.104458846 0.07527498 -0.23400362 -0.22256358 -0.11171524 -0.0051177093 -0.13816415
-0.14590691 -0.044857703 -0.03767455 0.3314139 0.005028663 -0.027609888 -0.03634044 0.06354167
-0.08238329 -0.5359526 0.29045478 -0.06240101 -0.17104828 0.037084796 0.09270813 0.24514204
0.13471189 0.15624195 0.0789317 -0.15116525 0.12412427 0.22048794 0.09864004 -0.0056567094
0.0008033874 0.2253793 0.06414655 0.27447325 0.030909657 0.052907735 0.023661528 -0.20654362
-0.03701241 -0.15556791 0.15989825 -0.0091313375 0.08274804 -0.07738328 -0.21201786 -0.04239363
-0.19212379 0.047779754 0.07636837 -0.07563511 -0.13195552 0.042866174 0.06551175 0.13403183
-0.2269493 0.10883209 0.10710242 0.0842751 0.11596011 -0.49717873 -0.082904644 0.10628395
0.15790854 -0.2058997 0.07731944 -0.033709764 0.081197456 -0.08184177 -0.0060882727 -0.063410915
0.01084554 -0.24629119 -0.04105801 0.13555953 0.11548858 -0.022379259 -0.21587217 0.063281804
0.24739358 -0.29884115 0.26322317 -0.070850074 0.06180157 -0.05648542 0.012582832 0.11375455
0.015891494 0.03021947 -0.06929915 0.082488894 -0.05140473 0.013619055 -0.064249896 0.06877866
-0.14524207 0.11248914 0.12194697 -0.05738712 0.0040759267 -0.029755153 0.0042589298 -0.15791619
0.07948303 0.07075146 0.009390825 0.18039079 -0.05307781 -0.36302146 0.006359249 0.061093688
-0.09755766 0.00073855754 -0.0025199642 -0.028251207 -0.018177599 -0.03430872 -0.0059095183 0.059079338
-0.041932393 0.10791739 -0.024310641 0.16573027 0.030058173 -0.092838064 -0.09544718 0.014832958
0.17987426 -0.019018434 0.16869032 0.017455908 0.034472033 -0.13105829 -0.046418343 -0.0050156424
0.016685152 -0.03846497 -0.05569787 0.061648984 0.056300353 -0.007008969 -0.017837116 -0.040254787
0.05768042 -0.17614184 0.06593162 -0.015042503 -0.02222303 -0.02321842 0.17889714 0.028048003
-0.0066530695 -0.02553548 -0.008911666 0.008998873 -0.025347644 0.01411659 -0.024837635 0.04700495
-0.09481604 0.036217686 0.09341568 0.04246471 0.09819539 0.09476085 -0.009275225 -0.0959739
-0.12405666 0.030419681 0.0015168827 0.05348827 -0.002751127 -0.072652526 -0.018652081 -0.07806653
00000000: 7c14 663c 2eb2 d4bd e895 cbbc 36bd 023e
00000010: d43d c03d c645 f9bc 82e0 d1ba 3c76 cc3e
00000020: 2bea 59be 0d5b 013e 4eb7 cf3d e4f9 12bd
00000030: 4f35 4d3e edd5 e03d 1346 f13c c5f3 27be
00000040: f8a5 7a3d efc2 773c 720d 1d3e b68f 133e
00000050: e6c4 b63e c5ad c63b d96b fcbe 7527 9b3d
00000060: 76ba 3e3d 97e2 bf3d c691 ed3c ca2f 9cbd
00000070: 39f5 e9bd d4d4 34be 47b0 f9bb 0465 fbbe
00000080: 6a54 e23e bd78 cabd 432d 1dbe 2525 5e3e
00000090: b860 493d 7879 e8bd f912 2ebd c4d3 e0bd
000000a0: 422e 2fbe 84ac 93be 39a3 d93d db73 ccbc
000000b0: 5673 4abe 1ddd f4bc d4cf a0be 0298 a7bd
000000c0: c844 c8be 9ce9 f7bc 7ebf 253c a990 59be
000000d0: ffb2 43bc 287b ce3c 4644 8dbd 6c26 4fbe
000000e0: a49f 4e3d 76ac 623e e5c1 c2bd 53cc df3e
000000f0: 730e 34be cd3c 5ebe 90c8 b5bb ffd4 07bc
00000100: 3e4b cabe 8ae8 293e 1ef8 243e 9a1c abbe
00000110: e1f0 9abe d099 e3bc 2ea5 833d cd9f f6bd
00000120: dbe0 8fbd 0837 b63d fd3d 1a3d 127e 043e
00000130: 4175 f23d e0e1 d4be 7002 a2bd 0302 733e
00000140: 2401 f83d 85ee d5bd c529 9a3d a59e 6fbe
00000150: b5e7 63be f6ca e4bd 75b2 a7bb e77a 0dbe
00000160: 9f68 15be b6bc 37bd a150 1abd 15af a93e
00000170: 7cc7 a43b 222e e2bc b7d9 14bd 2322 823d
00000180: 92b8 a8bd 3134 09bf 7db6 943e 3498 7fbd
00000190: 4827 2fbe 3ae6 173d c3dd bd3d 8406 7b3e
000001a0: eaf1 093e e4fd 1f3e f1a6 a13d 10cb 1abe
000001b0: de34 fe3d 97c7 613e ca03 ca3d eb5b b9bb
000001c0: 6a9a 523a d5c9 663e 445f 833d c287 8c3e
000001d0: 4036 fd3c c8b5 583d d2d5 c13c 2c80 53be
000001e0: 539a 17bd 324d 1fbe 5ebc 233e 9b9b 15bc
000001f0: ce77 a93d 207b 9ebd 361b 59be f1a4 2dbd
00000200: 19bc 44be b4b4 433d 0567 9c3d 95e6 9abd
00000210: 591f 07be 7194 2f3d 062b 863d a43f 093e
00000220: 6665 68be 5ce3 de3d 8358 db3d 6c98 ac3d
00000230: 7f7c ed3d 368e febe e9c9 a9bd 66ab d93d
00000240: c7b2 213e 5fd7 52be a859 9e3d 4013 0abd
00000250: da4a a63d a89c a7bd 2280 c7bb 95dd 81bd
00000260: 7eb1 313c c233 7cbe 722c 28bd 1ed0 0a3e
00000270: 4785 ec3d b554 b7bc 980d 5dbe e499 813d
00000280: be54 7d3e b501 99be 30c5 863e d819 91bd
00000290: a523 7d3d 415d 67bd 3928 4e3c 25f8 e83d
000002a0: e12e 823c d28e f73c b6ec 8dbd f0ef a83d
000002b0: c48d 52bd 7522 5f3c 7395 83bd d3db 8c3d
000002c0: 56ba 14be b560 e63d 55bf f93d c20e 6bbd
000002d0: 5a8f 853b 14c1 f3bc 7e8e 8b3b c8b4 21be
000002e0: 00c8 a23d 24e6 903d fadb 193c 5db8 383e
000002f0: 1e68 59bd f3dd b9be 3f61 d03b 603d 7a3d
00000300: 4fcc c7bd c29b 413a fc25 25bb 136f e7bc
00000310: 30e9 94bc 4d87 0cbd a2a4 c1bb 2dfd 713d
00000320: 4dc1 2bbd cb03 dd3d 1c27 c7bc 32b5 293e
00000330: 8f3c f63c e221 bebd d079 c3bd ef05 733c
00000340: f530 383e 8ccc 9bbc 28bd 2c3e b1ff 8e3c
00000350: 8c32 0d3d 2534 06be 2921 3ebd 425a a4bb
00000360: 4daf 883c 728d 1dbd 7323 64bd a583 7c3d
00000370: 339b 663d 7eab e5bb 251f 92bc 34e2 24bd
00000380: 4e42 6c3d 875e 34be 2807 873d d574 76bc
00000390: 120d b6bc 8e34 bebc d030 373e edc4 e53c
000003a0: fe01 dabb c82f d1bc 3d02 12bc 0270 133c
000003b0: dda5 cfbc 4549 673c 4c78 cbbc 4388 403d
000003c0: e92e c2bd ff58 143d b850 bf3d 7aef 2d3d
000003d0: aa1a c93d fa11 c23d 1df7 17bc f78d c4bd
000003e0: 6b11 febd b232 f93c 23d2 c63a 8416 5b3d
000003f0: 404c 34bb d9ca 94bd 40cc 98bc 58e1 9fbd

layers.0.mlp.mlp.0.bias f4 [256]
0.008615245 -0.050659034 -0.036013223 -0.11213482 -0.10875738 -0.106618434 -0.090968676 -0.02896794
-0.11182267 -0.06812504 -0.10997914 -0.07530387 -0.015677009 -0.086567774 -0.06673486 -0.10877724
0.025684666 -0.114583366 -0.1071727 -0.08533334 -0.09684243 -0.06566136 -0.10737804 -0.06286566
-0.0501246 -0.033113446 -0.087534845 -0.106813416 -0.10992536 -0.060856715 -0.09201526 -0.044427253
-0.06858233 -0.017059233 -0.035739403 -0.05530959 -0.060269274 -0.042585384 -0.05864469 -0.07799005
-0.07630733 -0.07592665 -0.11684873 -0.055653956 -0.053640354 -0.04099971 -0.111586444 -0.101936705
-0.037497576 -0.03380854 -0.026256898 -0.11367551 -0.107657626 -0.020224877 -0.059527744 -0.04135242
-0.088894874 -0.098954216 -0.11232941 -0.07052384 -0.10948278 -0.104134165 -0.04743637 -0.04657634
-0.08387695 -0.10965073 -0.016619377 -0.06151877 -0.111905225 -0.037219808 -0.119752824 -0.03043014
-0.018237222 -0.067052096 -0.033750173 -0.026012316 -0.04370212 -0.10701603 -0.07512537 -0.10784798
-0.0116459755 -0.088481106 -0.020328132 -0.10306889 -0.104458205 -0.065338954 -0.063074514 -0.101119265
-0.1044517 -0.11024506 -0.037765022 -0.10351177 -0.10968904 -0.013375142 -0.11059801 -0.05917127
-0.01832656 -0.108524576 -0.06655505 -0.087930284 -0.060133126 -0.10606981 -0.057278514 -0.0276246
-0.030182118 -0.058127914 -0.10092791 -0.07134962 -0.06988998 -0.07694518 -0.05908904 -0.02948882
-0.110802025 -0.090061456 -0.10174522 -0.0004028916 -0.033526536 -0.07440393 -0.056844052 -0.036164228
-0.040665846 -0.086373135 -0.054844245 -0.045815364 -0.06298599 -0.078079864 -0.026519028 -0.035378445
-0.030536205 -0.09312105 -0.1008196 -0.12307348 -0.03711951 -0.071212776 -0.061196245 -0.05710491
-0.014294353 -0.1085679 -0.035034683 -0.074871324 -0.0628976 -0.10975762 -0.108156875 -0.108882934
-0.025645426 0.030104818 0.098184586 -0.032759514 -0.11024839 -0.060131703 -0.0017827457 -0.064381704
-0.08582692 -0.031228362 -0.0179181 -0.02806431 -0.078606695 -0.016832154 -0.06731744 -0.10973445
-0.035393137 -0.10059321 -0.039892387 -0.113229915 -0.104810335 -0.09383025 -0.05930953 -0.10338262
-0.09904279 -0.10506636 -0.10647486 -0.05282244 -0.10120745 -0.10533855 -0.06744914 -0.07579716
-0.030602539 -0.07020116 -0.11272367 -0.10386212 -0.0669749 -0.10066957 -0.029010976 -0.025477361
-0.047166884 -0.07423508 -0.07131867 -0.056016605 -0.10133584 -0.09887196 -0.022853749 -0.029779319
-0.109993495 -0.07390172 -0.068909846 -0.0640861 -0.102477476 -0.09026755 -0.09996787 -0.10430688
-0.026205119 -0.03630819 -0.036353152 -0.06650034 -0.02301311 -0.027971989 -0.1093401 -0.08070209
-0.07167394 -0.052163675 -0.069322124 -0.02037721 -0.0693915 -0.11096771 -0.11119966 -0.073117964
-0.066534154 -0.10690401 -0.10871786 -0.06310351 -0.060608435 -0.05418345 -0.107184745 -0.095615886
-0.064321734 -0.07984583 -0.08449768 -0.10164498 -0.09393642 -0.108252786 -0.08620644 -0.110627934
-0.08883103 -0.093721226 0.0054741823 -0.102055594 -0.0671649 -0.046608888 -0.077088475 -0.023794055
-0.02248332 -0.09097314 -0.049549427 0.0027292406 -0.029386364 -0.068197064 -0.0530667 -0.11296731
-0.06634685 -0.07850378 -0.07331676 -0.10938356 -0.097610794 -0.05903836 -0.10859497 -0.071368895
00000000: f526 0d3c d97f 4fbd 9a82 13bd f1a6 e5bd
00000010: 30bc debd c45a dabd c94d babd 2c4e edbc
00000020: 4903 e5bd 2485 8bbd be3c e1bd ea38 9abd
00000030: 126d 80bc 724a b1bd 49ac 88bd 9ac6 debd
00000040: a668 d23c afaa eabd 5c7d dbbd 3fc3 aebd
00000050: 5355 c6bd 7779 86bd 05e9 dbbd b6bf 80bd
00000060: 744f 4dbd f7a1 07bd 7845 b3bd fec0 dabd
00000070: 8c20 e1bd e444 79bd 7f72 bcbd 5af9 35bd
00000080: e574 8cbd cebf 8bbc 7b63 12bd 4f8c 62bd
00000090: eadc 76bd 036e 2ebd 6a35 70bd 3fb9 9fbd
000000a0: 0447 9cbd 6e7f 9bbd 634e efbd 67f5 63bd
000000b0: fdb5 5bbd 50ef 27bd 6f87 e4bd 31c4 d0bd
000000c0: 0f97 19bd d37a 0abd b518 d7bc b5ce e8bd
000000d0: 9a7b dcbd a4ae a5bc 5dd3 73bd 2861 29bd
000000e0: 840e b6bd 82a8 cabd f60c e6bd ce6e 90bd
000000f0: 8238 e0bd 4b44 d5bd a44c 42bd d5c6 3ebd
00000100: aec7 abbd 9090 e0bd 5c25 88bc 1bfb 7bbd
00000110: 912e e5bd cc73 18bd f840 f5bd a148 f9bc
00000120: 3a66 95bc 9c52 89bd 9f3d 0abd c817 d5bc
00000130: ff00 33bd 382b dbbd 54db 99bd 67df dcbd
00000140: c3ce 3ebc 9535 b5bd 2f87 a6bc c815 d3bd
00000150: 2fee d5bd 6ed0 85bd 362d 81bd 9e17 cfbd
00000160: c6ea d5bd 29c8 e1bd 7faf 1abd fbfd d3bd
00000170: a6a4 e0bd 6923 5bbc 3681 e2bd 935d 72bd
00000180: 9521 96bc 2242 debd 044e 88bd cb14 b4bd
00000190: 274e 76bd 213b d9bd e09c 6abd fc4c e2bc
000001a0: 7d40 f7bc 8917 6ebd 4bb3 cebd c01f 92bd
000001b0: 7a22 8fbd 6f95 9dbd 5907 72bd 8a92 f1bc
000001c0: 2cec e2bd 2472 b8bd cc5f d0bd 323b d3b9
000001d0: 1f53 09bd 1661 98bd 4fd5 68bd f120 14bd
000001e0: 3b91 26bd 66e4 b0bd 5ca4 60bd e4a8 3bbd
000001f0: ccfe 80bd 56e8 9fbd 6f3e d9bc fde8 10bd
00000200: 1027 fabc 40b6 bebd 827a cebd f30d fcbd
00000210: a10a 18bd 01d8 91bd eaa8 7abd d7e6 69bd
00000220: dd32 6abc d958 debd 8780 0fbd 2356 99bd
00000230: 75d0 80bd 9ac8 e0bd 5a81 ddbd 04fe debd
00000240: 5b16 d2bc 619e f63c 0015 c93d d72e 06bd
00000250: e8c9 e1bd a94c 76bd 05ab e9ba 8eda 83bd
00000260: 06c6 afbd 9fd2 ffbc fbc8 92bc 20e7 e5bc
00000270: 8cfc a0bd 96e3 89bc badd 89bd 75bc e0bd
00000280: 65f8 10bd d003 cebd 3366 23bd 16e5 e7bd
00000290: cda6 d6bd 132a c0bd 8dee 72bd 44ba d3bd
000002a0: f2d6 cabd 082d d7bd 7e0f dabd 585c 58bd
000002b0: da45 cfbd bdbb d7bd c622 8abd 8b3b 9bbd
000002c0: 2db2 fabc a0c5 8fbd abdb e6bd aab5 d4bd
000002d0: 232a 89bd d92b cebd 6da8 edbc e6b5 d0bc
000002e0: 1032 41bd 9008 98bd 860f 92bd ab71 65bd
000002f0: 2a89 cfbd 627d cabd c937 bbbc c2f3 f3bc
00000300: 4544 e1bd c959 97bd 9b20 8dbd 933f 83bd
00000310: b6df d1bd 31de b8bd f4bb ccbd d89e d5bd
00000320: 1eac d6bc e6b7 14bd 0be7 14bd 5531 88bd
00000330: fd85 bcbc 8325 e5bc b4ed dfbd 2347 a5bd
00000340: c9c9 92bd 94a9 55bd c2f8 8dbd 1bee a6bc
00000350: 211d 8ebd 0a43 e3bd a6bc e3bd dfbe 95bd
00000360: 0f43 88bd 7df0 dabd 78a7 debd 6a3c 81bd
00000370: 8d40 78bd 77ef 5dbd ad83 dbbd 43d2 c3bd
00000380: 1dbb 83bd 3686 a3bd 1f0d adbd 3e2b d0bd
00000390: bd61 c0bd a3b3 ddbd 018d b0bd e690 e2bd
000003a0: 0bed b5bd eaf0 bfbd c560 b33b 8602 d1bd
000003b0: c08d 89bd f6e8 3ebd 90e0 9dbd c0eb c2bc
000003c0: f12e b8bc 2050 babd 57f4 4abd 0fdd 323b
000003d0: acbb f0bc e7aa 8bbd 785c 59bd 685b e7bd
000003e0: dbe0 87bd 97c6 a0bd 1927 96bd 7d04 e0bd
000003f0: 2be8 c7bd 35d2 71bd 0a67 debd db29 92bd

layers.0.mlp.mlp.3.weight f4 [64, 256]
0.0028740729 0.031641237 -0.13359858 -0.012497294 -0.034418296 -0.023890192 -0.019041138 -0.071325965
-0.019341607 -0.015380979 -0.01458814 -0.022185506 -0.19665968 -0.015163861 -0.025875637 -0.038679697
0.08943847 -0.03804625 -0.002557581 -0.015326486 -0.018923307 -0.026590398 -0.017792625 -0.042970236
-0.0248838 -0.046322934 -0.022026071 -0.01779957 -0.010453819 -0.009530645 -0.023719072 -0.05971071
-0.02842374 -0.06255622 -0.060163923 0.07709369 -0.021966793 -0.044257876 -0.058589038 -0.027228264
-0.021521311 -0.02481244 -0.2558996 -0.023492698 -0.031280987 -0.070181094 -0.014146377 -0.013681903
-0.05633357 -0.054593448 -0.114097424 -0.01836071 -0.043344434 -0.1069071 -0.0018427754 -0.1294964
-0.017936718 -0.019793637 -0.02118393 0.002225792 -0.009891447 -0.020230185 -0.049762566 -0.08179433
-0.011079932 -0.016018944 0.0918703 -0.04062056 -0.009061201 -0.072671354 0.07531999 -0.11585994
-0.1025665 -0.02883083 -0.060075503 -0.05732507 -0.033360306 -0.006103034 -0.017412988 -0.013294851
-0.055708688 -0.021896109 0.11217672 -0.012847905 -0.013842217 -0.029209318 -0.0015019219 -0.014481271
-0.012412351 -0.0066204364 -0.0707134 -0.019629 -0.006469589 -0.046156768 -0.007885842 -0.013226501
0.14124462 -0.006282851 0.0046816473 -0.029050952 -0.017680973 -0.009727553 -0.041619092 -0.101998575
-0.07682849 -0.038563542 -0.02088016 -0.018076053 0.03354769 -0.021443734 -0.06724799 -0.06612848
-0.014471932 -0.028781835 -0.022171019 -0.019256208 0.052970953 -0.0072129597 -0.024288397 -0.02048721
0.11529862 -0.030343264 -0.044891633 -0.046858642 -0.049998287 -0.029728819 -0.09976125 -0.08864746
-0.12577143 -0.26565987 -0.017817197 -0.30896208 -0.10498928 0.30124387 -0.0035212028 -0.022155406
-0.06482941 -0.012973808 -0.015752474 -0.01202971 -0.045590848 -0.012172458 -0.013088146 -0.012722448
-0.12415719 0.21285656 -0.17369004 -0.10484093 -0.019364387 -0.0478226 0.04938794 -0.04221706
-0.023609862 -0.10461831 -0.058815967 -0.09622945 -0.030210737 -0.0786208 -0.037461948 -0.013346302
0.027103035 -0.023202203 -0.05231307 -0.00022211853 -0.017670188 -0.014461912 -0.034315575 -0.024237754
-0.043062184 -0.016696015 -0.018500168 -0.048152 -0.023834147 -0.040846802 -0.008864721 -0.03293457
-0.069368504 -0.0028411332 -0.020479996 -0.020088647 -0.007062444 -0.014384261 -0.073856905 -0.12324142
-0.036219366 -0.0013606652 -0.0089237625 -0.031861436 -0.021091852 -0.027243318 -0.11413294 -0.061081763
-0.011765448 -0.031229276 -0.05663912 0.014189293 -0.02488993 -0.011574658 -0.012412894 -0.025239749
-0.072401874 -0.07527895 -0.05126435 -0.03188287 -0.11004355 -0.12275148 -0.022171207 -0.018738337
-0.03682228 -0.016875418 -0.041438047 -0.07435992 -0.028282972 -0.01443303 -0.018004917 -0.01142156
-0.030127654 -0.01565566 -0.01622473 -0.011634375 -0.03944454 -0.042860124 -0.018938793 -0.026604412
-0.05077247 -0.033535488 -0.013798075 -0.042620305 -0.017480155 -0.022925282 -0.01929101 -0.014107628
-0.022915658 -0.078005925 0.17604634 -0.020186258 -0.03857938 -0.0266213 -0.034245748 -0.10117586
-0.11084946 -0.021706486 -0.050421625 -0.13980801 -0.120144844 -0.032634538 -0.03478181 -0.011301614
-0.04849747 -0.024332937 -0.03905687 -0.013645593 -0.022681762 -0.032642704 -0.013378609 -0.008267797
00000000: f15a 3c3b 3e9a 013d 11ce 08be 73c1 4cbc
00000010: 33fa 0cbd 5db5 c3bc 29fc 9bbc 5913 92bd
00000020: 4a72 9ebc 8000 7cbc 1803 6fbc 61be b5bc
00000030: 2861 49be d871 78bc 25f9 d3bc 9a6e 1ebd
00000040: 842b b73d 62d6 1bbd 179d 27bb f11b 7bbc
00000050: 0d05 9bbc 1bd4 d9bc d7c1 91bc 8f01 30bd
00000060: 1cd9 cbbc 1ebd 3dbd 0570 b4bc 67d0 91bc
00000070: 7f46 2bbc 6c26 1cbc 804e c2bc 3893 74bd
00000080: e7d8 e8bc 7a1d 80bd 726e 76bd 4ce3 9d3d
00000090: b4f3 b3bc bf47 35bd 0ffb 6fbd cf0d dfbc
000000a0: 764d b0bc 7543 cbbc 4605 83be c273 c0bc
000000b0: 7e20 00bd 1bbb 8fbd 35c6 67bc 0f2a 60bc
000000c0: 08be 66bd 619d 5fbd e9ab e9bd 3369 96bc
000000d0: ef89 31bd 1cf2 dabd 4889 f1ba b49a 04be
000000e0: 06f0 92bc 4426 a2bc ec89 adbc 98de 113b
000000f0: bc0f 22bc c6b9 a5bc d5d3 4bbd c983 a7bd
00000100: 9a88 35bc 293a 83bc 7f26 bc3d bf61 26bd
00000110: 6e75 14bc b8d4 94bd 5e41 9a3d fa47 edbd
00000120: 630e d2bd a22e ecbc bb11 76bd b1cd 6abd
00000130: d1a4 08bd f6fb c7bb afa5 8ebc a6d2 59bc
00000140: cb2e 64bd 785f b3bc e8bc e53d 0580 52bc
00000150: 77ca 62bc 6148 efbc 23dc c4ba da42 6dbc
00000160: 2c5d 4bbc 3ff0 d8bb 30d2 90bd ffcc a0bc
00000170: d9fe d3bb e10e 3dbd 9e33 01bc f7b3 58bc
00000180: 6ea2 103e 60e0 cdbb 8168 993b 43fc edbc
00000190: b0d7 90bc 5160 1fbc c878 2abd a1e4 d0bd
000001a0: 4158 9dbd cef4 1dbd df0c abbc 3b14 94bc
000001b0: 4d69 093d c5aa afbc 50b9 89bd 5e6e 87bd
000001c0: af1b 6dbc e2c7 ebbc ff9f b5bc 32bf 9dbc
000001d0: 12f8 583d b15a ecbb 76f8 c6bc cbd4 a7bc
000001e0: af21 ec3d 7092 f8bc 4ae0 37bd d9ee 3fbd
000001f0: 01cb 4cbd da89 f3bc a04f ccbd cd8c b5bd
00000200: 3aca 00be 9204 88be 5ff5 91bc 4730 9ebe
00000210: 9f04 d7bd a33c 9a3e fbc3 66bb 417f b5bc
00000220: 48c5 84bd 1890 54bc 550b 81bc 4318 45bc
00000230: 78bd 3abd fd6e 47bc aa6f 56bc d171 50bc
00000240: 2046 febd 12f7 593e cddb 31be d7b6 d6bd
00000250: 10a2 9ebc a1e1 43bd 024b 4a3d cceb 2cbd
00000260: 7869 c1bc 2042 d6bd 03e9 70bd f213 c5bd
00000270: 827c f7bc f103 a1bd b371 19bd 73aa 5abc
00000280: 2f07 de3c 8c12 bebc 3b46 56bd 7de8 68b9
00000290: 12c1 90bc a8f1 6cbc 7d8e 0cbd 418e c6bc
000002a0: f961 30bd 15c6 88bc aa8d 97bc 083b 45bd
000002b0: d43f c3bc fa4e 27bd 563d 11bc 66e6 06bd
000002c0: 1311 8ebd 4e32 3abb aac5 a7bc f290 a4bc
000002d0: 136c e7bb f7ab 6bbc 4a42 97bd ff65 fcbd
000002e0: c25a 14bd 5958 b2ba f934 12bc 2381 02bd
000002f0: d2c8 acbc 612d dfbc 88be e9bd df30 7abd
00000300: dec3 40bc 8ad4 ffbc 6cfe 67bd 357a 683c
00000310: f7e5 cbbc a2a3 3dbc 735f 4bbc 97c3 cebc
00000320: 6f47 94bd da2b 9abd 91fa 51bd 9d97 02bd
00000330: 835e e1bd 2165 fbbd 64a0 b5bc 2481 99bc
00000340: f6d2 16bd 513e 8abc f1ba 29bd 044a 98bd
00000350: b1b1 e7bc 8478 6cbc 0c7f 93bc 7f21 3bbc
00000360: 45ce f6bc 4c40 80bc bae9 84bc 1b9e 3ebc
00000370: 9990 21bd 198e 2fbd 8725 9bbc 7ff1 d9bc
00000380: cbf6 4fbd 825c 09bd 5211 62bc a192 2ebd
00000390: 8b32 8fbc cdcd bbbc 2e08 9ebc ae23 67bc
000003a0: 9eb9 bbbc 92c1 9fbd 7e45 343e a75d a5bc
000003b0: 6905 1ebd ea14 dabc 4545 0cbd 4a35 cfbd
000003c0: 0b05 e3bd cdd1 b1bc e886 4ebd d529 0fbe
000003d0: 800e f6bd cbab 05bd 5f77 0ebd 682a 39bc
000003e0: 48a5 46bd de55 c7bc 19fa 1fbd c491 5fbc
000003f0: 1acf b9bc 5bb4 05bd f431 5bbc a775 07bc

layers.0.mlp.mlp.3.bias f4 [64]
-0.20733194 0.06112887 -0.07130586 -0.03598473 -0.011318029 -0.03000501 0.056637008 0.098384894
0.17420228 0.12406044 0.04137303 0.004782013 0.20508666 -0.08836515 -0.07477888 0.13150842
0.03916617 -0.08548443 0.004156378 0.09522636 0.18028605 0.049149934 0.025502186 0.10689596
0.2132853 -0.16548648 -0.03156901 0.15025863 0.08786511 0.025349386 0.079837844 -0.011536531
0.083051264 -0.22837529 0.10505745 0.051141333 0.060776636 0.053534217 0.0714866 0.10510128
-0.01834265 0.019423341 0.044729333 0.0666078 -0.04176914 0.07645415 -0.048936963 0.017842995
0.050504312 0.16010621 0.07473662 0.039853673 0.01837684 0.026699238 -0.0522933 -0.15445325
0.14180829 0.13054377 0.087275274 0.19120522 -0.044763684 -0.047068827 0.09578037 0.010182455
00000000: d34e 54be 4462 7a3d cf08 92bd b964 13bd
00000010: 416f 39bc 11cd f5bc 35fc 673d 057e c93d
00000020: 1562 323e 6613 fe3d c476 293d 6fb2 9c3b
00000030: 3d02 523e caf8 b4bd ab25 99bd 25aa 063e
00000040: b56c 203d 7612 afbd 3a32 883b 0a06 c33d
00000050: e89c 383e 7151 493d f6e9 d03c 45ec da3d
00000060: 7667 5a3e 4a75 29be 824e 01bd 66dd 193e
00000070: 9ff2 b33d 84a9 cf3c 0682 a33d b803 3dbc
00000080: c816 aa3d 36db 69be 5c28 d73d 9379 513d
00000090: ecf0 783d b246 5b3d 9167 923d 573f d73d
000000a0: 5343 96bc b31d 9f3c 1b36 373d ac69 883d
000000b0: 1e16 2bbd fe93 9c3d 2072 48bd 792b 923c
000000c0: 9cdd 4e3d e2f2 233e 830f 993d 9b3d 233d
000000d0: 078b 963c 5cb8 da3c 8031 56bd fe28 1ebe
000000e0: 3136 113e 44ad 053e 61bd b23d 4dcb 433e
000000f0: 205a 37bd 3ecb 40bd 8028 c43d 50d4 263c
