models/supplimentaryModels/best_demon_8lyrs_L2_dataset.pth (torch, 740654 bytes, 101 tensors)

input_proj.weight f4 [80, 3]
00000000: eaea aa3c a752 37bf 1cda 05bf a6a2 9a3f
00000010: 18bd 583f 63c4 acbf 11eb 403d dd2c 3ebd
00000020: 35ef 2fbc 23a1 09bd 95d9 2bbb e511 b4be
00000030: f05b 7bbe 5731 ea3e 4093 d93e 7859 4d3b
00000040: 6ef0 8bbe b337 173e 537a 77be 9178 10bf
00000050: c558 4abf 7a56 a2bd bf8d 833d 14ad 353e
00000060: f1b3 83bd 3acc 543d 580b 213e 8f5f aa3c
00000070: 1a96 0abe 1f96 553e ca58 4abf 8270 34bf
00000080: 21c3 f8be 5546 91be fd63 d3be f84b 0fbe
00000090: 8bd1 293e 65f8 8abe 2678 523f 01ec ffbc
000000a0: 28f2 b13d 13d8 8e3d 0d58 efbe 21ea 3cbe
000000b0: 014b b0be 0a8b 093f d510 343f da05 1ebf
000000c0: 2050 cabc caa8 babc 4a3b 163f 9936 c73c
000000d0: a5f0 7a3b 2773 293a 97ce 6ebc 7bf9 423f
000000e0: d5be be3e 4ec7 2c3f 6357 fc3e be68 1ebf
000000f0: 4c20 903e 7095 b23e 9dbd d93e fd39 213e
00000100: 475a 8bbf 7968 9fbe 82e1 b7bb 3298 6fbd
00000110: 4e8e 953d 2180 09bf e0e4 e33d c955 b6be
00000120: 188e 74bf 4096 43bf 4a34 edbe bded 2bbf
00000130: c8b1 99be a083 863e cfa1 14be 53ab 16be
00000140: 2f1c 41bc e560 95bd 9d62 f23c c6da d73d
00000150: e139 5abe 8a26 d03c 8df9 f7bd 8d2f 5bbe
00000160: b28b 973d 2c93 9ebe b3a3 48bd 3ace a7bc
00000170: 430b 4e3f 09d8 c8bd 4b8e 653d e3d5 bd3d
00000180: 6322 cb3e 57d1 7c3e c7c4 83be 3e6e c5be
00000190: c2ca 363f a122 d7be 204e 0d3f d1ca f53d
000001a0: 41ed 91be 0ce3 e53d 9a17 39bf 7b86 93bf
000001b0: f0ea e0be 56b2 bbbe d687 d43e 76ac 7cbe
000001c0: f777 bc3e 2d2b b93e da2f 8b3f 1785 893d
000001d0: c533 49bd 1c54 763e 2e5b b53e f71a 0ebc
000001e0: b81a 083c a044 0cbc bae3 a43e b160 46bf
000001f0: 0c30 14be 3f4b 033f 444c d7be 87ce 41bf
00000200: 8c0f 203f 78c3 833c 9863 363e 980f 15be
00000210: a604 703e d1c5 fcbe 96dc 69be 856e 1dbd
00000220: 5b8a b73d 956a 703d 5f12 19bd 5e97 92bc
00000230: 3815 7f3d 4c70 8d3f d798 4b3d d16f 03bf
00000240: 9988 9a3f ab44 a33e 01bb 253e 5794 06bf
00000250: 9aa4 1abf eddf b4bd 7edf 05be 42af 85bc
00000260: 1838 0c3e 763b 0abe 12af 80bf 27bb 96bd
00000270: 3b27 843f 6e0d 183f baff 6b3e efbc 34bd
00000280: 9aa7 ba3d 8e8b c43d 3860 71bf 5960 303f
00000290: e210 f3be 59e1 9d3d 61d2 553d 5700 393d
000002a0: ab52 a03c 20e1 e1bd dbe5 c33d a69d 463f
000002b0: 4888 c33f 0e14 ec3e fd53 053f fd00 a1be
000002c0: 18df 28bf 9755 243e f8c6 bebe b0e0 793e
000002d0: b9cb d0ba 8195 ef3d fca8 743d 1f95 913f
000002e0: a70f fdbd 1c83 7c3f 9405 843e 5c8c bbbe
000002f0: d982 273e 7097 33be fe64 8fbc fb1f 293e
00000300: 6292 d7bd c635 9a3d 3fd3 c53e b8ff 3b3f
00000310: ce86 c33e 7bb0 053f 9ba2 243f d928 983f
00000320: ef19 c1be 0768 48bd bcc0 4bbe e9f5 8bbe
00000330: c1aa 44bd dfdf d93d f39e 8e3d fd7f bf3e
00000340: d05c 68bd cacd f33c 5504 613d dde2 3ebf
00000350: eb19 b23e 6726 aabf 856e 88bf 80bd 5d3f
00000360: 7643 49bd 66a8 72bc 42d0 463e 9d44 e53e
00000370: 4f7b b9bd f814 373f 9743 38bf bd3c 4a3f
00000380: e513 ccbe c529 94bf 1039 073f cae9 2f3f
00000390: cb4b 90bd 53fc a63d d24b c23d 54c1 60bf
000003a0: 226a c43e 9891 8e3f 0dd5 91bd 9d41 9bbd
000003b0: 2692 ca3c da62 4b3e 7fe1 373e 6aa5 d5bd
0.020863969 -0.7161049 -0.52285933 1.2080886 0.84663534 -1.3497432 0.047099177 -0.046429504
-0.010738184 -0.033600938 -0.0026222218 -0.35169902 -0.2454679 0.45740768 0.42495155 0.0031333845
-0.2733187 0.14767341 -0.24167757 -0.5643397 -0.790417 -0.0792665 0.0642352 0.17741805
-0.064308055 0.051952578 0.15726984 0.020797519 -0.13533822 0.20858048 -0.7904173 -0.70484173
-0.48586372 -0.28373972 -0.41287223 -0.13993824 0.1658384 -0.27142635 0.8221458 -0.031240465
0.08688766 0.06974807 -0.46746865 -0.18448688 -0.34432223 0.5372778 0.70338184 -0.6172768
-0.02469641 -0.022785563 0.5868422 0.024318026 0.0038290408 0.00064639974 -0.014575622 0.76161927
0.37254968 0.67491615 0.4928542 -0.61878574 0.2814964 0.34879637 0.42527476 0.15744777
-1.0886925 -0.31134394 -0.0056115994 -0.058494754 0.07302533 -0.53711134 0.11127639 -0.35612324
-0.9552932 -0.7640114 -0.46328956 -0.67159635 -0.3001845 0.26272297 -0.1451485 -0.14713793
-0.011786505 -0.07293872 0.029588038 0.105397746 -0.21311142 0.025409002 -0.12108145 -0.21404858
0.07399692 -0.30971658 -0.04898424 -0.020484079 0.80485934 -0.098068304 0.056043904 0.09269311
0.39674672 0.24689232 -0.25736067 -0.3856067 0.71403134 -0.42018607 0.55197334 0.12001575
-0.28501323 0.112249464 -0.7230164 -1.1525415 -0.43929243 -0.36659497 0.41509885 -0.24675164
0.36810276 0.36165753 1.0873978 0.06714838 -0.049121637 0.24055523 0.35421127 -0.008673421
0.0083071515 -0.008561283 0.32204992 -0.7749129 -0.14471453 0.5128669 -0.42050374 -0.7570576
0.6252372 0.016084418 0.1781143 -0.1455673 0.23439273 -0.49369672 -0.22838053 -0.038435478
0.08961936 0.058695395 -0.037371036 -0.017894443 0.062276095 1.1049895 0.049706306 -0.51342493
1.2072936 0.31888327 0.16184618 -0.525701 -0.6040741 -0.08831773 -0.13073537 -0.016318921
0.13693273 -0.13499245 -1.0053427 -0.07359915 1.0324472 0.5939549 0.2304677 -0.044125494
0.09113999 0.095969304 -0.94287443 0.68897015 -0.47473818 0.07708997 0.052202586 0.04516634
0.01957067 -0.11029267 0.09565326 0.775843 1.5275965 0.4610905 0.5208128 -0.31446066
-0.65965414 0.16048275 -0.37261176 0.24402118 -0.0015929855 0.116984375 0.05973147 1.1373633
-0.12356501 0.9863756 0.25785506 -0.36630523 0.16358508 -0.17538238 -0.017504212 0.16516106
-0.10525967 0.07529788 0.3863773 0.7343707 0.38188785 0.5222241 0.64310616 1.1887466
-0.37715098 -0.048927333 -0.19897741 -0.27336052 -0.048014406 0.10638403 0.06963911 0.37402335
-0.056729138 0.029761214 0.054935772 -0.74564916 0.347854 -1.329297 -1.0658728 0.8661728
-0.0491366 -0.014810657 0.19415382 0.4477891 -0.090567224 0.7151637 -0.71978134 0.7899893
-0.39858928 -1.1575247 0.52821445 0.6871611 -0.07045706 0.08153596 0.09487118 -0.87794995
0.38362223 1.1138182 -0.07120714 -0.07580874 0.024727892 0.19861928 0.17957114 -0.10431941

input_proj.bias f4 [80]
00000000: 7846 7f3e 8714 2a3e d4e5 31be 955d f83a
00000010: fb9c cb3d e6e1 313f b8c0 a63e 5aaa 50be
00000020: afcd 31be 3dbb 14be c08c 2c3e 1a63 99be
00000030: b93c 03bf fa35 5c3d 8537 b3bb a19f 3b3f
00000040: 7faf afbe 2e8e f7bd b3e9 12be 66d4 38bf
00000050: cb87 263e ad1f e23e ce77 d73d a8d5 c83e
00000060: aaad e83d fdce 08bf e08d 4cbe cbd0 c9bc
00000070: 76a2 00bf 7ba3 11bf d2f3 0fbe d622 e83a
00000080: 3612 1f3f 5478 7f3e d2d7 2d3f c97f 77bd
00000090: 40d2 27bf 8ca6 b63d 0da1 c23e 5ecb 433f
000000a0: 718e 87bd 87b2 d73d 7c6a c5be c62d 4b3e
000000b0: 90ea 7ebe 1308 3a3c 6d59 59bd a21a 5fbe
000000c0: 422f b93e 0907 9d3d abc8 eebd 0aed 7abe
000000d0: 9465 063e 1fd3 1e3c c75c 3f3f 4b51 503e
000000e0: 53f2 fabd 4f80 803e 3b88 1a3e bb2f f3bd
000000f0: e85c ac3d b2af 1ebf 7a4e 84be 7e1a 3fbe
00000100: 3d54 3a3c abdc 6f3e e715 ccbe f64e 573d
00000110: bed8 36bd 6564 3b3e 5d62 a6bd f69d c43e
00000120: b023 15bf cb9f 97bd def6 583f c8c1 893e
00000130: cb83 67bc 1ec6 0f3e 467b cebd 4e01 7d3e
0.24929225 0.16609393 -0.17372829 0.0018948788 0.09942051 0.6948532 0.32568908 -0.20377484
-0.17363618 -0.1452455 0.16850567 -0.2995842 -0.5126453 0.053762414 -0.005469265 0.7329045
-0.3431358 -0.120876655 -0.14346962 -0.72199094 0.16262738 0.44164792 0.10520898 0.39225507
0.11361249 -0.5344084 -0.19975996 -0.024635693 -0.50247896 -0.56890076 -0.14057854 0.0017710577
0.6213716 0.24948245 0.6790744 -0.0604246 -0.6555519 0.08918485 0.38013497 0.7648219
-0.066189654 0.10532098 -0.38557804 0.1984168 -0.24894166 0.011354464 -0.0530638 -0.21787503
0.36168867 0.076673575 -0.11659368 -0.24504486 0.13124686 0.00969389 0.7475094 0.20343511
-0.12253251 0.25097892 0.1509103 -0.11874338 0.08416158 -0.6198684 -0.25841123 -0.1866245
0.011372623 0.23424022 -0.3986046 0.052565537 -0.044640295 0.18300016 -0.0812423 0.38401765
-0.5825758 -0.07403525 0.8475169 0.26905656 -0.014130543 0.1404042 -0.10082106 0.24707529

layers.0.conv.norm.weight f4 [80]
00000000: 2782 2c3a 18cf e83e 6b32 bcb9 3056 c33e
00000010: 591f 003e 9749 8237 292d 483f e97e 2c3a
00000020: 9a01 b339 d9f1 b6ba bf35 5bb9 af7e 303b
00000030: 0970 5c3e 8f3e 8538 ded3 ee39 7770 c83a
00000040: cee6 d6ba 0a1f a73a 20bf e6b9 0c12 d63d
00000050: d9d0 ef3e 6bcd 013a 6c3f f2b9 c025 063b
00000060: fd5a d03e 4d4f 9f3a def6 773d eedf 8db9
00000070: 0ca4 91ba 97aa f739 045c 1a3f cda4 10ba
00000080: 1783 e2ba 0a4e 2eba 48d3 b1ba 32c7 2d3f
00000090: 1202 f13a e943 c33e 9aa3 8eba 6741 343b
000000a0: ff21 983e c77b db3e 2244 d0b9 1a9f 52b9
000000b0: ba60 b83e c70d f8b9 db7f 713b f423 093f
000000c0: b3ae b43a cfb9 143e bb83 10ba 1706 ef3e
000000d0: 8f54 2739 3980 90ba 1161 d2b8 84c4 8839
000000e0: 22d7 e43a c04e 98b4 661f 1e3f 187e 17ba
000000f0: 108b be3a 1563 bab9 8143 dc38 287d f338
00000100: e9ae b83e 4862 e43d 614d 9139 77aa 973e
00000110: d09c e6b8 3496 4a3e 4e6a d83e 0b6e 0c3f
00000120: 975e 8eba 4b46 293f 1135 ceb9 b151 f93e
00000130: 744f 5439 5f88 303f 69ef 013d 8447 e63a
0.00065806735 0.454705 -0.0003589572 0.38151693 0.12511958 1.5531476e-05 0.7819391 0.00065801904
0.00034142734 -0.0013957574 -0.0002090549 0.0026930978 0.21527113 6.353587e-05 0.0004555275 0.0015292306
-0.001639569 0.0012750339 -0.00044011418 0.10452661 0.46839026 0.0004951569 -0.0004620509 0.0020469278
0.4069442 0.0012154371 0.060538165 -0.00027060456 -0.0011111512 0.0004723861 0.60296655 -0.00055177213
-0.00172815 -0.0006649202 -0.0013566995 0.6788207 0.0018387458 0.3813775 -0.0010882497 0.0027504803
0.29713437 0.42867872 -0.00039723614 -0.0002008643 0.36011297 -0.0004731251 0.003684989 0.53570485
0.0013784975 0.14524005 -0.00055127934 0.46684334 0.00015957862 -0.0011024541 -0.0001003166 0.00026086357
0.0017459134 -2.8369504e-07 0.6176666 -0.00057789823 0.0014537293 -0.00035550506 0.00010502991 0.00011610455
0.36070946 0.11151558 0.00027714207 0.29622242 -0.00010996463 0.1978386 0.42268604 0.5485541
-0.001086193 0.66122884 -0.0003933092 0.48695138 0.00020247494 0.68958086 0.03172246 0.0017568921

layers.0.conv.norm.bias f4 [80]
00000000: 52d4 d1b8 373d abbe d8c1 9eb9 cc37 0b3d
00000010: 53af e9bd de9f 9237 4f93 24bd 0acd 2938
00000020: 6ae7 f4b9 de67 033a 3a01 18b9 d2b3 2d3b
00000030: b144 753e 9819 a8b9 83f9 1c37 6449 1838
00000040: f9e5 6fb9 5faf 123a 8223 3f3a d332 333e
00000050: 92e9 b0be e53b 8839 d02c b338 2cc0 e2ba
00000060: ca55 b83e 45f0 4fba d9e3 143d d167 c2b8
00000070: 951a 6dba 5649 b73a f022 603e 5261 7739
00000080: 9f40 c2b9 6d94 303a ee16 bab9 a784 663e
00000090: 299c a5b9 4c17 a1bd fab1 50b9 7098 6cbb
000000a0: 9bee 3e3d a682 b5bd 674e b3b9 948e ffb3
000000b0: 2f0c 9b3e d3bd 3fb9 d5c9 4739 9bac 353e
000000c0: 14d1 c6ba 9a8b 673d c8f5 633a d6e5 b33e
000000d0: dbc0 b939 41e7 8838 3f1e 8dba 6793 2eba
000000e0: 6f44 ae39 7d31 24b9 c926 36be ee27 afb9
000000f0: b374 e7b9 89f7 31b9 651a ca39 b7e4 68b9
00000100: dc7a 93bc df5d 20be d893 acb9 1530 1c3c
00000110: 91ad 46ba aa29 91bd dc18 bb3d d869 94bd
00000120: 1aa8 47ba 2080 f93a d6cb 8c3a d630 83be
00000130: 1af3 c8b9 0b19 8ebe 18aa 1d3c f421 b539
-0.00010005444 -0.3344514 -0.00030280533 0.03398876 -0.114103936 1.7479e-05 -0.040179547 4.0483697e-05
-0.00046711724 0.0005012731 -0.00014496307 0.0026504886 0.23951985 -0.00032062526 9.356419e-06 3.6307974e-05
-0.00022878488 0.00055955903 0.0007291363 0.17499857 -0.345532 0.00025984566 8.543732e-05 -0.0017299703
0.36002952 -0.0007932226 0.036350105 -9.269978e-05 -0.00090447936 0.0013983648 0.21888328 0.0002359201
-0.0003705071 0.00067359844 -0.00035493769 0.2251154 -0.000315876 -0.07865772 -0.00019902727 -0.0036101602
0.04661427 -0.0886281 -0.00034199955 -1.19002976e-07 0.30282733 -0.00018285894 0.00019053307 0.17741625
-0.0015168511 0.05652962 0.0008695987 0.35136288 0.00035429638 6.52806e-05 -0.001076646 -0.0006659538
0.00033238853 -0.00015658695 -0.17788233 -0.0003340835 -0.000441467 -0.0001697225 0.00038548108 -0.00022210447
-0.01800292 -0.15660809 -0.0003291655 0.009532948 -0.0007578964 -0.07088025 0.09135601 -0.072467506
-0.00076162966 0.0019035377 0.00107419 -0.25623196 -0.00038328097 -0.2775348 0.009623073 0.00034548307

layers.0.conv.msg_mlp.0.weight f4 [80, 80]
00000000: 8edb 0f82 5020 e4b8 9bd4 aeaa a86e c939
00000010: 5ee5 c33a 3eb6 d130 a9b1 dab9 fae7 241a
00000020: d406 9293 9e85 d909 54f1 d035 39ec 3cb2
00000030: be31 70ba f448 0733 b3af 31b1 7451 032e
00000040: a164 392a 09d1 0321 bf89 caaf 33df b638
00000050: 136d 223a 9cb7 d1b4 6d63 c5a3 10df a535
00000060: a827 c739 e6da 88aa 56b9 dca8 c3c3 a032
00000070: b214 ed23 0f86 1ea4 7606 03ba 3aaa ef16
00000080: 867b 52a8 3044 dfb2 dafa bbab 22a7 4739
00000090: 3047 3ca9 bce5 38ba 9a80 1fac 405f c231
000000a0: 8da2 8eb9 8202 aab9 78d5 3832 4769 42b3
000000b0: ec1e a83a 3bf6 63ae 01dc d48d fffe 8939
000000c0: cdc7 cc2d 1bba 8939 f0d4 eb12 2e35 923a
000000d0: 6504 d625 7fe6 8a1d f907 e931 02da 36b0
000000e0: 543c d8b0 998c 51b7 fcce a239 fd9d db31
000000f0: b519 4aac bad7 9032 b0ce 39b2 6741 809b
00000100: d4d8 1938 a743 a239 1d79 8c33 2f3c 9539
00000110: 5bdb 24a7 e32e 2fb8 4954 4eba edac b438
00000120: 14f1 c52f d25e 7aba 99ee 09b5 9195 47ba
00000130: b68a 0601 00e4 97b9 7666 bca0 c6b7 8319
00000140: fa62 8301 62fb 3bba f0bd ed81 602d 80b9
00000150: ad65 a537 005e 6781 8558 2b3a ed6c d000
00000160: 1801 3a81 93aa 9901 5cc8 8101 813c af81
00000170: a36e 83b9 3a86 7002 ba16 0881 64b6 f915
00000180: 6995 f100 5a7e c501 359a ae01 f8b7 7739
00000190: 0f3d 94b7 d81d a38e 6b8c 3b02 e847 5c00
000001a0: 5f28 5db9 bcbb ad13 cebf 1597 6c3b 7602
000001b0: 69fc 5c81 30d4 9481 01d1 15ba 1896 ac01
000001c0: d5e1 4b1e 7005 ab13 7698 4119 5eba 1539
000001d0: 2952 b522 e585 d63a d042 3201 6c68 c598
000001e0: 3c64 ffb7 d4a5 d039 e9a6 f180 5caa 6a82
000001f0: 292a 16ba 03c3 c681 f23b 0882 1455 cd39
00000200: 3830 6e01 e2a5 20b9 eb9f 9201 43b4 89b9
00000210: 2326 5001 0cd0 bc01 9647 718e 22ed 0181
00000220: c277 7581 37ad 441f 5572 b139 c65a 4901
00000230: bb92 ce81 65bb 8b00 40d1 5e01 8a9b e580
00000240: d13d b0b8 6e70 0e39 64cd b601 3fd4 1439
00000250: 5c7a 1582 a1d5 50b7 df17 2e3a a145 ecb9
00000260: 62e6 bc01 7e48 1dba 5a59 da17 37c4 a739
00000270: f669 5081 9414 043a ab0e ab00 c5d4 d800
00000280: 8a86 7180 81bb 4b00 3fcc 0a82 cbf7 2c82
00000290: fe3f a181 d61c 6181 7350 8b81 eaf2 7e81
000002a0: 1b01 8b82 9ee0 3481 74cb e880 4af2 0e01
000002b0: ffd1 2980 5605 2382 efea e201 86d3 1a00
000002c0: a610 5182 6a6e 3582 44ae 2f01 1c98 1780
000002d0: b90f e200 2f90 e081 7da3 7880 3135 3402
000002e0: fa58 4081 5191 af81 dbaf 1e80 c3be 3682
000002f0: cf5a 0082 acf6 0800 b229 7001 ccbb 9201
00000300: d5c0 1c01 c806 0281 db3f 3d02 371e 3581
00000310: 81f0 2382 315e 2281 8ce6 6502 0264 5001
00000320: ba10 9601 be76 1081 3c89 f301 1866 6381
00000330: 30d8 8c01 7a49 2400 d3f6 6f82 b31b 4081
00000340: 6dab 4080 d4aa 8681 65ca 1500 7f19 9c80
00000350: 9497 2902 a970 5702 671a b880 4421 7c02
00000360: 25b9 7202 d248 b581 3964 6001 3918 8b02
00000370: e41c 7701 4258 6f82 4597 8701 d7fd 7201
00000380: a271 0881 47ce be80 9a69 7581 296e 1681
00000390: 4e39 ab01 ae25 2802 3e84 5c01 4977 8701
000003a0: 0696 d601 c3d4 0100 773c 4601 062b 4181
000003b0: 526e 3700 520b ab00 e1fd 4382 70c8 9601
000003c0: 0d0a c101 a0cc dd21 4cab 9f01 8cb0 5a01
000003d0: 41fe 3182 8463 cb81 7280 94a0 9be1 a381
000003e0: ba34 a801 1e94 1181 9a43 ec01 6a9d b801
000003f0: dd4a 8381 d960 ab01 5a31 c601 5d7a 7882
-1.056899e-37 -0.00010877906 -3.1056134e-13 0.00038420153 0.0014945676 1.5258548e-09 -0.00041712567 3.4101794e-23
-3.6862315e-27 5.2366503e-33 1.5567443e-06 -1.0996751e-08 -0.00091626856 3.1498487e-08 -2.5856763e-09 2.9858296e-11
1.6466213e-13 4.466118e-19 -3.684146e-10 8.7200104e-05 0.0006196063 -3.9062877e-07 -2.1400891e-17 1.2358378e-06
0.00037985784 -2.4310344e-13 -2.4505283e-14 1.8715474e-08 2.5704356e-17 -3.437434e-17 -0.0004998216 3.871996e-25
-1.1684127e-14 -2.5991625e-08 -1.3356774e-12 0.0001904038 -4.180613e-14 -0.0007053276 -2.2666647e-12 5.656972e-09
-0.0002720546 -0.00032426795 1.0758747e-08 -4.5264894e-08 0.0012826598 -5.183252e-11 -1.3118473e-30 0.00026320663
2.3280844e-11 0.00026269336 1.4883078e-27 0.0011154765 3.712606e-16 3.6766623e-21 6.782099e-09 -6.652102e-10
-1.5733215e-09 -1.2490106e-05 0.00031053263 6.3917e-09 -2.8720197e-12 1.6861907e-08 -1.0815413e-08 -2.121809e-22
3.667998e-05 0.00030949453 6.5412884e-08 0.00028464335 -2.2878485e-15 -4.1766918e-05 -0.0007870836 8.615279e-05
3.6005388e-10 -0.00095508725 -5.138368e-07 -0.00076135347 2.4711433e-38 -0.00028970838 -3.1916242e-19 1.3619308e-23
4.8263824e-38 -0.0007170943 -8.73326e-38 -0.0002444787 1.971688e-05 -4.249544e-38 0.0006536323 1.9140858e-38
-3.416359e-38 5.6448086e-38 4.767462e-38 -6.4371666e-38 -0.00025068698 1.7670936e-37 -2.499556e-38 1.0085806e-25
2.2185953e-38 7.2547677e-38 6.413878e-38 0.0002362429 -1.7671407e-05 -4.021134e-30 1.3778888e-37 8.474661e-39
-0.00021091242 4.385646e-27 -4.838659e-25 1.8090279e-37 -4.0588714e-38 -5.467109e-38 -0.0005715043 6.3398195e-38
1.07934315e-20 4.317183e-27 1.0008655e-23 0.00014279175 4.914714e-18 0.0016366808 3.2741372e-38 -5.1028746e-24
-3.0445044e-05 0.00039796403 -2.219223e-38 -1.7240496e-37 -0.0005728328 -7.301354e-38 -1.0008905e-37 0.00039164035
4.3748291e-38 -0.00015320585 5.38614e-38 -0.00026264982 3.8230928e-38 6.9358826e-38 -2.974001e-30 -2.3863692e-38
-4.5085315e-38 4.1647894e-20 0.00033845255 3.6982996e-38 -7.5882997e-38 1.2832358e-38 4.092509e-38 -2.1086126e-38
-8.403848e-05 0.00013584059 6.715096e-38 0.00014193448 -1.0981907e-37 -1.24475055e-05 0.00066411303 -0.00045065305
6.9390876e-38 -0.0005999877 1.4110475e-24 0.00031998914 -3.827959e-38 0.0005038467 1.5709132e-38 1.9912794e-38
-1.0425675e-38 6.954926e-39 -1.0197255e-37 -1.2707677e-37 -5.9233884e-38 -4.1346662e-38 -5.1175975e-38 -4.6826714e-38
-2.0424849e-37 -3.3221934e-38 -2.137882e-38 2.6255115e-38 -3.840588e-39 -1.197688e-37 8.33564e-38 2.463603e-39
-1.5359673e-37 -1.3329467e-37 3.2267453e-38 -2.166783e-39 2.0760462e-38 -8.24915e-38 -1.1078908e-38 1.3239577e-37
-3.5328668e-38 -6.4493366e-38 -2.81815e-39 -1.3425994e-37 -9.430016e-38 8.23173e-40 4.4110953e-38 5.3901405e-38
2.8791025e-38 -2.3882094e-38 1.3903853e-37 -3.3266128e-38 -1.204437e-37 -2.982228e-38 1.6890427e-37 3.8275318e-38
5.51253e-38 -2.6533816e-38 8.9461024e-38 -4.1766564e-38 5.173809e-38 3.332436e-39 -1.7629782e-37 -3.5284704e-38
-5.938968e-39 -4.946895e-38 2.001151e-39 -1.4335484e-38 1.245966e-37 1.5828037e-37 -1.6907203e-38 1.8523583e-37
1.7832486e-37 -6.659339e-38 4.1214209e-38 2.0438117e-37 4.5387463e-38 -1.7584276e-37 4.980823e-38 4.46305e-38
-2.5060782e-38 -1.7522743e-38 -4.5075159e-38 -2.7629685e-38 6.289771e-38 1.2353504e-37 4.0502497e-38 4.9762334e-38
7.882646e-38 1.6816e-40 3.6410238e-38 -3.547937e-38 5.090528e-39 1.5707931e-38 -1.4399197e-37 5.538891e-38
7.0911425e-38 1.5029706e-18 5.8653175e-38 4.0166942e-38 -1.3076874e-37 -7.471322e-38 -2.5157173e-19 -6.020047e-38
6.178911e-38 -2.6738563e-38 8.678971e-38 6.7816803e-38 -4.8229224e-38 6.295445e-38 7.280453e-38 -1.8255279e-37

layers.0.conv.msg_mlp.0.bias f4 [80]
00000000: e377 d0ba 0761 57ba d1e1 8096 fbdc 98b0
00000010: 87db c2b9 ec72 c4b9 1f32 ffb9 b72d 12bb
00000020: 05f8 c2b9 8bc7 02bb f254 f1ba 9f77 fbb8
00000030: f738 b79e e8a8 efb0 67a1 3d82 5bb4 e6ba
00000040: 40b0 56b1 9688 cd39 a781 4eb1 d50b 26ba
00000050: 7716 26bb 3204 4e3b 3ec5 26ba 3064 2b3a
00000060: 80bc ad3e 301a 6d80 00df c0ba 0ec2 e1ba
00000070: da9e 2fba 64bc c13b d81c f9b7 c494 8cb3
00000080: 56ce 81ba 61b5 eaba a982 f1b2 1d53 30b8
00000090: 04b2 00b0 108a 99ba 127e 2581 16dd 97b9
000000a0: 295c b380 aa17 cfb9 3727 67b7 cc78 8db7
000000b0: 1338 bfba 76a2 8aba 46c6 c4ba 0d12 093b
000000c0: d1cd dab9 25b4 d7b8 e642 eaba f34d 49ba
000000d0: 8eff 1bbb 11f9 1c3e 8f40 a2b9 0072 deba
000000e0: 604e 35ba 69a1 c3ba e36d e13d c763 00bb
000000f0: f903 0fba 90e3 a0ba 2d5b 2b3c 6013 273a
00000100: c01d d2ba 68e7 deba a036 81b7 2c35 3eba
00000110: f9d8 e1ba 5863 8b80 b88b 6ab9 10eb 5180
00000120: 5a77 9d39 cd22 75ba 9303 083e 90f7 baba
00000130: 5b57 8ab9 c269 f137 f0a1 0bb8 9676 f2b6
-0.001590487 -0.00082160573 -2.0822026e-25 -1.1122262e-09 -0.00037166124 -0.00037469657 -0.00048674733 -0.002230508
-0.00037187352 -0.0019955363 -0.0018412156 -0.00011990894 -1.9399439e-20 -1.7437545e-09 -1.3931847e-37 -0.0017601358
-3.1241285e-09 0.0003920241 -3.0050644e-09 -0.00063341606 -0.002534298 0.0031435606 -0.0006361789 0.00065380614
0.33932877 -1.0019463e-38 -0.0014714897 -0.001722397 -0.0006699391 0.0059123505 -2.9696545e-05 -6.546318e-08
-0.0009903412 -0.0017906838 -2.811551e-08 -4.2039075e-05 -4.6819104e-10 -0.001171412 -3.0396165e-38 -0.00028965686
-1.6471615e-38 -0.00039499748 -1.3777803e-05 -1.686476e-05 -0.0014588855 -0.0010576982 -0.0015012703 0.00209153
-0.00041733545 -0.000102855534 -0.001787272 -0.0007679157 -0.0023803446 0.15329386 -0.00030947148 -0.001697123
-0.0006916281 -0.0014925423 0.11007287 -0.0019590722 -0.0005455609 -0.001227485 0.01045875 0.00063734315
-0.0016030595 -0.001700622 -1.5403435e-05 -0.0007255848 -0.0017230801 -1.2800772e-38 -0.00022368028 -7.523e-39
0.00030034297 -0.0009351194 0.13282613 -0.0014264453 -0.00026386496 2.8778686e-05 -3.3291e-05 -7.2259672e-06

layers.0.conv.msg_mlp.2.weight f4 [80, 80]
00000000: f10c ddba d93b 1f3b 169b 4f01 568c b6a7
00000010: 48e0 1139 da60 23b3 f95e 0c3a c0a2 c73a
00000020: e569 e0ba 71e3 0d3b 371a ebb7 4de7 c334
00000030: 808d 7601 516b 699a c8c6 0281 1499 fbb9
00000040: 0656 cf26 46cf 903b 0ca5 2629 009a 6abb
00000050: 90d9 303a 240f 97ba fe92 c63a 84f4 023a
00000060: eea9 50be e26d 0a80 0381 de39 b929 3e39
00000070: db81 673a 4f1c 23bc 0d29 4f2e cb45 0fb3
00000080: 2421 7537 3858 8bba 0b3b c496 bc5a 9a32
00000090: 4f8f 02a2 29e9 00bb 8a19 7e01 c21e cab9
000000a0: 1d8b 7e80 336c d039 de74 3c2f f372 0fb7
000000b0: 2fa6 90b9 a02d ac39 460d ca3a c430 61b8
000000c0: 6821 b9ba fc89 8cb8 e2ea fe3a 77a9 08ad
000000d0: 7f86 953a cce4 99bd 6af1 0634 b8e2 0439
000000e0: 717f 8bba 50c4 01b9 26e9 14bf c10c 97b9
000000f0: cdaf d139 490f 043c ac9a 33bc 9bb4 9e3b
00000100: ec9a 63b8 0ad0 ef39 4d3c 84af 648b ae3a
00000110: a222 f939 16d0 0180 69d2 1a3a 1a87 1900
00000120: 1d65 9a3a b172 7d3b 4fbc 82bf 5c03 363b
00000130: e687 8fba f783 91ba 02ee d132 7246 182e
00000140: 0f84 f5ba 2992 083b f035 8601 52b4 4910
00000150: a1ba 4f37 f529 36ab f26d 243b 1919 c8b8
00000160: ad75 f938 626c bfba e989 8db8 78d6 9bb7
00000170: dc56 dc05 78d7 ca2e 99c8 8c01 3128 d637
00000180: c20a 5b09 9e40 9abb 7c2a 7997 fe29 22bb
00000190: 0978 31bb 55b8 83bb 85b6 1dba 23e6 f2ba
000001a0: 4b6e 08be 480e 5a00 3d56 8c3a e353 2bba
000001b0: 333e a53a e1fd 313c e862 9935 e8bd 44a6
000001c0: 89c0 1a38 8357 4dba 4d97 6d2e e214 8c33
000001d0: 721f 4719 36b9 12bb d1b9 3d80 7f2f b436
000001e0: d23b de00 5716 8838 8269 30b2 209e 23af
000001f0: 8245 bdba b77b 68ba ae11 653b 47bd 10bb
00000200: 0c83 b43b 576d cc37 bc72 9fb9 9660 09b5
00000210: dae3 4039 4732 d8bd c265 2931 6c36 2c3a
00000220: c8b5 343a f2cf 6fb8 40ac 003d 49db 8c39
00000230: 9758 213a 8947 163c 75db 29bb a05c 50bb
00000240: adf8 4a3b 297e 2d3a 0ce6 eb29 082c 353a
00000250: 17cd 1539 1724 5d80 a293 c237 0d79 7680
00000260: 5f04 083a 75bf 53ba 818a 913e 09e2 2a3b
00000270: e22a 863a e81b 0f3b db3b 6ab6 47fe be21
00000280: b80b 23b8 4e09 4834 208d aa81 cca1 0f82
00000290: abca 4518 4c0d 4802 ef46 de36 64a9 e9ba
000002a0: 4651 373a 7234 a93b 59e6 eb97 c652 04b2
000002b0: 7b73 0b02 7f25 6380 a44f 1e00 9db5 3237
000002c0: 7bc7 2482 14b2 b0b9 eff2 f180 2b22 5f39
000002d0: 6202 e0ba fd8e d3bb 5160 8033 9abc ac3b
000002e0: e794 463e fa65 0c80 1fee f838 2b2c 49b1
000002f0: e731 2cb9 0c4e 183c c099 d181 3ad1 0582
00000300: 3491 839b 7a6f 9839 99e4 e900 82ff 96ae
00000310: cc9c 9e81 5b00 6dba 353a 0300 47bd f427
00000320: ef48 b400 ec9d 242d ef31 5c81 49f3 eb00
00000330: f583 073a 2723 86b7 2436 933b 47de 903a
00000340: af16 5c3b d799 a41a eef2 b73a 909e 4d82
00000350: 6ba8 9b3a 113e 4d3e a602 bf01 7d7d 0d35
00000360: 27b3 a333 2d66 7c37 1f9a f93d 12db 6bb6
00000370: 536c ef38 a4f7 13bc eb45 87bb 9150 4e3a
00000380: aa10 acb8 01be 5c36 0d92 8600 313b 27ba
00000390: 9361 0d3a c7c7 3500 f1bd e830 01eb 2100
000003a0: 839b 533b 5d1e e7ba 4573 de3e 0c9e 0337
000003b0: c04d 83bb 2511 943a 1ef8 7582 f0c4 2402
000003c0: 1ee3 21b9 650f ddb1 7c13 2c82 cf5c d280
000003d0: f83d 1700 2742 3202 0ae2 cdb3 0f91 8dbb
000003e0: e856 32ba a782 163b d883 a917 92a3 eab1
000003f0: 5f56 9781 3fa1 8f01 e9a5 6f81 4663 e623
-0.0016864819 0.0024297147 3.8131164e-38 -5.06673e-15 0.00013911829 -3.803948e-08 0.0005354728 0.0015230998
-0.0017121403 0.0021650458 -2.802639e-05 3.6489874e-07 4.5284585e-38 -4.826996e-23 -2.4019848e-38 -0.00047988503
1.4386827e-15 0.00441924 3.700256e-14 -0.0035797358 0.00067462865 -0.0011524898 0.0015150008 0.0004995542
-0.20377323 -9.57773e-40 0.0004243926 0.00018135355 0.00088313007 -0.00995548 4.710281e-11 -3.335826e-08
1.4610854e-05 -0.001063115 -3.170277e-25 1.796922e-08 -1.7694152e-18 -0.0019670224 4.6670755e-38 -0.0003855136
-1.1621177e-38 0.00039753466 1.714002e-10 -8.550228e-06 -0.00027589637 0.0003284039 0.0015415333 -5.3689597e-05
-0.0014124336 -6.701422e-05 0.0019448663 -7.768334e-12 0.0011407881 -0.07514343 1.2567548e-07 0.0001267296
-0.0010642839 -0.00012375531 -0.58168256 -0.00028810467 0.00039994568 0.008060285 -0.01096217 0.004843307
-5.42653e-05 0.00045740634 -2.4053506e-10 0.0013316688 0.00047518784 -1.66483e-40 0.00059059873 2.344353e-39
0.0011779402 0.0038673098 -1.0213717 0.0027772998 -0.0010950535 -0.0011101951 2.4439036e-08 3.4623367e-11
-0.0018731373 0.0020839071 4.930122e-38 3.9779174e-29 1.2381614e-05 -6.4717616e-13 0.0025089947 -9.541418e-05
0.00011895164 -0.0014604444 -6.749092e-05 -1.857731e-05 2.0720608e-35 9.2241714e-11 5.171572e-38 2.5529504e-05
2.6366224e-33 -0.00470741 -8.050986e-25 -0.0024744268 -0.0027079603 -0.004019777 -0.0006016272 -0.0018531721
-0.13323323 8.270318e-39 0.0010706853 -0.00065356324 0.0012607038 0.010863752 1.1428174e-06 -6.825853e-16
3.6895774e-05 -0.00078331697 5.4021943e-11 6.5230566e-08 1.0294409e-23 -0.0022388226 -5.668624e-39 5.3699473e-06
2.040894e-38 6.4891465e-05 -1.0268538e-08 -1.4880941e-10 -0.0014440271 -0.00088685326 0.0034953165 -0.0022085474
0.005508786 2.436961e-05 -0.00030412327 -5.117703e-07 0.00018395428 -0.10556465 2.465058e-09 0.0006569389
0.00068935426 -5.7175705e-05 0.03141427 0.0002686626 0.00061548635 0.009172329 -0.002591816 -0.003179349
0.0030970976 0.00066182256 1.0476003e-13 0.0006911163 0.00014286149 -8.553648e-39 2.3195349e-05 -1.0880013e-38
0.00051886396 -0.00080775406 0.28425983 0.002607467 0.0010236169 0.0021836702 -3.4903558e-06 1.2942207e-18
-3.8873142e-05 1.8629837e-07 -6.265064e-38 -1.0552414e-37 2.5563974e-24 1.4697495e-37 6.6243733e-06 -0.0017826972
0.00069930067 0.0051637227 -1.5244667e-24 -7.702232e-09 1.0245248e-37 -9.105165e-39 2.783635e-39 1.0651912e-05
-1.2106065e-37 -0.00033702014 -2.2219503e-38 0.00021279666 -0.0017090554 -0.0064562545 5.977984e-08 0.0052715065
0.19392739 -1.138608e-39 0.00011869915 -2.9274456e-09 -0.00016421788 0.009295952 -7.6995095e-38 -9.831342e-38
-2.1765967e-22 0.00029074756 2.1479676e-38 -6.8665976e-11 -5.8265026e-38 -0.00090408855 2.96387e-40 6.792882e-15
1.6556553e-38 9.357386e-12 -4.0443444e-38 2.1668616e-38 0.00051695044 -1.5990414e-05 0.004492538 0.0011052572
0.0033582856 6.807735e-23 0.0014034191 -1.5106527e-37 0.0011875754 0.20043208 7.016612e-38 5.27092e-07
7.6228666e-08 1.504416e-05 0.121875994 -3.5145245e-06 0.00011416585 -0.00903121 -0.004128208 0.00078702817
-8.204703e-05 3.2893151e-06 1.235835e-38 -0.00063793646 0.0005393263 4.938948e-39 1.6934206e-09 3.114875e-39
0.0032288737 -0.001763295 0.4344732 7.845007e-06 -0.0040070713 0.0011296613 -1.8070963e-37 1.2105335e-37
-0.00015438764 -6.4336967e-09 -1.2642156e-37 -1.9318748e-38 2.134447e-39 1.309636e-37 -9.587173e-08 -0.004320271
-0.0006803111 0.0022966058 1.0954651e-24 -6.828892e-09 -5.5592576e-38 5.276128e-38 -4.4016402e-38 2.4978694e-17

layers.0.conv.msg_mlp.2.bias f4 [80]
00000000: 1382 853e d462 21bf aa60 73be 6e5e edbc
00000010: a348 79be 9d00 02bc cbd5 b43d 655a 33bb
00000020: d3aa 6bbd 9f0a 513e 329f 7f3d b6a0 843e
00000030: 2f20 e73e 86b4 113e 18aa 48ba 05d4 23bf
00000040: 968a ec3e 1f47 383e 41a7 82be b661 7fbb
00000050: 63fa 12bd 8d90 863e d829 3c3e 85b8 063f
00000060: 6373 a83e 416d 3bbc ac48 f03c 8e40 473d
00000070: 06f4 123f 91a6 103c 1b53 8d3e ff62 d23d
00000080: a2a3 91be 11d1 afbe 6b07 a6bd 468f 893e
00000090: d8ce b63e c880 adbc 50d5 13bf edbb b7be
000000a0: 098f 0c3e 4e9c a13e eacf 163f d2ed 84be
000000b0: 8f0a 373e 60e3 56bc 7c22 973d 5c83 4d3d
000000c0: 5a7c abbe 85e2 da3e 6cac 17bd c6e5 023f
000000d0: 2a72 163e 80b5 c03d 2a58 dbbe 7f01 9abe
000000e0: 030b 86be 87a4 18bf 49cf bfbb d743 783e
000000f0: cdbd 303e cefc 853c 6427 823e 5cee 31be
00000100: 69c9 3a3c 984a 02bb 48d2 1dbf e7f1 223e
00000110: 92ee c6bd 55cd 80be b2fe b53e e6d1 033f
00000120: 7949 4bbe 69d0 123e 372a b9be ddca e5be
00000130: b171 803d bca6 e7bd 134f 823d e7a9 9fbc
0.260758 -0.63041425 -0.23767343 -0.028975692 -0.24344115 -0.0079347165 0.0882984 -0.0027367112
-0.057535958 0.20414208 0.06240768 0.25903863 0.45141742 0.1422902 -0.00076547405 -0.6399539
0.46199483 0.1799588 -0.2551823 -0.0038968152 -0.03588332 0.26282158 0.18375337 0.52625304
0.32900533 -0.011439622 0.029331528 0.04864555 0.574036 0.008828775 0.27602467 0.10272788
-0.28445154 -0.34339193 -0.081068836 0.2686712 0.35704684 -0.021179572 -0.57747364 -0.35885563
0.13726439 0.31564564 0.58911 -0.25962692 0.17875122 -0.013115734 0.07379624 0.050174102
-0.3349331 0.42750946 -0.03702967 0.51131856 0.14691988 0.094096184 -0.428407 -0.30079266
-0.26180276 -0.5962605 -0.0058535677 0.24244629 0.17259903 0.016355898 0.25420678 -0.17376083
0.011400559 -0.0019880887 -0.6164899 0.15912591 -0.097134724 -0.25156656 0.3554588 0.51492155
-0.19852246 0.14337315 -0.3616502 -0.44881335 0.06271685 -0.11311099 0.063627385 -0.019490195

layers.0.mlp.norm.weight f4 [80]
00000000: 68cf f33e 9210 b23f 88c3 b038 abc7 9bbb
00000010: 063d c33e ea12 a63e 1ae9 5e3e 2cb4 2c3a
00000020: 760a 303a b3ea 143b 5f18 843e f44d 6c3a
00000030: 6c55 e73e f003 b93a 7a50 413b b746 303f
00000040: db3c 663e 6564 a23a 3916 0bbb 5ba6 d73e
00000050: de87 5d3a 1e8e fc3e 6a84 92ba b7bb 47bb
00000060: d093 513f ecf0 90ba 8e5a 8639 ba53 8f3a
00000070: a42d c8ba d842 76ba 1fea 9d3a ef20 243a
00000080: 5759 5e3a e108 a73e 3fc3 37b9 1cc9 053f
00000090: 8b9a 553a 2b35 013a a4de 103f 56bd 7f3e
000000a0: 76b6 9e3b 93fb db3e b52b eb3e c081 883a
000000b0: 2a02 563c 2064 a33b 5547 57bb 89a8 a538
000000c0: a52f 093f acba 143f 0890 ab3a 05b7 113f
000000d0: 2520 823f 8351 abba 4193 123f ebfe 2cba
000000e0: 406c 35bc 50a7 2d3f 255b b7bb fb54 a2b9
000000f0: 6436 c5b9 7330 253f c1df 163e 56a1 ed3a
00000100: 8bdb dc38 d3ab dc3d 4b20 863f ea99 433b
00000110: b572 23bb 5f5d a43e 1143 ad3e b3f6 9a3f
00000120: ac5e 02b9 6f97 53b9 3f94 863f 9186 c03e
00000130: df56 4dbb 7b3e 4a3b d817 0cbb 2ce9 ee3a
0.47619176 1.3911307 8.4287545e-05 -0.004754027 0.38132495 0.32436305 0.21768609 0.0006588127
0.0006715426 0.00227229 0.25799844 0.00090143015 0.4518236 0.0014115553 0.002949743 0.688579
0.22484152 0.0012389539 -0.0021222963 0.42119107 0.0008450727 0.49327177 -0.0011178378 -0.0030476877
0.8186617 -0.0011058128 0.0002562594 0.0010934987 -0.0015272391 -0.0009394116 0.0012047923 0.0006261011
0.00084819406 0.32623962 -0.00017524975 0.52259994 0.0008148334 0.0004928882 0.5658972 0.2497457
0.0048435284 0.42965373 0.45931783 0.0010414645 0.013062039 0.004986301 -0.0032848914 7.899205e-05
0.53588325 0.5809734 0.0013089189 0.5691989 1.016606 -0.0013070557 0.5725594 -0.0006599265
-0.011073172 0.67833424 -0.005595582 -0.00030962363 -0.00037615292 0.6452705 0.14733793 0.0018129747
0.000105313105 0.1077496 1.0478605 0.0029846379 -0.0024940197 0.32102486 0.3384023 1.2106537
-0.00012433034 -0.00020178941 1.0513991 0.37602666 -0.0031332297 0.0030859995 -0.0021376517 0.001822745

layers.0.mlp.norm.bias f4 [80]
00000000: 6d60 5c3b e049 92bd 5bc5 8f39 6171 c63a
00000010: 0136 1fbd 5654 68be 2a2c 3abd eb45 2c3a
00000020: b766 263a 3be0 153b 1ff3 783e 072a 28bb
00000030: 92d0 0bbd 4da2 9839 0003 b5b9 299d 3a3d
00000040: c79f ccbe 476a 82ba be58 6b3b 696b e83e
00000050: 72d2 bcb9 e48d 53be 62dd 88ba b886 05bb
00000060: af30 0d3e dd70 123b 7085 8d39 cd2e 14ba
00000070: 5d51 c63a b233 0e3a 598f 6e3a 6ea1 f139
00000080: b11a ccb9 558b 00bd 7636 f7b9 24e4 19be
00000090: 05cf 16ba 4da7 55ba ec67 7d3e 34ce 603d
000000a0: b53b 3d3b b8ab 41be b0f1 683d 2a3e 0aba
000000b0: 7ca4 0cbc 2a43 21bb 5418 15bb b4a0 1e3a
000000c0: 6fbc 143e b24e 0dbe ae82 f3b9 8e54 9a3c
000000d0: 545c 683e ad97 0bbb 183c 1abc 38f7 0439
000000e0: 814f 9e3a 3761 28bd 2ed9 0f3b c3ab 08ba
000000f0: 0fbe 3cba 5645 393c cbb7 8bbd e7c4 07ba
00000100: 9668 e139 1184 77be 998a 843e bbdb 09bb
00000110: ba5a 183a 74dd 123d 84ad 22be b774 d4bd
00000120: 3366 18b9 deab c2b8 73eb a9bd 9361 433e
00000130: 412b fb3a 6ab9 ccb9 9100 9bba e7f7 93ba
0.003362681 -0.07142997 0.00027422127 0.0015139991 -0.03886986 -0.22688422 -0.045452274 0.0006571698
0.0006347703 0.0022869247 0.24311493 -0.0025659816 -0.034134455 0.00029112623 -0.00034525245 0.045560036
-0.3996565 -0.0009949886 0.0035911049 0.45394447 -0.00036014948 -0.20659596 -0.0010441954 -0.0020374488
0.13788103 0.0022345104 0.00026993034 -0.0005652726 0.0015130449 0.00054245733 0.000910034 0.00046087377
-0.000389298 -0.031382877 -0.00047152088 -0.15028435 -0.0005752894 -0.0008150235 0.24746674 0.05488415
0.00288747 -0.18913162 0.056871116 -0.00052735454 -0.008584138 -0.0024606683 -0.0022750096 0.00060511683
0.14525007 -0.13799551 -0.00046445936 0.018839147 0.2269147 -0.0021300123 -0.0094137415 0.00012680597
0.0012078137 -0.041108336 0.0021949518 -0.0005213583 -0.0007199952 0.011308035 -0.06822165 -0.0005179182
0.00042993267 -0.24171473 0.25886992 -0.002103551 0.0005811859 0.035855725 -0.15886503 -0.10373824
-0.00014533922 -9.2826536e-05 -0.082968615 0.1908019 0.0019162671 -0.00039048056 -0.001182573 -0.0011289091

layers.0.mlp.mlp.0.weight f4 [48, 80]
00000000: aa0a 313d af1f 1e3e 3a29 83b9 f641 1e39
00000010: 4597 93bc 7631 11bb 8eb5 0bbc 7069 20ba
00000020: 68ad 34b9 2ebe e339 e3b8 b23a 7d5a 5839
00000030: 64c1 703c b9ef ecb9 49c5 98b9 3d34 a43c
00000040: 0d07 76bc 6666 0c3a 5c75 a03a 0790 3f3d
00000050: 8175 e2b7 f4d8 fa3b 5547 903a abee 17ba
00000060: a33f b7bd 1788 9eb7 814b 99b9 c206 cc39
00000070: 714e 04bb 54dd 81ba 7305 feb9 7ec1 e2b9
00000080: 3fab 4f3a 9401 9cbc 1864 f639 1eae 1d3b
00000090: 296e 54b9 c908 c5b9 71b2 103d 37e4 263b
000000a0: 39c4 0c3a e0a6 8cbc 8a22 9bbc bf6d 323a
000000b0: 7ab0 f43a 496e 1dba 2ca9 a0b9 ad45 5db9
000000c0: a9ca 1e3d 3c19 78bc d5fe 223a b40b 6cbb
000000d0: 38b0 aebe 5900 e3b8 bf8b 16bd 57aa 05ba
000000e0: 793f 843a 19a0 983c c9d7 4aba 829c 123a
000000f0: 619d 233a 5bdf 193d b60b 6f3a 68f9 9139
00000100: a7be ddb9 ae3d 1ebc d66f 293e 1db0 c839
00000110: 84e2 dab9 6f02 47bb c303 393c 7cad a4bd
00000120: 096b 9539 9a01 ed39 dae8 d53d 31fc 07bd
00000130: 7247 5a39 d818 d6ba 32cf 0e38 80be c3b7
00000140: 9cc8 eb3c 32ef f93d 2e0a 5aba 59b4 d8b9
00000150: a38c c5bc 6ca0 e33b 4f0b 7bbc 0647 9cba
00000160: f635 2fba 2ebe 1b3a 51bc 453c 0d66 da39
00000170: 1483 8b3c 1934 11ba 3f4f a5b8 c831 f43c
00000180: d462 02bd b46b 433a b554 b03a 0101 903d
00000190: 5c9d 46b9 05d2 ab3c 8c14 d73a 26c9 3fb9
000001a0: 6b1a 0cbe 251d 34ba 7d32 3aba 0a6e 433a
000001b0: aa5f 08bb 1406 afba ae5c 3dba 3acf 67ba
000001c0: 9059 6d3a 954d 6cbc 497b 493a 9abd b2bc
000001d0: 5b19 16b9 0d5c 84b9 d973 203d 5cec 313c
000001e0: f829 403a 185a 0ebc 69c5 f2bc d1ed 903a
000001f0: 26fc b039 3fcd cbb9 d827 c3b8 8ee0 35ba
00000200: a2e5 2d3d b60a 9cbc 080c 813a da15 b6bc
00000210: 3eee b4be cb3e 55b9 edb7 78bc e00b 19ba
00000220: 69de 613a a051 393d b4ac 1f38 3daa 733a
00000230: c043 ad3a e48c e33c c329 513a dcaf 013a
00000240: de9b 06ba 87e6 84bc 00be 233e 5f36 553a
00000250: d666 5aba 63b2 853a d52e bb3c dc40 b0bc
00000260: 374f 2f3a e69e 393a 8c59 0a3e 68eb 9b3b
00000270: 9ab2 cdb8 c426 b9b9 a73c c439 6aad e039
00000280: bfee 79be d005 ac3e 0442 88b9 149e fc3a
00000290: cb92 18bd 5e60 18be 3b1a b43c b3c6 2d3a
000002a0: 9044 b639 4643 413a d26c 8c3c 062e 8a3a
000002b0: 4c17 80be d796 ddba ded3 893b 595d c03e
000002c0: 57c2 213d 4b38 383a c5a4 af39 d738 773e
000002d0: 22d3 a7ba 67e2 823c cbfb e339 b614 2cbb
000002e0: 7982 47ba 25b8 2dbb 2ddf 32b8 1dc2 4fba
000002f0: 7679 21bb 4b24 e53a f972 2d3a 7655 9339
00000300: 474e baba e6c5 7b3e 5e31 bfba 857a 103e
00000310: 2174 0e3b 0f9a 9e39 2809 a43d 2d45 41bd
00000320: 14b5 8439 e789 afbb bc80 41be 425b 313a
00000330: 4e78 803c ca22 37ba 5aac 1d39 1414 c83a
00000340: 7131 b7be 7117 34be 67c9 deb9 09e3 78be
00000350: 7e09 bb3d 6672 cb39 3ab4 bb3e 9d00 7037
00000360: adc2 c73a 45ca 7b3e 5856 df3a 6b6a a6ba
00000370: d196 823a 2baf febc 5ddb 243d 7400 84b9
00000380: 23ea a63a 0a55 193b d773 ef3e 1103 08ba
00000390: cef7 e039 54e7 333d b2e8 01be 49e7 ccbe
000003a0: 6df8 fcb7 5d5b 49bb b677 32be 1cab d53e
000003b0: d7b6 50ba 7800 05bb c8dc a3ba 3743 94ba
000003c0: 8d91 c03e 2ff9 c73d 16fd 1cbb 9516 2dbb
000003d0: 8fea febd b6dc 043e 2670 553e 59c8 7dbb
000003e0: 9c05 9739 1b1c c3bb 19a5 913d b17a bc3b
000003f0: b874 91be 9c02 33bb 6d69 5dbb fa06 733e
0.04322306 0.15441774 -0.00025016983 0.00015092627 -0.018016467 -0.0022154725 -0.008527173 -0.0006119227
-0.00017230737 0.0004343851 0.0013635423 0.00020633075 0.014694545 -0.00045192035 -0.00029138688 0.02004444
-0.0150163295 0.0005355835 0.0012242007 0.046768215 -2.6996016e-05 0.0076552574 0.0011007587 -0.0005795757
-0.089476846 -1.889844e-05 -0.0002923869 0.00038914947 -0.0020188356 -0.000990788 -0.00048450715 -0.00043250242
0.0007921941 -0.019043721 0.00046995352 0.002406008 -0.00020258933 -0.00037581314 0.035326425 0.0025465616
0.00053698156 -0.017169416 -0.018937368 0.00068065146 0.0018668317 -0.00060055085 -0.0003064362 -0.00021102159
0.03876749 -0.015142735 0.00062177825 -0.0036017718 -0.3411882 -0.00010824268 -0.036754366 -0.000509893
0.0010089717 0.018631028 -0.0007737843 0.00055927795 0.0006241408 0.037566524 0.00091188715 0.00027842377
-0.00042294452 -0.00965826 0.16546568 0.00038278187 -0.00041748967 -0.003036644 0.011292401 -0.08040902
0.00028499242 0.00045205356 0.104448035 -0.033199493 0.00020816716 -0.0016334308 3.4048404e-05 -2.333452e-05
0.028782181 0.12203826 -0.0008317557 -0.000413331 -0.024114912 0.006946614 -0.01532252 -0.0011923022
-0.0006683761 0.000594112 0.012068824 0.00041656234 0.017030276 -0.0005539074 -7.882574e-05 0.029808894
-0.03183253 0.00074547087 0.0013452979 0.070314415 -0.00018941372 0.020974169 0.0016409322 -0.00018290113
-0.13681953 -0.0006870798 -0.000710286 0.0007455057 -0.0020808973 -0.0013353252 -0.0007223588 -0.000884283
0.00090541784 -0.014422794 0.00076859124 -0.021818925 -0.0001431456 -0.00025245585 0.03917298 0.010859575
0.00073304726 -0.008688472 -0.029635148 0.0011057203 0.000337572 -0.00038872098 -9.305746e-05 -0.00069380633
0.042455323 -0.019048076 0.0009845505 -0.022227217 -0.35338014 -0.00020336655 -0.01518057 -0.00058382563
0.00086162105 0.04524386 3.8069396e-05 0.0009295082 0.0013219044 0.027777143 0.000797894 0.00049471646
-0.00051349204 -0.016223205 0.15990448 0.0008133407 -0.0008331364 0.0010200258 0.02284948 -0.021515302
0.0006687524 0.00070808677 0.13510722 0.004758287 -9.808429e-05 -0.00035314832 0.00037429223 0.00042853813
-0.2440748 0.33598185 -0.00025989127 0.0019273185 -0.037249368 -0.14880511 0.021985164 0.0006629035
0.00034764828 0.000737239 0.017141733 0.001054228 -0.25017774 -0.0016905916 0.0042061647 0.3757122
0.039491978 0.0007027431 0.00033501364 0.24142776 -0.0012804011 0.015977098 0.00043484414 -0.0026257462
-0.00076106895 -0.0026507464 -4.2646356e-05 -0.00079253485 -0.0024639047 0.001748213 0.00066165585 0.00028101698
-0.0014214002 0.24587211 -0.0014586856 0.14109237 0.0021736699 0.0003025089 0.08009559 -0.04718511
0.00025311916 -0.0053570154 -0.18896765 0.00067656126 0.015682366 -0.000698608 0.00015036893 0.0015264773
-0.35779908 -0.17587067 -0.00042493196 -0.24305357 0.0913267 0.0003880441 0.3666094 1.43052575e-05
0.0015240513 0.24588878 0.0017039282 -0.001269651 0.000996316 -0.031089386 0.040248264 -0.0002517734
0.0012734573 0.0023396634 0.46768066 -0.0005188445 0.00042909238 0.043921784 -0.12686422 -0.40020207
-3.0156423e-05 -0.0030724623 -0.17428479 0.4173211 -0.00079618156 -0.002029447 -0.0012501711 -0.0011311535
0.37611046 0.09764325 -0.0023954562 -0.0026411165 -0.12447082 0.1297482 0.20843562 -0.0038724153
0.00028805144 -0.005954278 0.07111568 0.0057519306 -0.28409362 -0.0027314788 -0.0033784762 0.2373313

layers.0.mlp.mlp.0.bias f4 [48]
00000000: 835e 89bd 5498 70bd 6a8f c93c f589 debd
00000010: 5ef6 8ebd a758 97bd 2271 7ebd 5741 75bd
00000020: 318b 7dbd cce8 86bd 62f9 8fbd 57ee 8ebd
00000030: 4120 7ebd a333 8dbd 5440 6abd e205 8ebd
00000040: a894 87bd 0496 74bd 204f 91bd a59a 6abc
00000050: 333a 91bd 6cc3 97bd 1a13 82bd ef31 59be
00000060: 8014 88bd 756d 84bd dc60 74bd 26ed 90bd
00000070: a3af 82bd a055 95bd 1ec5 293d 1dcf d63d
00000080: 64cc 94bd 2029 793c 3115 88bd 4025 84bd
00000090: 45d1 8cbd b1f2 8ebd 2207 98bd b021 88bd
000000a0: e1a8 85bd 9cba c1bd 3950 92bd 1e71 0f3e
000000b0: ac0a ed3c 5c09 d9bd 724c 81bd 8484 99bd
-0.0670748 -0.05873902 0.024604518 -0.10866157 -0.069805846 -0.07389956 -0.06211961 -0.059876766
-0.06190032 -0.06587371 -0.07029988 -0.069790535 -0.06204248 -0.068946145 -0.057190254 -0.06934716
-0.06620151 -0.05971338 -0.0709517 -0.014319097 -0.07091179 -0.07410321 -0.063512996 -0.21210454
-0.06644535 -0.0646619 -0.059662685 -0.070764825 -0.06381156 -0.07291722 0.04144775 0.104887225
-0.07265547 0.015207559 -0.06644667 -0.064524174 -0.068758525 -0.069798835 -0.074232355 -0.066470504
-0.06526352 -0.09459421 -0.071442075 0.14007995 0.028935753 -0.10597488 -0.06313409 -0.074959785

layers.0.mlp.mlp.3.weight f4 [80, 48]
00000000: cbac dfbc 03fc 4ebb 6683 0e3e 0a7b 123d
00000010: 9917 92bc 1cd3 52ba 72aa 1b3c c4f2 a93a
00000020: c238 a6bc 4317 0fbc d28d 31bd 245d d2bc
00000030: f36c 6ebc 6c7e aebc 581f e2bc f70b 7bbc
00000040: f904 1abd 2337 d6bc 47da e7bb b9c3 a03d
00000050: a930 1f3c 70a7 19bd fae5 8cbc 4a7e 65bd
00000060: 7335 2ebc cf63 b93c 6284 0ebd 15d1 0abd
00000070: ee30 10bd c3b6 0d3c 5384 983e 05ab 8f3e
00000080: 8df5 d1bc e0b7 0c3d 3b9b c4bc e06e 66bc
00000090: 56bd 34bd e8bb d83b 4262 eabb 546f 86bb
000000a0: 5bba 6f3c 9f3c 3d3d 007e 3dbd b03c 1dbf
000000b0: ce4e f13d fb9b 703d a7ae 1ebd 0564 4abd
000000c0: 062e ffbc 852b ecbc 306f b0bd 3d81 cd3d
000000d0: f575 19bd c7e2 31bd 18c5 ffbc 97e4 0ebd
000000e0: 3b31 39bd 2e8a eabc d3aa 14bd da40 1cbd
000000f0: 3f92 1fbd de8a cfbc 7d50 41bd 3c09 01bd
00000100: c310 24bd d900 26bd 462e 0ebd 40c7 903b
00000110: 004c 11bd 6480 ddbc 581c 1bbd b42a 263d
00000120: aed2 2ebd 5ac6 21bd 7d83 23bd c9e5 d0bc
00000130: 8878 12bd 4f6b fcbc 983e 5abe 8f3d 33be
00000140: d0db 12bd bb3b 66bd ed35 05bd 7eb9 11bd
00000150: a021 16bd ac38 16bd 0ac2 bbbc 557a 27bd
00000160: 5a3c fcbc 411f 6f3d 2f40 e6bc 36c7 a7bd
00000170: 9fdd 83bd 3c01 4dbc e70b 48bd bc41 35bd
00000180: af23 05bd 8220 94bc b50c 113e 6252 ebbc
00000190: cdbb b4bc b6d7 b0bc e5e7 84bc 2e2c dfbc
000001a0: c0b1 9abc a3df 6dbc d79f c8bc 1f00 8cbc
000001b0: 6e0d d8bc 56da 81bc b74a a8bc fd17 8abc
000001c0: 1332 98bc 7e0a c8bc b77f c9bc 6ca2 273e
000001d0: 834c c7bc ed40 7dbc 5b22 bbbc 6784 fd3c
000001e0: b90e debc 9eea 6dbc f343 03bd bb1f 8bbc
000001f0: 8697 c0bc 6980 74bc d043 583e e15c 0f3b
00000200: 187d babc b5ac 093e 643a e0bc 3dc1 b0bc
00000210: 628b eebc c98f 4fbc 5b78 a0bc 7b68 c7bc
00000220: be6d c7bc 32c0 3c3d 85c3 82bc d2f3 163f
00000230: 0b4a f23d f2f6 24bc 0e76 dabc 3a0f cbbc
00000240: 9aa8 5cba a5f8 383b 654b d03c 4b7e 57bc
00000250: 797a 3fbb aac3 ea38 11ff eebb d7f2 e9bb
00000260: ff97 50bb 522b b4bb 08d0 0e3a 27c9 acbb
00000270: 2aca 2e39 60df 13bb 2acd 04bb cfe7 12bc
00000280: b639 b9bb c7ff abbb e9b7 53bb d5ef e63b
00000290: 38af 71bb 135e 873b 12cc e63a 2063 1fbd
000002a0: bee6 44bb ae85 8eba f9e1 99bb ebef b5ba
000002b0: 6124 29bb 8e8f 8dba bac1 09be db6f d3bd
000002c0: 4c2a d3bb 72be 5e3d 6220 2fbb d01b abba
000002d0: fcb0 e339 1590 7cb9 b861 8cbb 7e8e 83bb
000002e0: 531b b5b9 ce89 47bb cdb6 853b 3fe3 a93d
000002f0: cd86 073d 8a7f 6bbc ec00 6dbb 0629 6ebb
00000300: 7307 bb3c bd6d fb3c 07f6 a4bd 55ff 203e
00000310: d25e d73c f23a b43c e297 bd3c 04d5 3d3c
00000320: 3a9c f63c 933c 0a3d db5b 243c 6174 e23c
00000330: 13ad b23c bafd fd3c d643 c43c 3592 c53c
00000340: 335d 813c 5410 2b3d 653c 0f3c b23d 12be
00000350: e771 b73b f93f ac3c 6cd9 293d af06 1f3f
00000360: 021b d83c 570a 123c fedd cd3c 745c b43c
00000370: 3426 cc3c 9245 4e3c da69 383e 0bdb 933e
00000380: 52eb 8b3c baac 86bd b418 003d 45bc df3c
00000390: 2d0c eb3c f153 303c f814 b33c f2bb b23c
000003a0: 7623 b33c dc74 243f eeb4 8d3c 0132 123e
000003b0: 3a58 fabd 1c15 123f 0be7 0d3c 281b 0d3c
000003c0: 6753 2f3c 91f4 413c a718 7f3d 74c0 ecbd
000003d0: da62 543c 4f2b 213c 2587 0c3c 01d0 af3b
000003e0: 7d35 453c 4a9a 0f3c 7543 8a3c 55ca 413c
000003f0: bbd9 763c 3727 c13b e2aa 543c daa8 823b
-0.027304074 -0.0031583316 0.13917312 0.03576187 -0.017833518 -0.0008042322 0.009501087 0.0012966027
-0.020290736 -0.008733573 -0.04334814 -0.025679179 -0.014552343 -0.021300517 -0.027602836 -0.015322677
-0.0376024 -0.026149338 -0.0070755812 0.07849831 0.009716191 -0.037513196 -0.017199505 -0.05602864
-0.0106328605 0.0226306 -0.03479422 -0.033890802 -0.035202913 0.008649531 0.29788455 0.28060165
-0.025629783 0.034355044 -0.0239998 -0.014064521 -0.044125877 0.006614197 -0.0071528265 -0.004102627
0.014631833 0.04620039 -0.04626274 -0.61420727 0.11782609 0.058742505 -0.03874078 -0.049411792
-0.031149875 -0.028829345 -0.08614957 0.10034416 -0.03746601 -0.043429162 -0.031221911 -0.03488597
-0.045212965 -0.028630342 -0.036295723 -0.038147785 -0.03895783 -0.025334772 -0.0471959 -0.031502947
-0.040055048 -0.040528152 -0.0347121 0.0044182837 -0.03547287 -0.02703876 -0.037868828 0.04056807
-0.04268139 -0.039495803 -0.03992032 -0.025500195 -0.03575948 -0.030812887 -0.2131294 -0.17503951
-0.03585416 -0.056209307 -0.03252213 -0.03557729 -0.03665316 -0.03667514 -0.022919673 -0.04088815
-0.030790497 0.058379415 -0.028106777 -0.08192293 -0.06438755 -0.012512501 -0.048839476 -0.044252142
-0.032504734 -0.018081907 0.14165004 -0.028725807 -0.022062207 -0.021587234 -0.016223857 -0.027242746
-0.018883586 -0.014518651 -0.02449028 -0.017089901 -0.026373591 -0.015851181 -0.02054344 -0.016857142
-0.018578565 -0.024419066 -0.024597032 0.16370553 -0.024328476 -0.015457374 -0.02284353 0.030946923
-0.02710663 -0.014521269 -0.032047223 -0.016982904 -0.023509752 -0.0149231935 0.21119618 0.0021875429
-0.022764727 0.13444789 -0.027371593 -0.021576518 -0.029119197 -0.012668558 -0.01958864 -0.024341812
-0.024344321 0.04608173 -0.015962372 0.5896579 0.11830529 -0.010068642 -0.026667621 -0.024787534
-0.00084174576 0.0028224376 0.025426576 -0.013152669 -0.0029217287 0.00011194435 -0.00729359 -0.0071395445
-0.0031828878 -0.0054983282 0.0005447869 -0.0052730027 0.00016669245 -0.0022563562 -0.002026389 -0.0089664
-0.0056526316 -0.005248997 -0.0032305664 0.007047633 -0.003687812 0.0041310876 0.0017608425 -0.038912892
-0.003004476 -0.001087358 -0.0046961275 -0.0013880705 -0.0025809037 -0.0010800229 -0.13452807 -0.10324069
-0.006444251 0.05438084 -0.0026722183 -0.0013054553 0.00043428678 -0.00024086268 -0.00428411 -0.004014789
-0.00034543368 -0.0030447128 0.0040806294 0.08295297 0.03308754 -0.014373669 -0.003616388 -0.003634037
0.0228307 0.030691976 -0.080547385 0.15722401 0.026290331 0.022000764 0.023143712 0.011586431
0.030103792 0.033749174 0.010031666 0.027643384 0.021811044 0.031004775 0.023958128 0.024117569
0.015791511 0.04176362 0.0087424265 -0.14281347 0.005598295 0.021026598 0.041467115 0.62119573
0.026380066 0.008913598 0.025130268 0.022016741 0.02492056 0.012589829 0.18009129 0.28878054
0.017079983 -0.06575914 0.03127356 0.027311454 0.02869233 0.010762201 0.021860585 0.021818135
0.021867495 0.64240813 0.017298188 0.14276887 -0.12223859 0.5706346 0.008661042 0.008612432
0.010701037 0.011838094 0.06227937 -0.11560145 0.012963021 0.009836986 0.008577143 0.005365372
0.012036678 0.008764813 0.01687787 0.011828025 0.015066559 0.0058945674 0.012980195 0.003987414

layers.0.mlp.mlp.3.bias f4 [80]
00000000: 512a ba3e 19ae 943c 024b 86bd 9f38 d6bd
00000010: 2395 fcbd 3749 57be 45dc b6bd d1e2 9abd
00000020: 13a4 0abd c30b 4ebe 6547 303e 4339 1fbe
00000030: 4df0 67be 4b2f a93b dd67 193e 1295 343e
00000040: a15e 0c3e aa25 f2bc 7b97 3e3e 14aa 933c
00000050: ccc5 3dbd e4b7 ad3d 4039 d33d 7437 3a3e
00000060: c9a8 39be 76df 10bd e884 b5bd bfeb efbd
00000070: 1117 afbd 045d 103d 6c6e 14bc 17d2 7fbc
00000080: d8af bdbc f26f 043d 1825 f1bd 21e3 f53c
00000090: ffe9 dcbc 33ea ef3d d94c 963e 4c41 493d
000000a0: 0fda 63bc 8a38 16be 78fd 75bd a29f abbd
000000b0: 26b5 bfbd c499 18bd 77e1 9dbd 5c70 9abe
000000c0: 1939 44be 672f fcbd 9768 91bd 625b f3bd
000000d0: 7acb 813c f73d 4abd c559 823e 5c69 a93c
000000e0: 7b91 f6bd fd45 e1bd 1640 9f3d db1c 0d3e
000000f0: f031 253d 9c23 4dbe b1c2 8cbe 4e03 e1bd
00000100: 0172 b9bc b08a 2c3e b5e7 653e 66f3 0ebe
00000110: d5b3 8ebd 163d 953d 01d3 533d 6f11 503d
00000120: ee5b b6bd 6e26 303d 26c8 993e 19ef 7c3e
00000130: 094b 7ebd 3172 a4bd 88dc b5bd 50f6 73bd
0.3636041 0.018149422 -0.06557275 -0.10460018 -0.12333133 -0.21024023 -0.08928732 -0.07562793
-0.03384788 -0.20121674 0.17214735 -0.15549187 -0.22650261 0.0051631085 0.14981027 0.17634991
0.13707973 -0.029558975 0.18612473 0.018025436 -0.046331212 0.0848234 0.10313654 0.18185216
-0.18130793 -0.03536936 -0.088632405 -0.11714887 -0.085493214 0.035244957 -0.00905953 -0.015614054
-0.023155138 0.032333322 -0.11774653 0.03001553 -0.026967047 0.11714592 0.29355505 0.049134538
-0.01390697 -0.14670005 -0.06005618 -0.08380057 -0.09360723 -0.037256017 -0.0770902 -0.30163848
-0.19162406 -0.12313729 -0.07100027 -0.11882664 0.015844095 -0.0493755 0.25459114 0.020680122
-0.12039467 -0.10999677 0.07775895 0.13780539 0.040330827 -0.20033115 -0.27492288 -0.109869584
-0.02263737 0.1684978 0.2245167 -0.13960037 -0.06967894 0.07287042 0.0517149 0.050797876
-0.08904253 0.0430054 0.30035514 0.24700584 -0.062083278 -0.08029593 -0.088799536 -0.059561074
