models/best_demon_len=8299_qbits=20_{Gen=true_L1=32_cp=0.005_w=Inf}_{L2=3_cp=1.0e-19}.pth (torch, 83226 bytes, 41 tensors)

input_proj.weight f4 [30, 3]
0	0xbdce6101	-0.10077096
1	0xbb9b90b4	-0.0047474746
2	0xbe74929f	-0.23884057
3	0xbfa12606	-1.2589729
4	0xbea8248b	-0.3284038
5	0x3e29ff53	0.16601305
6	0x3e2323b1	0.15931584
7	0x3f2d3fd3	0.67675513
8	0xbe3d7d3d	-0.18504806
9	0x3eccab07	0.39974234
10	0x3f7d99c0	0.9906273
11	0x3e4aed2a	0.19817033
12	0xbe849197	-0.25892326
13	0xbe6cbcbc	-0.23118871
14	0xbdede044	-0.11615041
15	0x3ebf8edf	0.3741369
16	0x3ead7caa	0.33884174
17	0xbed84a0d	-0.42243996
18	0xbf10e52f	-0.56599706
19	0x3f4049fd	0.751129
20	0xbc5906ca	-0.013246248
21	0x3e6515f3	0.22371654
22	0x3d83f641	0.064434536
23	0xbf40e605	-0.7535098
24	0xbe247533	-0.16060333
25	0xbd5a2193	-0.053254675
26	0xbd7363cc	-0.059421346
27	0x3f78cdc3	0.9718897
28	0xbf6ae7f5	-0.9176019
29	0x3f246b2b	0.64226025
30	0xbeeb0963	-0.459056
31	0xbf257451	-0.6463061
32	0x3ea0139d	0.31264964
33	0x3c546f85	0.012966041
34	0xbdc8f146	-0.09811644
35	0x3f0b202f	0.54345983
36	0xbe35ca50	-0.17752957
37	0x3ead5370	0.3385272
38	0xbf1650ab	-0.5871684
39	0xbca4b9bf	-0.020108102
40	0xbe985916	-0.29755467
41	0x3e1f0938	0.1553086
42	0x3eeceb64	0.4627334
43	0x3f1f0a81	0.621254
44	0xbf04464d	-0.5166977
45	0xbe65a466	-0.22425994
46	0x3e5f6343	0.21815209
47	0xbec4872d	-0.3838438
48	0x3eccb138	0.39978957
49	0xbe94f179	-0.2909048
50	0x3e0d39e4	0.13791615
51	0xbfb2f4f9	-1.398101
52	0xbf9511bc	-1.1646037
53	0x3f18ce79	0.5969005
54	0x3f807922	1.0036967
55	0xbef5cb7d	-0.48006812
56	0x3d2deb59	0.042460773
57	0x398cac4e	0.00026831258
58	0xbd49b82a	-0.0492479
59	0x3e79a122	0.24377874
60	0xbea2ab0a	-0.31771117
61	0x3f2e6a8b	0.6813132
62	0xbda3e936	-0.08003466
63	0x3f7c4bd4	0.98553205
64	0x3eef4e33	0.4673935
65	0xbd03f2b1	-0.03221387
66	0x3fb45fa8	1.4091692
67	0xbf1bfb59	-0.609304
68	0xbf018bfd	-0.5060423
69	0x3f88306c	1.0639777
70	0x3e49e819	0.19717444
71	0xbea16b24	-0.31527054
72	0xbf8497dc	-1.0358844
73	0x3f23ab7a	0.6393353
74	0x3ebe9808	0.37225366
75	0x3eff38ce	0.49848026
76	0x3ec7db39	0.3903444
77	0xbeaadfda	-0.3337391
78	0x3fc56ef6	1.5424488
79	0xbebee996	-0.37287587
80	0xbf899ae2	-1.0750391
81	0xbf3dfeff	-0.7421722
82	0xbecd9a3d	-0.40156737
83	0x3f125143	0.57155246
84	0x3e8927e1	0.26788238
85	0x3e99f6ed	0.30071202
86	0x3f220a1f	0.63296694
87	0xbf01b665	-0.50668937
88	0xbf54033d	-0.8281744
89	0x3d073d44	0.03301741

input_proj.bias f4 [30]
0	0x3e47450e	0.19459936
1	0xbe0a01d5	-0.13477261
2	0x3dd4cd0b	0.10390671
3	0xbe9b38d1	-0.30316785
4	0x3eac8980	0.33698654
5	0xbeb05494	-0.34439528
6	0xbc855b88	-0.016278997
7	0x3ce4b3fe	0.027917858
8	0x3e61296b	0.21988456
9	0x3cd87543	0.026423102
10	0x3cbbbc53	0.022916948
11	0xbd32ce18	-0.043653578
12	0x3cbaeda2	0.02281839
13	0xbd89f7c0	-0.06736708
14	0xbec5c720	-0.38628483
15	0xbd6cbcbf	-0.05779719
16	0xbe8ff50c	-0.28116643
17	0x3eaffc95	0.34372392
18	0xbe23cfe7	-0.15997277
19	0xbccb9731	-0.024852367
20	0x3eaf2ebe	0.3421535
21	0x3ce2c8c3	0.027683621
22	0xbde2d41d	-0.11075614
23	0xbe26b077	-0.16278253
24	0x3cd9f8c9	0.026607888
25	0xbeeb9f67	-0.46020052
26	0x3db5313a	0.0884728
27	0xbd709f06	-0.058745407
28	0xbe9ca506	-0.30594653
29	0x3ebde20e	0.3708653

layers.0.conv.norm.weight f4 [30]
0	0x3ef21b6e	0.47286552
1	0x3f95027b	1.1641382
2	0x3f67034d	0.9023941
3	0x3f78e339	0.97221714
4	0x3e881099	0.26575163
5	0x3ee9299d	0.4553956
6	0x3f8373cc	1.0269713
7	0x3f49c771	0.7881995
8	0xbb33df8a	-0.0027446472
9	0x3fa3c078	1.2793112
10	0x3f7e5eef	0.9936361
11	0x3f0e97c9	0.55700356
12	0x3f5909fe	0.8478087
13	0x3f526848	0.8219037
14	0x3e8d41cc	0.27589262
15	0x3f739939	0.95155674
16	0x3f656f4c	0.8962295
17	0x3f901605	1.125672
18	0x3f8f2c6d	1.1185433
19	0x3f28f139	0.65993077
20	0x3f7615a2	0.9612676
21	0x3f8d8a57	1.1057843
22	0x3f9dde0a	1.2333386
23	0x3f8a7dfc	1.0819697
24	0x3fa11468	1.2584352
25	0x3f375e15	0.7162793
26	0x3fa8a983	1.3176731
27	0x3f86514a	1.0493557
28	0x3e8a0344	0.26955616
29	0x3f8db49f	1.1070746

layers.0.conv.norm.bias f4 [30]
0	0xbcf983fa	-0.03045844
1	0xbd48a4f0	-0.04898542
2	0xbd05d2cd	-0.03267174
3	0xbc6244c0	-0.013810337
4	0xbc595bb4	-0.013266493
5	0x3cb09ddd	0.02155965
6	0xbd991902	-0.07475473
7	0xbd4943b6	-0.04913684
8	0x3cb71422	0.022348467
9	0x3c4f140b	0.012639056
10	0xbc2ee8c9	-0.0106756175
11	0x3dd10930	0.102068305
12	0xb9feaba2	-0.00048574532
13	0x3d54f495	0.051991064
14	0xbc257261	-0.010098071
15	0x3db7dbb4	0.08977452
16	0xbcf1c22c	-0.029511534
17	0xbd3e3d3f	-0.046445128
18	0xbd87ec22	-0.06636836
19	0x3d39d5db	0.045369964
20	0x3d871050	0.06594908
21	0x3d350c88	0.044201404
22	0x3d806671	0.06269539
23	0x3d9007cc	0.07032737
24	0x3b9e490a	0.0048304843
25	0x3c2430dc	0.010021415
26	0x3d330a5e	0.04371106
27	0xbc4305cd	-0.0119032385
28	0x3d313b5b	0.043269496
29	0xbd9ebd3e	-0.07750939

layers.0.conv.msg_mlp.0.weight f4 [30, 30]
0	0xbaec103a	-0.0018010207
1	0x3c8302ff	0.01599264
2	0xbac4245c	-0.0014964449
3	0x3bcfb850	0.0063391104
4	0xb9fdfaac	-0.00048442686
5	0x3b15c086	0.0022850349
6	0xbb33b50f	-0.0027421152
7	0xb994a472	-0.0002835128
8	0x8007916f	-6.9502e-40
9	0xbbcecce0	-0.006311044
10	0x3a8de16d	0.0010824628
11	0x20ce696a	3.4967515e-19
12	0xba874a27	-0.0010321782
13	0x3a51ba80	0.0008000508
14	0x3ac50aa9	0.0015033084
15	0xba9cdd99	-0.0011967897
16	0x3b6aad87	0.0035808997
17	0xbb07d50d	-0.0020726353
18	0x3b97ba0a	0.004630332
19	0xb1daf265	-6.372192e-09
20	0xbbaa9c94	-0.005206654
21	0xbc382279	-0.011238688
22	0x3bacf980	0.005278766
23	0x3ae4a767	0.0017444909
24	0xbb8e9cec	-0.0043522026
25	0x3bdff7b7	0.00683495
26	0x3a54e3ee	0.00081211224
27	0x3ba8e4d3	0.005154231
28	0x39927e7f	0.00027941537
29	0xbc1e0eae	-0.009647055
30	0xbd801d49	-0.06255586
31	0x3c937116	0.01799826
32	0xbd3fb9d8	-0.046808094
33	0x3d9b74c3	0.0759063
34	0xbd564dca	-0.05232028
35	0x3c81bb0b	0.01583626
36	0x3bd821ca	0.006595825
37	0xbd1f03b3	-0.038821887
38	0x3c49144a	0.012272904
39	0xbc86613e	-0.01640379
40	0x3b2a7f64	0.0026015872
41	0x3d06e850	0.032936394
42	0xbbd4aa2a	-0.0064900117
43	0x3cc4a0f0	0.024002522
44	0x3c8abbae	0.016935196
45	0x3c2e27d2	0.010629611
46	0x3d8742b7	0.06604522
47	0xbbd443ce	-0.0064778095
48	0x3c46328a	0.01209701
49	0x3a2d4cb3	0.00066108553
50	0xbd107585	-0.035268325
51	0xbc85a3bd	-0.016313428
52	0x3bbf36c1	0.0058353846
53	0x3be9960b	0.007128482
54	0xbb198725	-0.00234265
55	0x3c734a46	0.014849251
56	0xbbeeb8f3	-0.0072852313
57	0x3c393022	0.01130298
58	0x3d98cfb7	0.074614935
59	0xbd0440c8	-0.032288343
60	0x3cb5d265	0.02219505
61	0x3c52c84d	0.012865138
62	0xbd1e1135	-0.03859063
63	0xbce2ba3a	-0.02767669
64	0x3cb8c8b6	0.022556644
65	0xbc31fc7b	-0.010863419
66	0xb93adb24	-0.00017819979
67	0xbc05e7d3	-0.008172947
68	0xb9c799be	-0.00038070785
69	0xbcb08c48	-0.021551266
70	0x3b4d0eb8	0.003128929
71	0xbca0dab6	-0.01963554
72	0x3b501ea4	0.0031756544
73	0x3afd2b60	0.0019315295
74	0xbb5b7fd2	-0.0033492935
75	0x3c729d7a	0.014808053
76	0xbb642c9f	-0.0034816635
77	0xbc245f39	-0.0100324685
78	0x3c97fb2d	0.018552387
79	0xbab7d88a	-0.0014026326
80	0xbb3ace61	-0.002850436
81	0xbc42be80	-0.011886239
82	0x3c124348	0.008927174
83	0x3c656135	0.014000227
84	0xbbac5215	-0.0052588084
85	0xbc443ab9	-0.011976891
86	0xbb9f468e	-0.0048607057
87	0x3c0d2873	0.008615601
88	0xbb805ccf	-0.0039173136
89	0x3bd68471	0.00654655
90	0x3c9c36d9	0.019069122
91	0x3d0f4114	0.034974173
92	0xbea159e8	-0.31513906
93	0xbe0c6644	-0.13710886
94	0x3cbf4169	0.02334662
95	0x3c775949	0.015096971
96	0x3da618b3	0.0811018
97	0xbe187f31	-0.1489227
98	0x3d2d2498	0.042271227
99	0x3e3716cb	0.17879789
100	0x3cc8442e	0.024446573
101	0xbd5eb804	-0.05437471
102	0xbbc031b9	-0.0058653024
103	0x3e490fd3	0.19634943
104	0x3ae352ce	0.0017343403
105	0x3e6bfae0	0.2304492
106	0xbc70befd	-0.014693973
107	0xbe198bb7	-0.14994703
108	0x3d830234	0.063969046
109	0xbd067bf5	-0.03283306
110	0x3c31b138	0.010845475
111	0xbe011e2b	-0.12609164
112	0x3dfb3423	0.12265804
113	0xbd057ecd	-0.03259163
114	0xbda996e0	-0.0828073
115	0xbcd7a099	-0.026321696
116	0x3e2a1fdd	0.16613717
117	0xbaef5e4f	-0.0018262359
118	0xbca0c469	-0.019624906
119	0x3e02fec0	0.12792492
120	0xba9954eb	-0.0011698281
121	0xbeab6606	-0.33476275
122	0x3dcea108	0.10089308
123	0x3d49ed8f	0.04929882
124	0x3bfe2349	0.007755671
125	0xbcf11f78	-0.02943395
126	0xbeaf0505	-0.34183517
127	0x3d59a824	0.053138867
128	0xbcaf5af0	-0.021405667
129	0x3e3724a6	0.17885074
130	0xbe84e05b	-0.2595242
131	0xbc9f84a0	-0.01947242
132	0xbdef61a7	-0.116885476
133	0xbe081f96	-0.13293299
134	0xbc5cbf80	-0.0134733915
135	0xbe17693e	-0.1478624
136	0x3d65529a	0.055986978
137	0xbeb6577e	-0.35613626
138	0x3eb3c8b8	0.35114074
139	0xbcd85574	-0.026407935
140	0xbdc38d8f	-0.095484845
141	0x3e44ea68	0.19230044
142	0x3e5b20a5	0.21399172
143	0x3e27b761	0.16378547
144	0xbebf7ec8	-0.37401414
145	0x3b081b2c	0.0020768149
146	0x3ed07b8d	0.40719262
147	0xbe530bea	-0.20610014
148	0xbc1f1958	-0.009710632
149	0xbd3f599e	-0.046716325
150	0xbc8974dc	-0.016779356
151	0xbe67aa81	-0.22623636
152	0xbd426945	-0.047463674
153	0xbe1d0aa4	-0.1533609
154	0xbc1092da	-0.008824075
155	0xbbbbb256	-0.0057280464
156	0xbe469754	-0.19393665
157	0x3e025609	0.12728132
158	0xbccc120b	-0.024910947
159	0x3edc71ef	0.43055674
160	0x3d0ff399	0.035144422
161	0xbdb16a2f	-0.08662831
162	0xbd83119d	-0.06399844
163	0xbdfa29f0	-0.1221503
164	0xbc4a9d5d	-0.01236662
165	0xbe34aa66	-0.17643127
166	0xbb7b89d6	-0.0038381717
167	0xbea9e511	-0.33182576
168	0x3e4b14eb	0.19832198
169	0xbd7b4ffa	-0.06135557
170	0xbdd81e78	-0.105526865
171	0x3e4c039b	0.1992325
172	0x3ea4d35d	0.32192507
173	0x3e390a7d	0.18070407
174	0xbea672e5	-0.32509533
175	0x3cea11cf	0.028572945
176	0x3eb64df9	0.35606363
177	0xbea3ac2c	-0.31967294
178	0xbb80e918	-0.003934037
179	0xbd6d1f0d	-0.05789094
180	0x39c4b71e	0.00037520466
181	0x3c903f92	0.017608438
182	0xbc5346de	-0.012895314
183	0xbc2bc68a	-0.010484347
184	0xba930d23	-0.0011219125
185	0x3c3a6de3	0.011378738
186	0x3b5e2601	0.0033897164
187	0x3ba31930	0.004977368
188	0x25c26fd6	3.3729418e-16
189	0xbccb9bdd	-0.024854595
190	0x3b6cb5b5	0.0036119048
191	0xbbc00ee6	-0.005861151
192	0x3c0a537f	0.008442759
193	0x3a1f36f8	0.00060735596
194	0x3bfdea8b	0.007748907
195	0x3c1ac20f	0.009445681
196	0x3cb66f5e	0.0222699
197	0xbb1bf5cc	-0.002379763
198	0xbafd17ee	-0.00193095
199	0xbabd7686	-0.0014454878
200	0x3bf98e7a	0.0076158615
201	0xbc8655fb	-0.01639842
202	0xbab11174	-0.001350923
203	0x3aad6bf2	0.0013231023
204	0x3b8c2d22	0.004277841
205	0xbb892746	-0.00418559
206	0xbbc427b0	-0.0059861764
207	0x3bc4efe9	0.006010045
208	0x3b1053be	0.002202257
209	0x3abc5270	0.001436783
210	0xbb9e8a56	-0.0048382683
211	0x3d230219	0.039796922
212	0xbc59af75	-0.013286461
213	0x3c79bcdb	0.015242781
214	0xbbfa730a	-0.0076431083
215	0x3c6b93e7	0.014378524
216	0x3c59bd0b	0.0132897
217	0xba18791d	-0.0005816387
218	0x23fa516a	2.7139535e-17
219	0xbc4bfdb3	-0.012450623
220	0x3a6dc7e3	0.0009070618
221	0xbaf7af4a	-0.0018896845
222	0xbb852f47	-0.004064474
223	0x3be9f8d1	0.007140257
224	0x3c36db03	0.011160615
225	0x3bcf9cd3	0.0063358336
226	0x3c93d21f	0.01804453
227	0xbc182d01	-0.0092880735
228	0x3b934f3a	0.0044955285
229	0xbbac8044	-0.005264314
230	0xbcca26cb	-0.024676701
231	0xbd0098e5	-0.03139581
232	0x3a88e0fc	0.0010443027
233	0x3bab016f	0.0052186768
234	0x3af27a66	0.0018499612
235	0x3cafa4c9	0.02144088
236	0xbc75ada7	-0.014995015
237	0x3c647de2	0.013946028
238	0x3c2acf10	0.010425344
239	0xbc99ec44	-0.018789418
240	0x9885bc59	-3.4569877e-24
241	0x398cc9eb	0.00026853321
242	0xb6d75ccd	-6.4183027e-06
243	0xb5243761	-6.117535e-07
244	0x0010ac57	1.531192e-39
245	0x2a150dee	1.3238691e-13
246	0xb726eb56	-9.949164e-06
247	0x320e1467	8.270127e-09
248	0x8003bdd4	-3.43604e-40
249	0xb98dff95	-0.0002708404
250	0x369387ac	4.3967357e-06
251	0xaa0ec7e6	-1.2681487e-13
252	0x325f8256	1.3009943e-08
253	0x2e41fb0d	4.4106097e-11
254	0x23b356c3	1.9443964e-17
255	0x30803fef	9.331397e-10

layers.0.conv.msg_mlp.0.bias f4 [30]
0	0xbc2076c9	-0.009793946
1	0xbd0b9a56	-0.034082733
2	0xbd2ad76b	-0.041709345
3	0xbe267c6d	-0.16258402
4	0x3e80014a	0.25000983
5	0x3dad09b5	0.08449117
6	0xbcfc80ad	-0.030823076
7	0xbcd2b57b	-0.025721302
8	0xb78dd373	-1.6906974e-05
9	0x3e5dffb2	0.21679571
10	0xbcdacc37	-0.026708705
11	0x3da00fd4	0.07815519
12	0x3db60531	0.08887709
13	0x3ce3119e	0.027718361
14	0xbcf87eb0	-0.030333847
15	0xba89cd53	-0.0010513462
16	0xbd0ad9c5	-0.033899087
17	0x3e24be34	0.16088182
18	0xb8565719	-5.1102692e-05
19	0xbd611f44	-0.054961458
20	0xb838aa3c	-4.402756e-05
21	0x3d3bde4b	0.045866292
22	0xbd36ca05	-0.044626255
23	0xbb0c243c	-0.0021383902
24	0x3e010aa8	0.12601721
25	0x3e3b63f3	0.18299846
26	0xbcfab466	-0.030603599
27	0xbc666cd1	-0.01406403
28	0xbbb71626	-0.005587357
29	0xbba898ce	-0.005145169

layers.0.conv.msg_mlp.2.weight f4 [30, 30]
0	0x3bbccd16	0.005761753
1	0x3c8d90b1	0.017280908
2	0x3c7dd196	0.015491864
3	0x3e2d0fa6	0.169005
4	0x3e920e91	0.28526738
5	0x3d844b46	0.0645967
6	0xbc11c643	-0.008897367
7	0xba48ffc3	-0.0007667506
8	0x2206cdf4	1.8269417e-18
9	0x3d549014	0.051895216
10	0x3e5c42a4	0.21509796
11	0xbd8fa746	-0.07014327
12	0xbd0c4fd7	-0.03425583
13	0xbe5145bb	-0.20436756
14	0xbb26bfe5	-0.0025443968
15	0xb0cb4020	-1.4788419e-09
16	0x3bb3a56d	0.005482367
17	0x3dda2a81	0.10652638
18	0xa83f32d6	-1.0613653e-14
19	0xbba4760c	-0.005018955
20	0x020669fc	9.875181e-38
21	0x3df54b07	0.11977201
22	0x3c0135c3	0.007886353
23	0x3e43ce8e	0.19121763
24	0xbddb387c	-0.10704133
25	0x3d9bc2ac	0.0760549
26	0xbc4f7a31	-0.01266341
27	0xbcc7d343	-0.02439273
28	0xb9cd74ef	-0.0003918777
29	0xb98f5fe6	-0.00027346535
30	0xb9e9b796	-0.00044578005
31	0x3c22496c	0.0099052
32	0x3d9658b3	0.07341137
33	0x3e0d5bef	0.13804601
34	0x3d3441cd	0.044008065
35	0x3d967205	0.07345966
36	0xbbac5143	-0.0052587106
37	0x3b3432f4	0.002749619
38	0xb7a65ebd	-1.9832858e-05
39	0x3dd0f3e0	0.102027655
40	0x3e23f73b	0.1601228
41	0x3d73d42e	0.059528522
42	0x3e26f557	0.16304527
43	0xbe185807	-0.1487733
44	0x3c97ad0e	0.018515136
45	0xb91d1346	-0.00014979867
46	0xbc0e5fec	-0.008689862
47	0x3e06d079	0.13165464
48	0x8a76fc8d	-1.1891969e-32
49	0xbbd2cf7a	-0.0064334245
50	0x23f3c5a8	2.6429823e-17
51	0xbdbc7afe	-0.092031464
52	0x3b5ef9cc	0.0034023402
53	0x3b39fa61	0.0028377997
54	0x3dd860ed	0.10565362
55	0x3df9720c	0.12179956
56	0x3c17fa43	0.009275976
57	0x3a1b82cc	0.0005932271
58	0xbb8025f5	-0.003910775
59	0x3514ea18	5.547495e-07
60	0xbb09a436	-0.0021002418
61	0x3cb106d1	0.021609696
62	0x3bad75d7	0.0052935886
63	0x3ca30985	0.019902
64	0x3e09d841	0.134614
65	0x3e889901	0.26679233
66	0xbc093c10	-0.008376136
67	0x3d04dddc	0.032438144
68	0xb8051aeb	-3.173474e-05
69	0x3e53eeb7	0.20696531
70	0xba01a35b	-0.00049453013
71	0x3ebe81d6	0.37208432
72	0xbe85dc57	-0.26144668
73	0x3e5e870f	0.21731208
74	0x3c7426b1	0.014901803
75	0x38995df4	7.313109e-05
76	0xbb9c67fc	-0.004773138
77	0x3ebc2546	0.36747187
78	0x34cb8f3b	3.791591e-07
79	0xbc70addc	-0.014689889
80	0xad625454	-1.2865337e-11
81	0x3d3da1ae	0.046296768
82	0xbc6b0f59	-0.014346921
83	0x3d141735	0.036154944
84	0xbe14981c	-0.1451115
85	0x3d98ec8a	0.07466991
86	0xbc51ac59	-0.012797439
87	0xbbafbcdd	-0.0053630904
88	0x3b228274	0.0024796994
89	0xba005584	-0.00048955553
90	0xba7bed2d	-0.0009610232
91	0xbc74f9a9	-0.014952102
92	0x3bf5614f	0.0074884067
93	0x3d3baa21	0.045816544
94	0x3dcab883	0.09898474
95	0x3e26422a	0.16236177
96	0xbc163cfc	-0.009169813
97	0x3d2e8132	0.04260368
98	0xab944801	-1.0536018e-12
99	0x3e84bc77	0.25925037
100	0xbcb9660b	-0.022631666
101	0x3ae0a9ba	0.0017140426
102	0xbf0d8e98	-0.55295706
103	0x3eab2c81	0.3343239
104	0x3a2dcc6d	0.0006629888
105	0x3536537b	6.7921764e-07
106	0xbb3c4901	-0.0028730037
107	0x3e3ee475	0.18641837
108	0xa1d2fe18	-1.4297412e-18
109	0xbb9ea51a	-0.004841459
110	0x0032d846	4.669359e-39
111	0x3e3fa1d1	0.18714072
112	0xbc24a4f2	-0.010049092
113	0x3dde7314	0.10861793
114	0x3e151f23	0.14562659
115	0x3d914117	0.07092493
116	0xbd5e146a	-0.054218687
117	0xbc78e247	-0.0151906675
118	0x3612b4c0	2.1860906e-06
119	0x371f3ae3	9.490849e-06
120	0xba0d20dc	-0.00053836196
121	0xbd3a898c	-0.04554133
122	0x3d072b9c	0.033000574
123	0x3de5e9d0	0.11226237
124	0x3dca620b	0.098819815
125	0xbd02d480	-0.031940937
126	0x3ac521bc	0.0015039961
127	0xbd1f427c	-0.038881764
128	0x1b0555a9	1.102918e-22
129	0xbd792baa	-0.060832657
130	0xbb37dfcb	-0.0028056975
131	0xbde69cbf	-0.11260366
132	0x3e8f6f7f	0.28014752
133	0xbe5c96d8	-0.21541917
134	0x36a6a7a1	4.9667e-06
135	0x9e991a0d	-1.621028e-20
136	0xbb3349e1	-0.0027357268
137	0x3a009a3a	0.0004905794
138	0x09086c63	1.6421368e-33
139	0xbb07ca60	-0.002071999
140	0x00165dcd	2.05403e-39
141	0xbd60db29	-0.054896507
142	0xbc30a183	-0.010780695
143	0x3dbe586c	0.09294209
144	0xbdd02bb8	-0.10164589
145	0xbc017047	-0.007900304
146	0x3ccd1795	0.025035659
147	0x3b97b716	0.00462998
148	0xb28c0ba8	-1.6303446e-08
149	0xb3550e58	-4.9605973e-08
150	0x3996beb5	0.00028752317
151	0x3bad28aa	0.0052843885
152	0xbc0a071d	-0.0084245475
153	0x3b04c845	0.0020260972
154	0x3ad0d4d6	0.0015932571
155	0x3bce3a61	0.0062935804
156	0xbbd51c5b	-0.0065036244
157	0x3aec6fab	0.0018038651
158	0x9297e074	-9.584772e-28
159	0x3d920195	0.07129208
160	0x3d90e95c	0.0707576
161	0x3e33f8bd	0.17575355
162	0xbe54911b	-0.20758478
163	0x3d7842ee	0.060610704
164	0xbab2a2ab	-0.0013628801
165	0x32d90c67	2.5267765e-08
166	0xb98cb8f3	-0.0002684068
167	0x3e909dfe	0.28245538
168	0x8b06d24b	-2.5965668e-32
169	0xbaca212c	-0.0015421263
170	0x00001c10	1.0067e-41
171	0xbe12bfe1	-0.14331008
172	0x3d92f8f0	0.07176387
173	0x3e3d8f55	0.18511708
174	0xbe445895	-0.19174416
175	0x3da530dd	0.080659606
176	0x3cb89337	0.022531135
177	0xb8d53109	-0.00010165765
178	0xb903caf3	-0.00012568738
179	0x369947ca	4.5681127e-06
180	0xbb0a3250	-0.0021087117
181	0xbcc66107	-0.024216188
182	0xbb1b14b6	-0.0023663468
183	0xbd7ee4c1	-0.062229875
184	0x3ebe951b	0.37223133
185	0x3ea8da09	0.32978848
186	0xbc8ff49f	-0.0175727
187	0x3cba8c35	0.022771934
188	0xb819747d	-3.658653e-05
189	0x3de7d411	0.11319745
190	0x3e62aaf0	0.2213552
191	0x3e93eef4	0.28893244
192	0xbe85f4c2	-0.26163298
193	0x3dfee8fc	0.12446782
194	0x3c6368a9	0.013879933
195	0xba83d375	-0.0010057526
196	0x3c71f00e	0.014766706
197	0x3eb8f6c5	0.3612577
198	0x2f42972b	1.7697903e-10
199	0xbc675a5b	-0.0141206635
200	0x2b9bc338	1.1067596e-12
201	0x3e046c44	0.12931925
202	0xbd013ec5	-0.031554002
203	0x3de078b0	0.10960519
204	0xbec29567	-0.3800461
205	0x3e8f80b7	0.2802789
206	0xb990c22a	-0.00027610484
207	0xbbb8b76b	-0.0056370995
208	0xba907d2d	-0.0011023633
209	0x3aa7594e	0.0012767704
210	0x3bc53b13	0.006019005
211	0xbd5c0c10	-0.05372244
212	0x3d120639	0.035650466
213	0x3e323ca4	0.17405945
214	0x3e76b793	0.24093466
215	0x3dfec963	0.12440755
216	0xbccc3fcf	-0.02493277
217	0x3bd144b8	0.0063863657
218	0x34dcac94	4.110376e-07
219	0x3e3b3bb1	0.18284489
220	0x3e381b56	0.17979178
221	0xbe034dd9	-0.12822665
222	0xbdf88527	-0.12134772
223	0xbe80a1d9	-0.2512348
224	0xbc79296a	-0.015207628
225	0xba0a1167	-0.00052668754
226	0xbc016c4b	-0.007899354
227	0xbd82f8e0	-0.063951254
228	0xb2476f14	-1.1608581e-08
229	0x3bbc4b46	0.005746278
230	0x2be0d867	1.5976221e-12
231	0xbd7a744c	-0.061146066
232	0xbc0f419e	-0.008743672
233	0x3e4ef650	0.20211148
234	0xbf19ef5d	-0.60130864
235	0x3d0e9977	0.034814324
236	0x3ca8ea31	0.020619484
237	0x3b9f3f59	0.0048598466
238	0xba1ecd64	-0.0006057827
239	0x3a4ae39f	0.00077396067
240	0xbabd6400	-0.0014449358
241	0xbb649f07	-0.0034884827
242	0xbdbeddda	-0.093196586
243	0x3c8d2846	0.017231118
244	0xbd9d24bc	-0.07673022
245	0x3d7070bf	0.058701273
246	0x3c41b812	0.011823671
247	0x3b4fa88e	0.003168616
248	0xa3a4ed70	-1.7881474e-17
249	0xbd5042d4	-0.050844982
250	0xbd7cd2ed	-0.061724592
251	0x3cdfe471	0.027330609
252	0xbdef4d60	-0.1168468
253	0xbe3543fc	-0.17701715
254	0x389778a7	7.222714e-05
255	0xa8d25437	-2.3351206e-14

layers.0.conv.msg_mlp.2.bias f4 [30]
0	0x3dd6bb79	0.10484976
1	0x3e0f24eb	0.13978927
2	0x3e48324e	0.1955044
3	0xbe6610b1	-0.22467305
4	0x3e4b2977	0.19840036
5	0x3d20ea3e	0.03928589
6	0xbe789ae4	-0.24277836
7	0xbe99fd93	-0.30076274
8	0x3d382bf2	0.044963785
9	0x3e61bc2c	0.22044438
10	0x3de063a7	0.10956507
11	0xbdd31fc5	-0.10308794
12	0x3e159553	0.14607744
13	0xbbaf3ec1	-0.005348057
14	0xbe26cac3	-0.16288285
15	0xbd479fc9	-0.048736367
16	0x3d269383	0.040668022
17	0xbb0521c2	-0.002031431
18	0x3e098a40	0.13431644
19	0x3e382ef9	0.17986669
20	0xbb15f4ae	-0.0022881436
21	0xbe312377	-0.17298685
22	0xbe2b3034	-0.16717607
23	0xbd3335cf	-0.043752488
24	0xbcb06f85	-0.021537552
25	0x3e61490c	0.22000521
26	0xbe71e9be	-0.23624322
27	0x3e4f7850	0.2026074
28	0x3d964d94	0.073390156
29	0xbdc4f23a	-0.096165136

layers.0.mlp.norm.weight f4 [30]
0	0x3f00644f	0.5015306
1	0x3fa1274f	1.2590121
2	0x3d4ce64b	0.050024312
3	0x3ec9febf	0.39452168
4	0x3c39fce5	0.011351799
5	0x3ee46574	0.44608653
6	0x3f63631d	0.8882311
7	0x3eca77e6	0.395446
8	0x3bea167e	0.0071437946
9	0x3f785f3d	0.9702032
10	0x3d1ceb2c	0.038310215
11	0x3f0f1f63	0.5590727
12	0x3c3cb34b	0.011517356
13	0xbd2cefda	-0.042220928
14	0x3ee27176	0.4422719
15	0x3d6ed676	0.058309995
16	0xbc047380	-0.008084178
17	0x3fa5f520	1.2965431
18	0x3f528ac9	0.8224302
19	0x3ebc3712	0.36760765
20	0x3ccce17f	0.025009869
21	0x3f94a800	1.161377
22	0x3f8f04a7	1.1173295
23	0x3f92e257	1.1475323
24	0x3f6a3953	0.9149372
25	0x3ec80f52	0.39074188
26	0x3f957fae	1.167959
27	0x3e12fb2e	0.1435363
28	0x3e6db08d	0.2321188
29	0x3c7896df	0.015172689

layers.0.mlp.norm.bias f4 [30]
0	0x3d334175	0.043763597
1	0xbcdcb2b1	-0.026940675
2	0xbd928493	-0.07154193
3	0xbe0e9d6c	-0.13927239
4	0xbcb4780d	-0.0220299
5	0x3cbdcac9	0.023167985
6	0xbdbff8a9	-0.093736
7	0x3eaa7727	0.3329403
8	0xbb9fff29	-0.0048827124
9	0xbdc4e429	-0.096138306
10	0xbc461b79	-0.012091511
11	0x3e1d024f	0.15332912
12	0xbc8a68f3	-0.016895747
13	0xbc89fc3a	-0.016843904
14	0xbe1a918f	-0.15094589
15	0x3df69cf0	0.12041652
16	0x3c326b6e	0.010889871
17	0xbc7b1f92	-0.015327351
18	0xbcf84af5	-0.03030918
19	0xbbca6560	-0.0061766356
20	0xbb1a036d	-0.0023500577
21	0x3cb63320	0.022241175
22	0x3d9ba5e2	0.07599999
23	0x3de1f50b	0.11033066
24	0x3e17bcd7	0.1481813
25	0xbd47ae86	-0.048750423
26	0x3dd0a242	0.10187198
27	0xbd9203e7	-0.071296506
28	0x3dd860f7	0.105653696
29	0xbb26a08a	-0.0025425279

layers.0.mlp.mlp.0.weight f4 [48, 30]
0	0xbcb1160c	-0.021616958
1	0xbc882d5d	-0.016623193
2	0xbc35fe0c	-0.011107933
3	0xbbe0a865	-0.0068560117
4	0xba6272d8	-0.0008638329
5	0xbc65ac47	-0.014018125
6	0xbce8b853	-0.028408205
7	0xbc9de7f5	-0.019275645
8	0xbb2b7228	-0.0026160572
9	0x3ceeb693	0.029139793
10	0xbbb51ff7	-0.005527492
11	0x3c9c3abf	0.019070981
12	0xbb86d4f0	-0.0041147396
13	0xbb46d89f	-0.0030341519
14	0xbcbc6521	-0.02299744
15	0x3c0ce94f	0.008600547
16	0x3a88e1de	0.001044329
17	0x3ca40073	0.020019745
18	0xbb872b69	-0.004125048
19	0x3c1a58c5	0.009420578
20	0x3b2e98f0	0.002664145
21	0x3c9aa37d	0.018876785
22	0x3c8b95b7	0.017039163
23	0x3b92637f	0.0044674273
24	0x3c7266cc	0.0147950165
25	0x3c9d9c55	0.019239584
26	0xbcbf3ac7	-0.023343457
27	0x3c568668	0.013093568
28	0x3c85ca84	0.016331919
29	0xbb052b1c	-0.0020319885
30	0xbd5d4e55	-0.05402978
31	0xbc026adc	-0.007960048
32	0x3cf4d937	0.029888732
33	0x3d817fb4	0.063231856
34	0x3c9b3e64	0.018950649
35	0xbc83fa79	-0.016110646
36	0x3db087d2	0.08619656
37	0xbc08e873	-0.008356201
38	0xbc691032	-0.014225053
39	0xbcf80e60	-0.030280292
40	0x3c38fe58	0.011291109
41	0xbc6fe1ed	-0.014641267
42	0xbbf14223	-0.0073626204
43	0xbbe5e75d	-0.007016106
44	0xbb475b40	-0.003041938
45	0xbd02ddd4	-0.031949833
46	0x3a9b4f0e	0.0011849122
47	0xbc9db1dc	-0.019249849
48	0xbcd896ca	-0.02643909
49	0x3b48713a	0.0030585066
50	0xbd0edaaf	-0.03487652
51	0x3d9fc9bb	0.07802149
52	0xbd8da94c	-0.069170564
53	0xbcc399b2	-0.023876999
54	0x3d9a7b69	0.0754307
55	0xbc1213b2	-0.008915829
56	0xbd9db867	-0.077011876
57	0xbbd03c3a	-0.006354836
58	0xbbf19e1f	-0.007373586
59	0x3c29dba0	0.010367304
60	0xbda9b2e5	-0.082860745
61	0xbd85cbcb	-0.06533011
62	0x3ce9e065	0.028549382
63	0x3cc09134	0.023506738
64	0x3b8667b4	0.004101718
65	0x3bc7ab1c	0.006093396
66	0x3b26851b	0.0025408927
67	0xbd235e4b	-0.039884847
68	0xbc6f25e0	-0.014596432
69	0xbc1637e5	-0.0091686
70	0xbbcedba5	-0.0063128048
71	0xbc1b82d1	-0.009491638
72	0xbbcfe94a	-0.006344949
73	0xbbe0b070	-0.0068569705
74	0x3ca0e520	0.019640505
75	0xbd0f9714	-0.03505619
76	0x3bbf9425	0.0058465176
77	0xbd0961b5	-0.033540446
78	0x3ce5eed8	0.028067991
79	0xbc2e5dff	-0.010642528
80	0xbbebe7f1	-0.0071992804
81	0x3d688cdd	0.056774963
82	0x3d0bb215	0.03410538
83	0x3d3390c3	0.043839227
84	0xbc8883cf	-0.016664414
85	0xbbc4c183	-0.0060045137
86	0xbbdea586	-0.0067946343
87	0xba8dd801	-0.001082182
88	0xbcd766a7	-0.026294066
89	0xbb44d2f0	-0.0030032955
90	0xbdc98143	-0.09839108
91	0x3b04c596	0.0020259372
92	0x3cdf1686	0.02723242
93	0x3d498c20	0.0492059
94	0xbc842150	-0.016129166
95	0xbd61f43b	-0.055164557
96	0xbd849268	-0.06473237
97	0xbdf90379	-0.121588655
98	0xbc0a30a2	-0.0084344465
99	0x3de23797	0.11045759
100	0x3a94551d	0.001131687
101	0xbd623830	-0.055229366
102	0xbc62ecef	-0.013850435
103	0xbb81bbab	-0.0039591393
104	0x3b54063d	0.003235235
105	0xbc8ee806	-0.017444622
106	0x3ad539ae	0.00162678
107	0x3e05cd11	0.13066508
108	0xbda070b9	-0.07834
109	0x3b8184c9	0.003952597
110	0xbc605de1	-0.0136942575
111	0x3e050c73	0.1299303
112	0x3b7a985a	0.0038237781
113	0xbd823ecc	-0.06359634
114	0xbcc8db32	-0.024518583
115	0x3c00500d	0.007831586
116	0xbe0303c8	-0.12794411
117	0x3afcc298	0.0019284068
118	0x3bc7aa59	0.006093305
119	0xbbf4d8d1	-0.0074721356
120	0xbe108d2f	-0.14116357
121	0xbeee3e53	-0.46531925
122	0xbc1f28b6	-0.009714296
123	0x3e01d125	0.12677439
124	0xbbb6fd81	-0.0055844192
125	0x3c9024c2	0.017595652
126	0xbec05366	-0.37563628
127	0xbe09ec0c	-0.13468951
128	0xbaaa2236	-0.0012980166
129	0x3ec539e2	0.38520724
130	0x3a9c3407	0.0011917361
131	0xbdab5cc1	-0.08367301
132	0xbb88a427	-0.004169959
133	0xbb7bb5e0	-0.0038407966
134	0x3e0bdf3c	0.13659376
135	0xbc7b0986	-0.015322095
136	0x3c80105c	0.0156328
137	0xbe732a67	-0.23746644
138	0x3e27d8d7	0.16391312
139	0xbdeac0c2	-0.11462547
140	0x3ae9d094	0.001783865
141	0x3ef11efc	0.47093952
142	0x3f081ffe	0.53173816
143	0x3ef4fff6	0.47851533
144	0xbeabcb6e	-0.33553642
145	0x3d3cf597	0.04613265
146	0x3e7bc406	0.24586496
147	0x3bd68bd2	0.0065474296
148	0xbae1b0ae	-0.0017218792
149	0xbc2f0ebc	-0.010684665
150	0x3c6f4d90	0.014605895
151	0xbca16059	-0.019699262
152	0xbc9159ca	-0.01774301
153	0xbb9d30b9	-0.004797068
154	0x3c2fc036	0.010726979
155	0xbcb360a7	-0.021896673
156	0x3ce44d6b	0.027868947
157	0x3d285a03	0.041101467
158	0x3a83d8dc	0.0010059136
159	0xbc847889	-0.016170757
160	0x3c065736	0.008199504
161	0x3c43e08e	0.0119553935
162	0xbae9f4c1	-0.0017849432
163	0x3c0fc74e	0.008775545
164	0xbcbf087b	-0.023319473
165	0x3c9fcc55	0.019506613
166	0x3ad70f18	0.0016407697
167	0xbcd0dee7	-0.025496913
168	0xbc9e74d4	-0.019342817
169	0x3d2f4d13	0.042798113
170	0x3b19a110	0.0023441948
171	0xbc3bb259	-0.011456096
172	0xbb4726f6	-0.0030388213
173	0xbbeda68a	-0.007252519
174	0x3cb07792	0.02154139
175	0x3d03e43d	0.032200087
176	0xbac3d927	-0.0014942036
177	0xbc0f2055	-0.008735736
178	0x3c72c667	0.014817811
179	0x3b00476b	0.0019573818
180	0x3c9fb1d0	0.019493967
181	0xbc29e9bf	-0.010370671
182	0xbcf15f28	-0.02946432
183	0xbb00469f	-0.0019573343
184	0x3ccc517e	0.024941202
185	0xbc6efae9	-0.014586189
186	0xbd7da9fc	-0.061929688
187	0x3cdaa597	0.026690288
188	0x3b66fee1	0.0035247135
189	0x3cafc032	0.02145395
190	0x3cb7be75	0.022429684
191	0x3cf63546	0.0300547
192	0x3c842365	0.016130159
193	0x3c7d6b96	0.015467545
194	0xbd03f54a	-0.032216348
195	0x3cab616f	0.020920483
196	0xbbf77f4b	-0.0075530163
197	0xbb981d8d	-0.0046421946
198	0x3c6db934	0.014509488
199	0x3bcaba05	0.006186726
200	0xbb5a4576	-0.0033305562
201	0x3c9ad1f1	0.018898936
202	0x3c5cc606	0.013474947
203	0xbc2af7f5	-0.010435094
204	0xbc27a2c0	-0.010231674
205	0x3c62080c	0.013795864
206	0x3d292256	0.04129251
207	0x3c3bdfcf	0.011466934
208	0x3b5fe062	0.0034160842
209	0x3c31de7d	0.010856268
210	0x3c4cd7ba	0.012502605
211	0xbabebf1b	-0.0014552803
212	0xbc8487e3	-0.016178077
213	0xbcee666e	-0.029101577
214	0x3b2a35e5	0.0025972065
215	0x3c020ba6	0.0079373475
216	0xbc977339	-0.01848756
217	0x3ae7d485	0.0017687237
218	0x3c631d06	0.0138619
219	0xba32b514	-0.0006817144
220	0x3c0e0263	0.008667561
221	0x3b697119	0.003562039
222	0x3c4ddca3	0.012564811
223	0x3c8dfd5e	0.017332729
224	0xbc9281dc	-0.017884187
225	0x3c9059b3	0.017620897
226	0xbbbb4e33	-0.005716109
227	0xbd253295	-0.040331442
228	0xbc0c9ffd	-0.008583066
229	0xbc2b670e	-0.010461582
230	0x3c0e7bcd	0.008696509
231	0x3cb4b737	0.02206002
232	0x3c719baa	0.014746586
233	0xbb44fb1f	-0.0030056906
234	0xbc9a3a06	-0.018826496
235	0x3c8afc95	0.016966144
236	0x3cc87338	0.024469003
237	0x3bfd3179	0.007726845
238	0x3c3f9649	0.011693546
239	0x3b0fc927	0.0021939964
240	0x3ca7ebf2	0.02049825
241	0xbc2b539e	-0.010456948
242	0xbcb5ff31	-0.022216411
243	0xbd4e3685	-0.050344963
244	0x3c79d568	0.015248634
245	0xbbf9033e	-0.0075992635
246	0x3b89fac1	0.0042108004
247	0x3cdbd146	0.026833188
248	0xbb74b78c	-0.0037340848
249	0xba8bf5d3	-0.001067812
250	0x3bec5c6a	0.007213165
251	0x3bfaa6da	0.007649285
252	0xb9c60841	-0.00037771653
253	0x3c334364	0.01094136
254	0xbcf4ea08	-0.029896751
255	0x3cbd2b4d	0.023091936

layers.0.mlp.mlp.0.bias f4 [48]
0	0xbcf9b522	-0.030481879
1	0xbcb35051	-0.021888884
2	0xbd9cb6a8	-0.076520264
3	0xbdae042e	-0.08496891
4	0xbdcee32b	-0.101019226
5	0x3b8a5977	0.004222091
6	0xbd6d0874	-0.05786939
7	0xbc6997aa	-0.014257351
8	0xbc2834d3	-0.0102665005
9	0xbc95ecd9	-0.018301414
10	0xbcb82d2a	-0.022482473
11	0x3c8e5861	0.017376127
12	0x3e36523c	0.17804807
13	0xbe19ee68	-0.15032351
14	0xbdcc560c	-0.0997735
15	0xbc6b6d58	-0.014369331
16	0x3bc62506	0.006046894
17	0xbd6e4715	-0.058173258
18	0x3e406dad	0.18791838
19	0xbc8021ca	-0.015641112
20	0x3cea25d5	0.028582493
21	0xbd933e77	-0.071896486
22	0xbda189a5	-0.07887582
23	0x3d18ddce	0.037320904
24	0xbdbf5f60	-0.09344363
25	0x3c67e834	0.014154483
26	0xbb093214	-0.002093439
27	0xbcb7f4b3	-0.022455549
28	0xbc0212aa	-0.00793902
29	0xbca801e0	-0.020508707
30	0x3bee41be	0.0072710207
31	0xbd12273c	-0.035681948
32	0xbbe5c46e	-0.0070119416
33	0xbd1b4161	-0.037904147
34	0xbc2c8dbb	-0.010531838
35	0xbc9bc13d	-0.019013042
36	0xbba552cf	-0.005045272
37	0xbd8cb51e	-0.06870483
38	0x3c1ffed4	0.009765346
39	0xbbf83536	-0.0075747026
40	0x3c90129d	0.017587
41	0xbdecceb0	-0.1156286
42	0x3c9d3430	0.019189924
43	0xbc9356f9	-0.017985808
44	0xbd67753a	-0.05650828
45	0x3e594e26	0.21221218
46	0xbca8411e	-0.020538863
47	0xbc56254d	-0.013070417

layers.0.mlp.mlp.3.weight f4 [30, 48]
0	0x3cae8e56	0.021308105
1	0x3c5c27c3	0.013437214
2	0x3d1f3945	0.038872976
3	0x3b5fe3fa	0.0034162984
4	0x3d3e47ee	0.046455316
5	0x3d414769	0.047187243
6	0xbb8b4009	-0.004249577
7	0x3c85f236	0.016350847
8	0x3d82b5e1	0.06382347
9	0x3d784e06	0.060621284
10	0x3ccba8ac	0.024860702
11	0x3e5d0b3a	0.21586314
12	0x3cca33de	0.024682935
13	0xbd7fcdf6	-0.06245228
14	0xbd1e923d	-0.038713682
15	0xbb3face4	-0.0029247338
16	0xbd25578c	-0.040366694
17	0xbbcdb1f3	-0.0062773167
18	0xbca15f44	-0.019698747
19	0x3d0be9e3	0.0341586
20	0xbc93e6a1	-0.018054308
21	0x3d47e379	0.04880092
22	0xbc56fd8e	-0.013121976
23	0x3e18a714	0.14907485
24	0x3d4a128f	0.049334105
25	0x3c957389	0.018243568
26	0x3d51776d	0.051139284
27	0xbd52b956	-0.05144628
28	0x3d1e7d51	0.03869373
29	0x3d1a6c4c	0.037700936
30	0xbccde168	-0.025131896
31	0xbd4b0310	-0.049563468
32	0x3d8eb9c3	0.06969025
33	0xbc4a8745	-0.012361352
34	0xbd76f1c6	-0.060289167
35	0x3df4c44c	0.11951503
36	0x3c9dd598	0.019266888
37	0x3d53e403	0.05173112
38	0x3d93a062	0.07208325
39	0xbc385dc3	-0.011252823
40	0x3c30c95b	0.010790194
41	0x3c636ace	0.013880445
42	0x3c068b2b	0.008211891
43	0xbbdfe6da	-0.0068329396
44	0x3c987ca7	0.018614126
45	0x3d730225	0.059328217
46	0xbb00e365	-0.0019666788
47	0xbc6df8cb	-0.014524649
48	0x3cb87539	0.022516834
49	0x3c908597	0.017641826
50	0xbda362f4	-0.07977858
51	0x3d19e538	0.037572116
52	0xbdd3f2e0	-0.10349059
53	0x3d36bffa	0.044616677
54	0x3b325d56	0.0027216277
55	0xbcf2f759	-0.02965896
56	0x3c476374	0.012169708
57	0xbd32fcd6	-0.043698154
58	0xbc9f77f4	-0.019466378
59	0x3e2e405a	0.17016736
60	0xbd5a99a6	-0.053369187
61	0xbde9fe95	-0.11425511
62	0xbc60c5ed	-0.013719064
63	0x3b3c517e	0.0028735097
64	0x3db22bbe	0.086997494
65	0x3bee9eb8	0.0072821043
66	0xbb5602f4	-0.0032655569
67	0x3bc9670d	0.006146318
68	0x3d90716c	0.070528835
69	0x3dc36cc0	0.09542227
70	0x3d51f779	0.0512614
71	0x3e76b977	0.24094187
72	0xbdbf18b5	-0.09330884
73	0xbd5073ce	-0.05089169
74	0x3d677a9c	0.056513414
75	0x3bf53bbe	0.0074839285
76	0x3d4fe439	0.05075476
77	0xbc8c90ae	-0.017158832
78	0xbcff4929	-0.031162815
79	0xbdd3cdc0	-0.10341978
80	0xbd973e64	-0.07384947
81	0xbbae0601	-0.0053107743
82	0x3d078461	0.03308523
83	0x3dffb5eb	0.1248587
84	0x3ce1bbc2	0.02755535
85	0xbd529190	-0.05140835
86	0x3e47c182	0.19507411
87	0xbd24de8e	-0.040251307
88	0xbdfabe8f	-0.122433774
89	0xbd7f481e	-0.062324636
90	0xbd6efa25	-0.058344025
91	0x3cfa0d24	0.030523844
92	0xbda82be7	-0.08211499
93	0xbdcdc35b	-0.10047027
94	0xbc06ebab	-0.008234899
95	0x3bf347a1	0.0074243103
96	0xbd054db0	-0.03254479
97	0xbc0ef8ee	-0.008726342
98	0xbccb0c99	-0.02478628
99	0x3cfb03c3	0.030641442
100	0xbd51de8c	-0.051237628
101	0x3b576bc7	0.0032870637
102	0x3b7ee2b7	0.0038892457
103	0x3cbf2057	0.02333085
104	0x3ce2add4	0.027670778
105	0xbd9bc807	-0.076065116
106	0xbbbd9d7b	-0.0057865954
107	0xbd93ab4a	-0.07210405
108	0xbb176811	-0.00231028
109	0xbd86b4a0	-0.0657742
110	0x3d9b6573	0.07587709
111	0x3cb2b218	0.021813437
112	0x3dd456b1	0.103680976
113	0x3d354b0d	0.044261027
114	0x3d2dc69b	0.042425733
115	0x3a2eddbe	0.00066706154
116	0xba879274	-0.0010343329
117	0x3cf3c286	0.029755842
118	0x3d8a2183	0.06744673
119	0x3d26c230	0.040712535
120	0xbd0d818f	-0.034547385
121	0xbd69cc93	-0.057079863
122	0xbcf9b5da	-0.030482221
123	0xbbe4ce6f	-0.0069826166
124	0x3d02a1be	0.03189253
125	0x3c055bbf	0.00813955
126	0xbc83c737	-0.016086204
127	0xbd8c3e2f	-0.06847798
128	0xbcef8753	-0.029239332
129	0xbb443d71	-0.0029943848
130	0x3d8401eb	0.06445678
131	0xbcc52f9c	-0.024070553
132	0x3ab6b91a	0.0013940663
133	0xbda3e73d	-0.080030896
134	0x3dcfcaff	0.1014614
135	0x3c043706	0.008069759
136	0xbd78616d	-0.060639787
137	0xbd2339ee	-0.039850168
138	0xbdb5820a	-0.088626936
139	0xbbc17690	-0.0059040263
140	0x3c3e50c1	0.011615933
141	0xbdc5eede	-0.09664701
142	0x3c849bd7	0.016187591
143	0x3d230aa1	0.03980506
144	0x3c9e320b	0.019310972
145	0xbd891b48	-0.066946566
146	0xbb6f4b4a	-0.0036513382
147	0xbc948bfc	-0.018133156
148	0x3ece527b	0.40297303
149	0x3d065158	0.03279242
150	0x3d89dc6e	0.06731497
151	0x3c422ba7	0.011851228
152	0x3beeb4db	0.0072847432
153	0x3dda3705	0.106550254
154	0x3d29aef7	0.041426625
155	0xbe008cd9	-0.12553729
156	0x3d8c3a9e	0.06847118
157	0x3e403d2b	0.18773334
158	0x3d5e75fd	0.05431174
159	0x3cc7742d	0.02434739
160	0x3b83d84c	0.0040235873
161	0x3c6f2b3b	0.014597709
162	0x3d3e752f	0.046498474
163	0x3d52c5be	0.051458113
164	0x3cdd66f9	0.02702664
165	0xbc183ecd	-0.009292317
166	0xbd100d50	-0.035168946
167	0xbd1e6f82	-0.03868056
168	0x3ee1249d	0.43973246
169	0x3dc71776	0.09721272
170	0xbcf494e8	-0.02985616
171	0xbdb9beb7	-0.09069579
172	0x3bebc373	0.00719493
173	0xbc440907	-0.011965043
174	0xbd66fad5	-0.056391556
175	0x3e4ddb15	0.20103104
176	0xbbb8e057	-0.005641978
177	0x3ac14e98	0.0014748154
178	0x3ce32ff0	0.02773282
179	0xbd714f4e	-0.05891352
180	0x3d55e0e8	0.05221644
181	0x3e1a4f3c	0.15069288
182	0xbd537ee2	-0.051634677
183	0x3c805e9d	0.015670115
184	0x3ebb4924	0.3657924
185	0x3e3281aa	0.17432275
186	0x3e013af6	0.12620148
187	0x3c5dcee0	0.013538092
188	0x3ba5089d	0.005036427
189	0x3efdc411	0.4956365
190	0xbd06d538	-0.032918185
191	0xbdbdf057	-0.09274357
192	0x3cc5a5a0	0.024126828
193	0x3d1eccd4	0.038769558
194	0xbc5a3544	-0.013318364
195	0x3ccf54dc	0.025309019
196	0xbe8e6835	-0.2781388
197	0xbc4db15c	-0.012554493
198	0xbd45526f	-0.048174318
199	0xbd4e7fb8	-0.05041477
200	0xbd50c425	-0.050968308
201	0x3dd4beff	0.10387992
202	0xbd3897a3	-0.045066487
203	0x3dd77975	0.10521213
204	0x3d347e9e	0.044066064
205	0x3cbb74d5	0.022882858
206	0x3e49f269	0.19721378
207	0xbd303a2e	-0.043024234
208	0x3e1a1ee2	0.15050843
209	0xbc3ea70e	-0.011636509
210	0x3de7c097	0.113160305
211	0xbc1bdb9d	-0.009512809
212	0x3d0f4074	0.034973577
213	0x3d81238b	0.063056074
214	0x3d9b5342	0.075842395
215	0x3d97a9ae	0.07405411
216	0xbe7d10be	-0.24713418
217	0xbd4625a3	-0.048375737
218	0x3cfb0e93	0.030646598
219	0x3d3e994e	0.04653292
220	0xbceab49d	-0.028650576
221	0xbce02a73	-0.027363991
222	0x3c737060	0.014858335
223	0x3e158989	0.14603247
224	0xbcf3b93e	-0.029751416
225	0xbb9bcca7	-0.004754621
226	0x3dd0f50b	0.10202988
227	0x3d96636c	0.07343182
228	0xbc5dee80	-0.013545632
229	0x3da6312b	0.08114847
230	0x3e274adc	0.1633715
231	0xbd228679	-0.039679024
232	0xbe89d526	-0.26920432
233	0xbe10e7c3	-0.1415091
234	0xbc8cf010	-0.017204314
235	0x3d0c601b	0.03427134
236	0xbcb5bab8	-0.022183761
237	0xbe465b69	-0.19370808
238	0xbcaf5490	-0.021402627
239	0x3ce61ac4	0.028088935
240	0x3b9f8093	0.004867622
241	0x3de42d56	0.1114146
242	0x3db444de	0.08802198
243	0x3cfd4e49	0.030921118
244	0xbd75ebc9	-0.060039315
245	0xbccaa401	-0.024736406
246	0xbd4de657	-0.050268497
247	0xbd3f513d	-0.046708334
248	0xbc8f249a	-0.017473508
249	0xbdee39a3	-0.11632087
250	0xbcc0ace5	-0.023519943
251	0x3ddc912b	0.10769876
252	0x3e810917	0.25202248
253	0xbe805d5f	-0.25071236
254	0x3e19be6e	0.1501405
255	0xbc1f9cd5	-0.0097419815

layers.0.mlp.mlp.3.bias f4 [30]
0	0xbdba8042	-0.091064945
1	0x3e4a4f99	0.19756927
2	0x3de22368	0.110419095
3	0xbe4fdb5c	-0.20298523
4	0x3e93c655	0.28862253
5	0xbddfddac	-0.109309524
6	0xbddbdea7	-0.10735827
7	0xbdeae95c	-0.11470291
8	0x3e12054a	0.1425983
9	0x3ce3480a	0.027744312
10	0x3c9921d5	0.01869289
11	0xbe1e5486	-0.1546193
12	0x3dac6106	0.08416943
13	0x3d1390d3	0.036026787
14	0x3c5a7fe5	0.0133361565
15	0xbdb8a69f	-0.090161555
16	0xbdbe8fc9	-0.093047686
17	0x3e75f656	0.24019751
18	0xbd731123	-0.059342515
19	0x3d33f870	0.0439381
20	0x3e42be89	0.19017996
21	0x3e003bb1	0.1252277
22	0xbe1cf732	-0.15328673
23	0xbe2be7b2	-0.16787603
24	0xbd52d7ab	-0.05147521
25	0x3d9af7c4	0.07566789
26	0xbe100f09	-0.14068235
27	0x3e6edf47	0.23327361
28	0xbd4b7b19	-0.049677942
29	0x3acc8b9f	0.0015605575

layers.1.conv.norm.weight f4 [30]
0	0x3e6efab2	0.2333782
1	0x3f6c1bda	0.9223
2	0x3ec9cc36	0.39413613
3	0x3f402287	0.75052685
4	0x3f3d4457	0.73932403
5	0x3f2c3df1	0.67282015
6	0x3f74bb8e	0.95598686
7	0x3f5753b1	0.8411208
8	0x3f56ca61	0.83902556
9	0x3f7cca00	0.9874573
10	0x3efab66f	0.4896731
11	0x3f16292e	0.58656585
12	0x3f4ffcaf	0.8124494
13	0x3c1ae1ff	0.009453296
14	0x3f6ec7b3	0.93273467
15	0x3f2037b6	0.6258501
16	0x3f3cbb41	0.73723227
17	0xbb8b4774	-0.0042504612
18	0x3f26be08	0.65133715
19	0x3f78e616	0.97226083
20	0x3f408c6c	0.75214267
21	0x3f48a2a3	0.78373164
22	0x3f717ce0	0.9433117
23	0x3eddb227	0.43299982
24	0x3ee7f7b5	0.45306173
25	0x3f8187bb	1.0119547
26	0x3e88bcb5	0.26706472
27	0x3f24c51f	0.6436328
28	0x3f0d1711	0.5511332
29	0x3f65f03c	0.89819694

layers.1.conv.norm.bias f4 [30]
0	0xbcc1de7e	-0.023665663
1	0x3ddf8f0d	0.10915957
2	0x3d824304	0.063604385
3	0xbe85ab00	-0.26107025
4	0x3e4b441c	0.198502
5	0xbd77f2b7	-0.060534205
6	0xbcb01118	-0.021492526
7	0xbdc5e2f9	-0.09662432
8	0x3be6bacc	0.007041311
9	0x3cf78139	0.030212985
10	0xbd4ffa7e	-0.050775997
11	0xbb5c262c	-0.0033592088
12	0x3db3df80	0.087828636
13	0xba033986	-0.0005005825
14	0xbd06a429	-0.0328714
15	0x3d6a8017	0.057251062
16	0xbe3641eb	-0.17798583
17	0x3a40c4a7	0.0007353522
18	0xbe6daa04	-0.23209387
19	0x3d24e8fc	0.040261254
20	0x3d88b404	0.0667496
21	0xbdb1576a	-0.08659251
22	0xbb56b787	-0.00327632
23	0xbd960fda	-0.07327242
24	0x3c1141c4	0.008865777
25	0x3dad63e8	0.08466321
26	0xbdaf39b5	-0.085559286
27	0x3e698dbe	0.22807977
28	0xbca597f3	-0.020214057
29	0x3cce0169	0.025147157

layers.1.conv.msg_mlp.0.weight f4 [30, 30]
0	0xbc20f35a	-0.0098236445
1	0xbecd7aad	-0.40132657
2	0xbe1838fd	-0.1486549
3	0x3e9672ed	0.29384556
4	0xbf101198	-0.56276846
5	0x3e3f93d1	0.18708731
6	0xbe0bb45a	-0.13643017
7	0x3e49ccfc	0.19707102
8	0xbdae1e91	-0.08501924
9	0x3e391b38	0.1807679
10	0x3decdcf8	0.11565584
11	0xbb1966e6	-0.002340728
12	0xbe37712a	-0.17914262
13	0x3cc0417e	0.02346873
14	0x3e78f872	0.24313524
15	0xbcb93c66	-0.022611808
16	0x3eb7866e	0.3584475
17	0xbcdacbb6	-0.026708465
18	0x3d6264e5	0.055272
19	0xbe73b3e0	-0.23799086
20	0xbe8fb00a	-0.28063995
21	0x3d2f70ce	0.04283219
22	0x3e7b570a	0.24544922
23	0x3e3e7932	0.1860092
24	0x3df8a6c2	0.121411815
25	0xbe76773b	-0.2406892
26	0x3e84eaf3	0.25960502
27	0xbeb4be34	-0.35301363
28	0xbc9ee7d8	-0.019397661
29	0xbd03319b	-0.03202973
30	0xbdeda630	-0.116039634
31	0xbee24c23	-0.44198713
32	0x3ddc295e	0.10750078
33	0x3e744f1f	0.23858307
34	0xbd95871f	-0.07301163
35	0xbe72e17c	-0.23718828
36	0xbe102efa	-0.1408042
37	0xbea318eb	-0.31854948
38	0xbe49105f	-0.19635151
39	0x3eb08e6a	0.34483653
40	0xbe813d74	-0.25242198
41	0xbdf3eb69	-0.11910135
42	0x3dfa1f6f	0.12213027
43	0xba8a4744	-0.0010549803
44	0x3e2d245d	0.16908403
45	0xbd45034d	-0.04809885
46	0x3ea7e33a	0.32790548
47	0xbb26ef27	-0.0025472136
48	0x3dee94f9	0.11649508
49	0x3e815321	0.25258735
50	0x3b5af3a6	0.0033409386
51	0x3eeda5c4	0.46415532
52	0x3eb7ac23	0.35873517
53	0x3e73e09b	0.23816149
54	0xbbb004d7	-0.0053716707
55	0x3eba0eaa	0.36339313
56	0xbd353f5d	-0.04424988
57	0xbea007b4	-0.31255877
58	0x3e52c167	0.2058159
59	0xbecc8250	-0.3994317
60	0xb5d88869	-1.6132955e-06
61	0xb9618580	-0.00021507405
62	0xb81e57b2	-3.7751808e-05
63	0x39d0eb3f	0.00039848124
64	0xbaacec07	-0.00131929
65	0xb68446b2	-3.9421366e-06
66	0x3a552e70	0.0008132225
67	0x3707e0a3	8.098929e-06
68	0x37a6b120	1.9871222e-05
69	0xb53b9648	-6.9881617e-07
70	0xb5c1401e	-1.4398281e-06
71	0x39785966	0.00023684427
72	0xbc103409	-0.008801469
73	0xb4668a7b	-2.1470798e-07
74	0xba17db46	-0.0005792867
75	0x3a6260da	0.0008635648
76	0xb588d165	-1.0193731e-06
77	0xb296f6a7	-1.7574463e-08
78	0xb905156d	-0.0001269185
79	0xb8c25894	-9.26714e-05
80	0x36da7877	6.5109302e-06
81	0x38da5580	0.00010410976
82	0x398a3531	0.00026361042
83	0x39e0d5ba	0.00042883848
84	0x3a7668e1	0.00093997834
85	0x36eb9798	7.0211936e-06
86	0xb4aafbe9	-3.1848256e-07
87	0xb67fcb71	-3.811638e-06
88	0xb80e6ed3	-3.395865e-05
89	0x365a9624	3.2571925e-06
90	0x3c9fe5fa	0.019518841
91	0xbc99f292	-0.018792424
92	0x3d14d124	0.036332265
93	0x3d6566c2	0.0560062
94	0xbd1caa18	-0.03824815
95	0x3d201c6e	0.039089613
96	0x3d160c03	0.03663255
97	0x3cafb347	0.02144779
98	0xbc12c593	-0.008958238
99	0xbd1c0d71	-0.038098756
100	0x3c8cc000	0.017181396
101	0xbd0e1932	-0.034691997
102	0x3cd6477a	0.02615713
103	0xbb17c78f	-0.0023159718
104	0x3d64d083	0.055862915
105	0xbd56bdf8	-0.052427262
106	0x3c64120b	0.013920317
107	0x3c31cf9f	0.010852723
108	0x3d8fbba5	0.07018212
109	0x3c9d1e86	0.019179594
110	0xbc997709	-0.018733518
111	0xbc8428ff	-0.01613283
112	0xbd38e3a2	-0.045138963
113	0xbd0a754a	-0.03380326
114	0xbd1601d3	-0.036622833
115	0xbd9c3d4b	-0.07628878
116	0x3d400de7	0.04688826
117	0x3ccdcccf	0.025122074
118	0xbd18b64f	-0.037283238
119	0x3d1e8f9c	0.038711175
120	0x32ec1702	2.7484479e-08
121	0xb926a23a	-0.00015891428
122	0x395a2663	0.000208044
123	0x3b99a474	0.004688794
124	0xbbf9a3cb	-0.0076184026
125	0x3bb23758	0.0054387264
126	0x3bfc7d89	0.0077053946
127	0x3c84ac3e	0.016195413
128	0xbbcac9e0	-0.006188616
129	0x3bb91c96	0.0056491597
130	0x3a7ea755	0.00097142655
131	0xba15d2ed	-0.00057153293
132	0xbbbac110	-0.0056992844
133	0x00115f6d	1.595436e-39
134	0x3b12ab22	0.0022379835
135	0xbacf1803	-0.0015800003
136	0x3ae3cf58	0.0017380519
137	0x000ee130	1.366479e-39
138	0x3ad3c14f	0.0016155633
139	0xbb5ed99d	-0.003400422
140	0xbb7a63c4	-0.0038206438
141	0x3b03c628	0.0020107124
142	0xbb8f67a9	-0.004376371
143	0x33ca1a6e	9.4111655e-08
144	0x39ed3bb8	0.00045248657
145	0xbc3709e8	-0.011171795
146	0x38ffb809	0.00012193627
147	0xbbdb7b95	-0.0066980817
148	0x3b280b19	0.002564138
149	0xbc1d1c66	-0.00958929
150	0x3c23097d	0.009950993
151	0xbb1f9f90	-0.0024356581
152	0xbd303a73	-0.04302449
153	0xb9967ee7	-0.0002870478
154	0xbb7f374a	-0.0038942867
155	0x3d824157	0.06360119
156	0xbcae8ea2	-0.021308247
157	0x3d55d2a1	0.052202825
158	0x3b0bace4	0.0021312768
159	0x3a64579d	0.0008710565
160	0x3bb42c55	0.005498449
161	0x3cf48257	0.029847307
162	0xbd79b000	-0.060958862
163	0x3af0b260	0.0018363707
164	0xbc8223bf	-0.015886186
165	0x3ce8a746	0.028400075
166	0x3ba04ecc	0.004892206
167	0xbb2cc579	-0.002636282
168	0xba95dd22	-0.00114337
169	0xbd7921d0	-0.06082326
170	0xba12328d	-0.00055769907
171	0x3aa824a2	0.00128283
172	0x3d63ef56	0.05564817
173	0x3d0de50b	0.03464226
174	0x3d040a83	0.032236587
175	0xbd119e60	-0.03555143
176	0x3c04eeee	0.008113606
177	0xbb761d15	-0.0037553955
178	0xbb2a7861	-0.0026011693
179	0x3d01f96b	0.031732004
180	0xbc3e6d67	-0.011622763
181	0xbcc10a08	-0.023564354
182	0xbcd26a97	-0.025685592
183	0x3ca2ad36	0.019857984
184	0xbcd2969d	-0.025706584
185	0xbc83fbf4	-0.016111352
186	0xbbe420b7	-0.0069619077
187	0x3c2ad920	0.010427743
188	0xbc30bf02	-0.010787727
189	0x3c2105a9	0.00982801
190	0x3cb4d802	0.022075657
191	0x3cc185af	0.023623316
192	0xbd38fca8	-0.045162827
193	0x37252917	9.844333e-06
194	0x3ca1a3e5	0.019731471
195	0xbc37f163	-0.011226985
196	0x3bdffa09	0.0068352264
197	0x3bb7ff8c	0.0056151804
198	0x3ca59cf1	0.020216437
199	0x3b189c33	0.0023286461
200	0xbc8f6a54	-0.017506756
201	0x3ca2677d	0.019824738
202	0xbd03d571	-0.032185975
203	0x3c884462	0.01663417
204	0x3caf4c8c	0.021398805
205	0xbcd0e7ac	-0.025501095
206	0x3c5eb43d	0.013592777
207	0x3c095654	0.008382399
208	0x3bf82ef4	0.0075739566
209	0x3c8f362b	0.017481884
210	0x3bf19c1e	0.007373347
211	0xbd4f0161	-0.050538424
212	0xbcc79904	-0.024364956
213	0x3c4d1387	0.012516863
214	0xbd2c9b31	-0.04214019
215	0x3cd976ca	0.0265459
216	0xbb53bdb5	-0.003230912
217	0x3d15f052	0.03660614
218	0x3bf2d481	0.0074105863
219	0xbd04cac6	-0.032419942
220	0x3cd91041	0.026497008
221	0xbaf16c0c	-0.0018419041
222	0xbcf52f0d	-0.029929662
223	0xb4264e69	-1.548848e-07
224	0x3c888a64	0.016667552
225	0xbc35a91f	-0.011087685
226	0x3cb92fb1	0.022605749
227	0x9bbf8551	-3.1684453e-22
228	0x3cd12230	0.025528997
229	0xbcb0f9ed	-0.021603549
230	0xbcf12d0d	-0.029440427
231	0x3d1acbaa	0.037791885
232	0x3c3e930b	0.011631737
233	0x3d0f08bd	0.034920443
234	0xbc072cc3	-0.008250418
235	0xbd3e04c6	-0.04639127
236	0x3c9c7cd2	0.019102488
237	0xbcba3dcb	-0.022734543
238	0xbcc96e69	-0.02458878
239	0x3b194c3e	0.002339139
240	0xbcfcd9b1	-0.030865522
241	0xbd403f09	-0.046935115
242	0x3c7a9d88	0.015296347
243	0x3d659ac8	0.056055814
244	0xbdc3101d	-0.09524558
245	0x3b3c0a38	0.0028692614
246	0xbc506ac0	-0.012720764
247	0x3c87ba70	0.016568393
248	0x3c9ec924	0.01938302
249	0xbc0c7855	-0.008573611
250	0x3cbe24fa	0.023210991
251	0xbbd8fb0c	-0.006621724
252	0xbb9e29fb	-0.004826782
253	0x38caa0da	9.6620715e-05
254	0x3c860786	0.01636101
255	0xbcc9356a	-0.024561603

layers.1.conv.msg_mlp.0.bias f4 [30]
0	0xbceb4c2c	-0.028722845
1	0x3ded2f43	0.1158128
2	0xbb6488bf	-0.0034871546
3	0xbd2068fe	-0.03916263
4	0xbc93c47c	-0.018038027
5	0xbca820f9	-0.020523535
6	0xbd216eb3	-0.03941221
7	0xbd6d7bfc	-0.05797957
8	0xbd991db5	-0.07476369
9	0xbdeee08d	-0.116639234
10	0xbd518d8b	-0.051160377
11	0x3dbc77a4	0.09202507
12	0xbe197dbd	-0.14989372
13	0xbd99df97	-0.075133495
14	0xb97a57c3	-0.00023874552
15	0x3dbd5bf0	0.09246051
16	0xbd2a5954	-0.041589096
17	0xbe89c819	-0.26910475
18	0xbd611ad8	-0.05495724
19	0xbc9ed3b5	-0.01938806
20	0xbd01fce1	-0.031735305
21	0xbc33b269	-0.010967829
22	0xbcd4cc57	-0.025976343
23	0xbc6fcf7b	-0.01463687
24	0x3da26c0f	0.07930767
25	0xbd164521	-0.03668702
26	0xbcd8a8e7	-0.026447726
27	0xbd7b971f	-0.061423417
28	0xbadb6544	-0.0016738554
29	0xbc774ed1	-0.015094475
