models/best_demon_len=77303_qbits=32_{Gen=true_L1=32_cp=0.002_w=Inf}_{L2=2_cp=1.0e-12}.pth (torch, 366412 bytes, 29 tensors)

input_proj.weight f4 [64, 3]
-0.02129813 -0.0036701704 0.0044178655 0.15216245 0.03714719 -0.053482592 -0.023125 -0.006237331
0.0029604705 1.0781244 -0.3262244 0.009323376 -0.020729078 -0.006394451 0.0034711047 -0.021981396
-0.005339683 0.0037063172 -0.024003526 -0.004309435 0.0035689324 -0.022858592 -0.005008117 0.0035042993
-0.022045357 -0.0052811834 0.003156637 1.1575041 -0.23232137 0.020353893 -1.1799392 -0.16394027
0.14292781 -0.021816324 -0.0050888862 0.0047961064 -0.021249026 -0.005644353 0.0041550123 -0.63401425
-0.4217811 0.2892199 -0.022486623 -0.005462873 0.0035206224 -0.02233576 -0.005252419 0.0033167263
-0.023248207 -0.0063916305 0.0029649923 -0.022674207 -0.0055435854 0.003969599 -0.021188375 -0.004570953
0.0043328386 1.7846484 0.013755601 -0.37298042 -0.022532705 -0.0055545485 0.0039284183 -0.021723647
-0.0045473133 0.0041218256 -0.020868888 -0.005125271 0.004758435 -0.021367094 -0.0057037286 0.003570614
-0.02076133 -0.004497726 0.004439919 0.5405847 -0.031606223 0.01785177 -0.021292707 -0.0050646397
0.0038056688 -1.3184017 0.30809784 0.002836768 0.27762702 0.10480032 -0.08042894 -0.022952732
-0.005381325 0.0039931294 0.26974738 0.082988255 0.02185606 -0.020263182 -0.0040869988 0.0034443578
-0.020637738 -0.0039069094 0.005131912 -0.24079785 -0.04493165 -0.020835277 -0.023375453 -0.0056321016
0.0031611258 -1.491783 0.78779984 -0.38167867 -0.021610964 -0.0038803979 0.004434119 -0.021538481
-0.0043610795 0.004234165 -0.021929936 -0.005742157 0.0034024902 -0.021712035 -0.005773668 0.0042049224
-0.022367448 -0.004885346 0.0039861025 -1.6017039 0.48789442 0.13571379 -0.021276258 -0.004153855
0.0042176065 -0.022381129 -0.0055837114 0.003470991 -0.022086056 -0.005785975 0.0035850594 -0.02039146
-0.004532775 0.0044032987 -0.022817066 -0.005058642 0.0040711053 -0.023260737 -0.005845693 0.0044730557
-0.02194319 -0.005530894 0.0035679848 -0.191086 -0.042218905 -0.021625709 -0.022083942 -0.005668013
0.0037864973 -0.020794287 -0.0046336 0.004242011 -0.0025877967 0.01353174 0.00667372 -0.022089452
-0.0046430547 0.004229489 -0.02164362 -0.0054855677 0.0039620125 -0.09217263 -0.01539973 -0.0011741244
0.76948315 -0.33051062 0.017584933 0.20206271 0.17521314 -0.13090633 -0.022903806 -0.004713808
0.0045614913 -0.07189256 -0.007309992 0.00813909 1.471309 -0.60765857 0.091150574 -0.021765353
-0.004967483 0.004486201 -0.021769522 -0.005485882 0.0035524145 -0.023188835 -0.009824771 0.18032348
00000000: 6a79 aebc 3e87 70bb bec3 903b 79d0 1b3e
00000010: a727 183d 9010 5bbd a470 bdbc 8662 ccbb
00000020: 7404 423b fbff 893f e206 a7be 13c1 183c
00000030: 07d0 a9bc 8b88 d1bb 797b 633b 5412 b4bc
00000040: 82f8 aebb afe5 723b 0ba3 c4bc 2936 8dbb
00000050: c0e4 693b f141 bbbc 211b a4bb 63a8 653b
00000060: 7798 b4bc c70d adbb 95df 4e3b 1829 943f
00000070: a7e5 6dbe 35bd a63c 3f08 97bf f5df 27be
00000080: ab5b 123e 26b8 b2bc acc0 a6bb a828 9d3b
00000090: 7012 aebc 44f4 b8bb c526 883b c24e 22bf
000000a0: b1f3 d7be a114 943e de35 b8bc e601 b3bb
000000b0: 3eba 663b 7cf9 b6bc 7c1c acbb 6f5d 593b
000000c0: 0673 bebc e270 d1bb 5150 423b 42bf b9bc
000000d0: f7a6 b5bb 6913 823b 3e93 adbc efc7 95bb
000000e0: 7cfa 8d3b 5c6f e43f 2c5f 613c 4af7 bebe
000000f0: 8296 b8bc ee02 b6bb f6b9 803b caf5 b1bc
00000100: a101 95bb 6110 873b 3bf5 aabc e4f1 a7bb
00000110: a5ec 9b3b 0b0a afbc 58e6 babb f600 6a3b
00000120: aa13 aabc a961 93bb bd7c 913b c263 0a3f
00000130: 8775 01bd e03d 923c 0b6e aebc 47f5 a5bb
00000140: 8768 793b 63c1 a8bf 00bf 9d3e 12e9 393b
00000150: 2125 8e3e 8da1 d63d eeb7 a4bd 5e07 bcbc
00000160: d355 b0bb ccd8 823b 541c 8a3e bff5 a93d
00000170: 7b0b b33c f9fe a5bc 3bec 85bb bcba 613b
00000180: 7910 a9bc 8805 80bb 9929 a83b b693 76be
00000190: 400a 38bd beae aabc e17d bfbc 7e8d b8bb
000001a0: e42a 4f3b bff2 bebf 40ad 493f 636b c3be
000001b0: 7a09 b1bc 464e 7ebb 164c 913b 7871 b0bc
000001c0: 63e7 8ebb c0be 8a3b 69a6 b3bc b428 bcbb
000001d0: 50fc 5e3b 70dd b1bc 0a31 bdbb 72c9 893b
000001e0: f03b b7bc 4115 a0bb da9d 823b a204 cdbf
000001f0: 4ccd f93e 8ef8 0a3e 8c4b aebc 101d 88bb
00000200: d933 8a3b a158 b7bc 91f7 b6bb 9179 633b
00000210: d1ed b4bc 4798 bdbb 51f3 6a3b fe0b a7bc
00000220: ac87 94bb 8c49 903b dbea babc f7c2 a5bb
00000230: e866 853b 4d8d bebc 3a8d bfbb b692 923b
00000240: 34c2 b3bc 803c b5bb dad4 693b 0cac 43be
00000250: bbed 2cbd 6628 b1bc 62e9 b4bc bdba b9bb
00000260: e226 783b c858 aabc 74d5 97bb 9100 8b3b
00000270: 0698 29bb 3bb4 5d3c 39af da3b f0f4 b4bc
00000280: c424 98bb 8697 8a3b f64d b1bc 47c0 b3bb
00000290: c5d3 813b 01c5 bcbd 264f 7cbc 14e5 99ba
000002a0: d9fc 443f b038 a9be 470e 903c 87e9 4e3e
000002b0: 136b 333e 4f0c 06be c3a0 bbbc 4a76 9abb
000002c0: 9078 953b 683c 93bd a888 efbb d159 053c
000002d0: da53 bc3f 838f 1bbf 27ad ba3d 414d b2bc
000002e0: 45c6 a2bb fb00 933b ff55 b2bc eac2 b3bb
000002f0: a0cf 683b 83f6 bdbc 14f8 20bc b8a6 383e

input_proj.bias f4 [64]
-0.0037522502 -0.06387105 -0.0017055481 -0.008705646 -0.0025392252 -0.002867283 -0.0030402401 -0.0028599252
-0.0029216895 -0.046258956 0.124725774 -0.0027258538 -0.002878402 0.40468752 -0.002519756 -0.0030067402
-0.0020822873 -0.0021126035 -0.0035581426 -0.0027865537 -0.002682937 -0.0033263008 -0.0036419872 -0.0025699402
-0.003812069 0.019221064 -0.0031499434 0.01904471 -0.14201584 -0.002699434 -0.06536936 -0.0043012
-0.00424723 0.017895132 -0.0021658218 -0.11116189 -0.004149199 -0.0036469025 -0.0030264352 -0.002632629
-0.0029825289 -0.019516531 -0.0042471797 -0.0025401635 -0.0026514002 -0.0038534172 -0.0031482382 -0.0021870008
-0.0028810909 -0.0074316133 -0.0028179993 -0.003595179 -0.021733487 -0.0033260423 -0.0029383535 0.008262057
-0.03940338 -0.1820104 -0.0031342239 0.006094992 -0.08492133 -0.003159613 -0.002806082 0.029760169
00000000: 50e8 75bb d3ce 82bd b38c dfba 20a2 0ebc
00000010: 2169 26bb 07e9 3bbb c43e 47bb 956d 3bbb
00000020: d179 3fbb 087a 3dbd 3a70 ff3d 3da4 32bb
00000030: 92a3 3cbb 3433 cf3e 7e22 25bb bb0c 45bb
00000040: fc76 08bb 9b73 0abb ba2f 69bb 9d9e 36bb
00000050: 37d4 2fbb 11fe 59bb 68ae 6ebb 716c 28bb
00000060: e8d3 79bb 7e75 9d3c 486f 4ebb a703 9c3c
00000070: 9a6c 11be fde8 30bb 5fe0 85bd 15f1 8cbb
00000080: 592c 8bbb d098 923c 76f0 0dbb d8a8 e3bd
00000090: 01f6 87bb df00 6fbb 2857 46bb 2f88 2cbb
000000a0: 8876 43bb 22e1 9fbc ed2b 8bbb df78 26bb
000000b0: 1dc3 2dbb 9d89 7cbb ac52 4ebb c953 0fbb
000000c0: afd0 3cbb e484 f3bb 2fae 38bb 189d 6bbb
000000d0: 6d0a b2bc bbf9 59bb 6491 40bb 945d 073c
000000e0: 7065 21bd ef60 3abe 8d67 4dbb 80b8 c73b
000000f0: 3ceb adbd 8311 4fbb 3ee6 37bb 99cb f33c

layers.0.conv.norm.weight f4 [64]
1.8005916e-05 -8.898161e-05 2.6423299e-05 0.9306307 -0.00041473142 1.641609e-05 -8.594327e-06 0.0009807064
0.00084301026 0.9830007 0.97020435 0.00041628015 -1.6340155e-05 -0.00058530143 3.1576077e-05 -0.00023903551
0.0002859127 4.0694165e-05 0.00010325232 1.16884 5.1950872e-05 0.0003695838 0.0003890673 0.0012459279
-2.9789695e-05 0.7303635 0.00011503497 0.9637712 0.000114158654 1.5175421e-05 0.30687973 9.535727e-06
0.00022424493 0.50993586 2.7340723e-06 1.1496432 0.0005579666 -6.116825e-05 2.749189e-06 0.0005523972
-0.000626711 0.95701045 -0.0008141807 -1.4724661e-05 0.00020220125 0.00016558477 -0.0009636499 -0.00037307083
-6.384685e-05 0.42448992 -3.734097e-05 0.0006731401 -3.6460075e-05 4.838302e-05 -4.6350655e-05 0.0005150394
0.9321765 5.4618857e-05 1.0036513e-05 0.00021065435 1.1118395 -2.0800262e-05 3.1420925e-05 -5.720665e-05
00000000: 690b 9737 a39b bab8 9aa7 dd37 d03d 6e3f
00000010: 4f70 d9b9 49b5 8937 5a30 10b7 0c8b 803a
00000020: 76fd 5c3a efa5 7b3f 505f 783f 2d40 da39
00000030: 3712 89b7 ea6e 19ba 8e70 0438 9ba5 7ab9
00000040: 8ee6 9539 07af 2a38 2b89 d838 8d9c 953f
00000050: d3e5 5938 b3c4 c139 bbfb cb39 674e a33a
00000060: e2e4 f9b7 1af9 3a3f ee3e f138 b6b9 763f
00000070: 7668 ef38 f099 7e37 571f 9d3e a3fb 1f37
00000080: 4a23 6b39 288b 023f 017b 3736 8227 933f
00000090: 8144 123a 7447 80b8 b57e 3836 c0ce 103a
000000a0: dd49 24ba a3fe 743f be6e 55ba f009 77b7
000000b0: fc05 5439 d3a0 2d39 739d 7cba b898 c3b9
000000c0: 84e5 85b8 be56 d93e 909e 1cb8 ab75 303a
000000d0: b5ec 18b8 dfee 4a38 a368 42b8 b603 073a
000000e0: 1ea3 6e3f 8d16 6538 7f62 2837 19e3 5c39
000000f0: c250 8e3f 397c aeb7 f6c9 0338 2cf1 6fb8

layers.0.conv.norm.bias f4 [64]
-1.2191935e-05 -1.8826553e-05 -2.090659e-06 0.12801112 -3.0606006e-05 -7.8781695e-06 5.077677e-06 -0.00070061075
2.101926e-06 0.09812989 0.16433622 -0.00028301665 8.862416e-06 4.2428386e-05 -3.802355e-06 0.0001490631
-0.00023580973 2.4734556e-05 0.00012495455 -0.09045744 -3.3651406e-05 -0.000533382 2.3656661e-05 4.9766713e-05
-5.3728904e-06 -0.060757782 -8.544268e-05 -0.16268902 -5.724231e-05 -3.5396076e-06 -0.14144875 -8.37448e-06
7.892109e-06 0.05853864 -1.8470289e-06 -0.17692038 2.4049767e-05 3.770951e-05 -1.8983652e-06 -0.00041982095
0.0004854565 -0.21947569 -2.4192335e-05 5.0920507e-06 -0.00057981786 0.00013088771 -4.7589583e-05 -1.5654889e-05
1.7925633e-05 0.16753337 1.860627e-05 1.8390898e-06 -8.420751e-06 -3.264915e-05 1.7760418e-05 5.1551942e-05
0.13609713 -3.8018243e-05 -3.7321692e-07 -2.4998903e-05 0.13116518 8.987627e-06 -1.2760214e-05 1.637273e-05
00000000: f68b 4cb7 b7ed 9db7 404d 0cb6 5915 033e
00000010: f35e 00b8 7b2c 04b7 ea60 aa36 31a9 37ba
00000020: d00e 0d36 53f8 c83d c147 283e da61 94b9
00000030: c9af 1437 22f5 3138 f62b 7fb6 d24d 1c39
00000040: b143 77b9 0e7d cf37 3b06 0339 c041 b9bd
00000050: ec24 0db8 a9d2 0bba 4b72 c637 9abc 5038
00000060: c748 b4b6 27dd 78bd b12f b3b8 f397 26be
00000070: 7617 70b8 ff89 6db6 f1d7 10be 1e80 0cb7
00000080: 5a68 0437 37c6 6f3d 6ee7 f7b5 9e2a 35be
00000090: 7bbe c937 472a 1e38 55cb feb5 6a1b dcb9
000000a0: de84 fe39 3cbe 60be a5f0 cab7 62dc aa36
000000b0: ebfe 17ba e73e 0939 ed9a 47b8 9e52 83b7
000000c0: 015f 9637 de8d 2b3e a914 9c37 a5d6 f635
000000d0: da46 0db7 c2f0 08b8 35fc 9437 7a39 5838
000000e0: 0c5d 0b3e c775 1fb8 8b5e c8b4 bcb4 d1b7
000000f0: 2a50 063e 90c9 1637 b414 56b7 2c58 8937

layers.0.conv.msg_mlp.0.weight f4 [64, 64]
4.7951172e-18 1.9725011e-16 -1.4991218e-18 9.818285e-05 -1.3789827e-14 3.6257623e-17 -2.9958973e-17 -1.4983285e-18
-3.4981966e-14 0.00034779793 -0.00092386804 -3.3764967e-16 3.008001e-18 1.4410648e-14 -1.240308e-16 8.603677e-15
1.8767806e-15 1.9845933e-14 5.0086854e-15 -0.0006113495 5.262251e-17 -2.533923e-15 1.4994421e-14 1.8100935e-15
-1.4172676e-15 -0.0007525903 2.9882465e-16 -0.00023174519 5.266318e-15 -7.7879816e-18 0.0001960746 -5.1203725e-18
1.4966023e-15 1.1950614e-07 -2.1516543e-17 0.001642741 -4.2094564e-15 -6.0427364e-17 6.367275e-18 6.4246276e-15
-5.78013e-17 -0.00083716953 6.6969864e-15 7.852208e-18 1.0877832e-15 5.5322305e-15 1.5325404e-15 5.0117842e-14
-3.6804693e-17 -4.214279e-07 -1.14506356e-17 7.332603e-15 2.1729216e-17 8.9514786e-17 -1.1190488e-18 -1.37280595e-14
0.000915367 -8.153404e-15 -1.4827275e-15 -3.178489e-15 0.0013953524 -1.5493722e-16 1.2968005e-17 -2.274783e-17
2.178879e-36 8.42978e-36 -6.5330086e-36 -0.0002586777 4.7295397e-37 -3.3348916e-36 1.2527648e-36 -7.386624e-38
-1.1952732e-36 0.00018969605 -0.0014792756 -1.795857e-37 4.3776098e-36 -4.8346854e-35 9.262327e-38 6.101897e-37
1.2569792e-36 -2.048998e-36 -1.4712103e-36 -0.00453417 1.7101546e-37 1.2517739e-37 -3.5740416e-36 1.533882e-35
1.04521695e-35 -0.0012046479 -1.439341e-36 3.980825e-05 -2.1370522e-35 -5.426344e-36 0.00021804142 -7.558924e-37
3.7673833e-35 -2.0856069e-06 3.7255634e-36 0.0019508668 2.9727483e-35 6.1097676e-37 4.214845e-37 1.45214215e-36
-7.9742167e-38 -0.0001024583 -4.0238924e-38 5.070193e-36 4.8515363e-38 -2.1754893e-36 -2.9572106e-35 2.4466398e-37
-2.4644652e-37 -2.5196027e-07 5.375805e-37 3.4350766e-36 -4.738575e-36 -7.836576e-37 -1.7099126e-38 -1.7366334e-36
0.00023036366 -1.5598714e-35 2.7654584e-35 -8.11604e-36 0.0008048539 6.4189075e-37 -5.3100575e-37 1.051203e-35
-1.7688025e-16 2.0915319e-15 4.613204e-16 2.5059311e-05 5.742923e-14 4.1967976e-16 2.4245516e-16 3.168777e-15
-1.5988078e-13 0.0004119182 -0.0021210355 1.2482086e-14 6.604554e-18 4.300992e-14 -2.5083936e-16 7.920853e-14
1.7398846e-14 -1.21816916e-14 1.0092674e-14 0.0006712921 2.2074939e-15 1.6010098e-14 -4.9631096e-14 -3.644268e-14
-8.368113e-15 -0.0039882376 -1.4195861e-15 -0.0003113421 3.241773e-13 2.2747372e-16 0.0029450841 -1.86175e-16
3.1074325e-14 4.955858e-05 2.0336009e-16 0.003004019 4.1186997e-14 1.2840061e-15 1.3835815e-16 1.2564887e-16
-7.729025e-15 -0.001329841 -4.220526e-16 -5.4280502e-17 2.7245874e-15 1.772583e-14 9.142272e-16 -3.9411067e-14
2.2242573e-15 -0.0012998459 3.3204218e-16 6.372882e-14 -3.4949816e-16 2.129869e-15 7.600988e-17 1.8847296e-14
0.0005189861 7.652086e-14 -1.5671641e-14 -2.060198e-14 0.0005912356 9.997784e-16 4.1661072e-16 -1.2686076e-16
2.0738949e-21 1.6030161e-20 -3.918384e-21 4.3046493e-06 -1.1140962e-18 7.359715e-23 -1.3704016e-21 -9.367442e-21
1.9099185e-18 0.000927099 -0.0014337683 3.891744e-21 3.2613592e-22 -5.1061296e-19 6.1745482e-21 1.6398636e-20
2.1173046e-19 6.2110294e-19 -1.2804432e-18 -0.0023573146 7.8128526e-21 -3.2934054e-20 8.010648e-19 5.9739087e-19
2.0489361e-19 -0.0023609553 -3.9599656e-23 -0.00038251828 -3.460926e-19 4.1276458e-21 0.0005866067 2.9581623e-21
-7.881272e-19 -0.0011116973 -1.1581195e-21 0.0022661625 1.1768093e-18 1.86262e-21 8.6520686e-23 9.2624544e-20
-6.365379e-21 0.00043720184 -2.8005374e-18 -6.773987e-21 -1.8887122e-20 -4.088147e-19 -8.0511e-19 2.1339289e-19
2.9331865e-21 -0.00035523303 -5.4850844e-22 6.7621e-19 -4.9216043e-21 8.236194e-21 -5.746888e-22 -2.0126595e-19
0.0014310243 1.1072289e-18 3.0147998e-19 1.4873516e-19 0.002240059 -8.269697e-21 2.351325e-21 -2.4421068e-21
00000000: 9ae8 b022 f569 6325 383b dda1 84e7 cd38
00000010: 5a6a 78a8 7235 2724 5029 0aa4 401d dda1
00000020: 768b 1da9 a658 b639 bc2f 72ba 4ca4 c2a5
00000030: 88f3 5d22 b1cc 8128 6eff 0ea5 75fd 1a28
00000040: 7e3c 0727 9bc1 b228 f874 b427 f842 20ba
00000050: b2ad 7224 a196 36a7 c80e 8728 556e 0227
00000060: f23f cca6 7b49 45ba bc42 ac25 a000 73b9
00000070: 36bd bd27 b4a9 0fa3 6099 4d39 8de8 bca2
00000080: e1ae d726 9951 0034 8074 c6a3 3e51 d73a
00000090: 62a9 97a7 0556 8ba4 36e9 ea22 bb78 e727
000000a0: dd47 85a4 7f75 5bba cc48 f127 01d9 1023
000000b0: 1ec4 9c26 d251 c727 c3dc dc26 f0b5 6129
000000c0: 50bb 29a4 9c40 e2b4 193a 53a3 aa17 0428
000000d0: a96a c823 3468 ce24 7824 a5a1 804d 77a8
000000e0: 3df5 6f3a f0e0 12a8 fdae d5a6 c608 65a7
000000f0: 42e4 b63a 65a1 32a5 ac37 6f23 cccf d1a3
00000100: c85b 3904 1648 3305 15f1 0a85 229f 87b9
00000110: 1af0 2003 c1d9 8d84 9a25 d503 4215 c981
00000120: 7e5d cb83 25e9 4639 41e4 c1ba 7c70 7482
00000130: f333 ba04 2a87 8086 0025 fc01 05a3 4f03
00000140: 2add d503 3a4f 2e84 3f50 fa83 6093 94bb
00000150: 31c6 6802 f461 2a02 de05 9884 3d1c a305
00000160: 064b 5e05 47e5 9dba 24e4 f483 c8f7 2638
00000170: 1840 e385 a7cf e684 0ca2 6439 c29b 8083
00000180: f74e 4806 74f6 0bb6 cb77 9e04 3ab4 ff3a
00000190: f40e 1e06 95e7 4f03 7a6c 0f03 b611 f703
000001a0: 2e14 d981 e2de d6b8 e014 5b81 83a9 d704
000001b0: 4612 8401 f611 3984 773b 1d86 7a82 a602
000001c0: 0ab9 a782 2845 87b4 deed 3603 ac1c 9204
000001d0: 838e c984 1a55 8583 6831 ba80 87bc 1384
000001e0: c68d 7139 bddf a585 7809 1306 ed9b 2c85
000001f0: d5fc 523a 926c 5a03 20b1 3483 ef90 5f05
00000200: d6ed 4ba5 f4b5 1627 70f7 0426 7636 d237
00000210: b251 8129 cded f125 11c4 8b25 9e55 6427
00000220: 7f02 34aa baf6 d739 1201 0bbb 76db 6028
00000230: 40aa f322 10b3 4129 5b99 90a5 9c5c b229
00000240: 02b7 9c28 2372 5ba8 3ed0 3528 a6f9 2f3a
00000250: 1311 1f27 c634 9028 c284 5fa9 8d1f 24a9
00000260: 1cbf 16a8 c3af 82bb 7c95 cca6 a13b a3b9
00000270: df7e b62a 3221 8325 5002 413b 29a5 56a5
00000280: 42f2 0b29 1fdd 4f38 4e75 6a25 13df 443b
00000290: 607d 3929 770b b926 1e84 1f25 00dd 1025
000002a0: d63b 0ba8 0f4e aeba f84b f3a5 1b53 7aa4
000002b0: c453 4427 fba8 9f28 08c1 8326 de7d 31a9
000002c0: 4e46 2027 975f aaba c768 bf25 2a81 8f29
000002d0: d378 c9a5 2679 1927 5044 af24 e8c2 a928
000002e0: 910c 083a 464f ac29 5828 8da8 ee90 b9a8
000002f0: 26fd 1a3a 5015 9026 e428 f025 b042 12a5
00000300: f6b2 1c1d 8d66 971e 4908 949d a870 9036
00000310: 5d69 a4a1 6ef2 b11a d816 cf9c 2cf2 309e
00000320: 57ed 0c22 9008 733a 48ed bbba a306 931d
00000330: 1723 c51b d3b4 16a1 9144 e91d 78e1 9a1e
00000340: 9bf7 7920 3651 3721 c7f5 bca1 2d7d 1abb
00000350: a394 131e d486 1b9f bf6e 6c21 9451 3021
00000360: 4be5 7120 42ba 1abb 007e 3f9a bc8c c8b9
00000370: 094c cca0 24f0 9b1d 82c6 193a 2e83 5f1d
00000380: 359d 68a1 5fb6 91ba 9402 af9c e683 143b
00000390: 99aa ad21 50bc 0c1d b631 d11a 1ab4 da1f
000003a0: 2b7a f09d 3d38 e539 a8a4 4ea2 fbe9 ff9d
000003b0: 4262 b29e 5552 f1a0 64a0 6da1 0bee 7b20
000003c0: 14a0 5d1d 923e bab9 c9c6 259c fc94 4721
000003d0: d6ee b99d ca93 1b1e 64b0 2d9c e79c 6da0
000003e0: 3591 bb3a ed65 a321 5ef6 b120 7298 2f20
000003f0: f4cd 123b cd35 1c9e 3da9 311d 3785 389d

layers.0.conv.msg_mlp.0.bias f4 [64]
-0.0033872142 -0.005287236 -0.006508924 -0.0056889136 0.03581921 -0.0005498579 -0.0025015525 -0.010901346
-0.004044813 -0.009674274 -0.0014433361 -0.005947461 -0.0006915192 -0.0064496486 -0.0062316195 -0.0052408413
-0.0070232847 -0.007156708 -0.007587422 -0.009902267 -0.0039541507 -0.0006853514 -1.7047381e-05 -0.0059520043
-0.0050757313 -0.00047947076 -0.002070017 -0.007184151 -0.010394163 -0.006596643 -0.002895568 0.00021295864
-0.0006648754 -0.009259041 0.1497269 -0.033556722 -0.0011484383 -0.0047765654 -0.0007769768 -0.004140152
-0.0022226193 -2.1644539e-05 -0.005266714 0.092045166 -0.004236872 -0.0029769272 -0.006301181 0.037014995
0.082737826 -5.698055e-05 -0.005548903 -0.0053547807 -0.0085681435 -0.0011823329 -0.0026411733 -0.0025413875
-0.0066594537 0.023040388 -0.0042086546 -0.04299967 -0.01183535 -0.008389633 0.07718846 -0.009720096
00000000: 06fc 5dbb 8d40 adbb d048 d5bb 116a babb
00000010: 2ab7 123d 5724 10ba 16f1 23bb 8f9b 32bc
00000020: 5a8a 84bb d980 1ebc 532e bdba ebe2 c2bb
00000030: 1147 35ba 9357 d3bb 9d32 ccbb 5dbb abbb
00000040: 9523 e6bb d182 eabb e99f f8bb 1e3d 22bc
00000050: d291 81bb 27a9 33ba f900 8fb7 0809 c3bb
00000060: 5252 a6bb 7a61 fbb9 1fa9 07bb 0769 ebbb
00000070: 484c 2abc a728 d8bb 92c3 3dbb a64d 5f39
00000080: 084b 2eba 3cb3 17bc 0252 193e c672 09bd
00000090: 3287 96ba bc84 9cbb 08ae 4bba 1daa 87bb
000000a0: 5da9 11bb 4b91 b5b7 6694 acbb 2d82 bc3d
000000b0: 75d5 8abb 8d18 43bb 237a cebb 099d 173d
000000c0: 7372 a93d 66fe 6eb8 92d3 b5bb 2877 afbb
000000d0: 6661 0cbc 82f8 9aba 8917 2dbb 688d 26bb
000000e0: 8c37 dabb 32bf bc3c c1e8 89bb 6c20 30bd
000000f0: 0ee9 41bc ac74 09bc fc14 9e3d 0a41 1fbc

layers.0.conv.msg_mlp.2.weight f4 [64, 64]
-3.0262234e-14 1.6463895e-35 1.00778916e-13 -1.16491e-17 -0.009890742 -9.2391546e-36 0.0029652135 0.00031735416
-3.3077386e-23 -5.9594056e-13 -7.354745e-07 9.622863e-07 -4.3139217e-09 3.3552462e-14 -1.5086355e-08 7.0525297e-16
7.1472826e-08 -0.0002586096 3.167019e-06 -0.00018904409 4.1254378e-38 -1.7616372e-20 -2.746585e-38 0.0001844646
-3.0889648e-08 -2.00126e-14 0.0015380664 -2.8869078e-08 2.702014e-10 -6.750509e-25 -0.0013784757 -4.0545844e-10
-2.5352852e-38 3.4386007e-09 -0.0010524801 -0.007850433 1.8278524e-07 2.6892123e-05 -3.7272824e-38 -1.4813936e-09
-2.653747e-38 -7.464441e-39 -2.1992604e-05 -0.00095547363 9.570223e-12 1.1615784e-09 1.8437923e-19 -0.003904917
-0.0011673227 -6.658589e-39 -0.0009982456 -2.1885976e-06 6.3875807e-28 0.005233784 -3.0970582e-17 -1.5291171e-22
-1.4117173e-27 -0.0013702223 -4.5612657e-38 -0.0014496222 -1.3049296e-17 6.387283e-07 -0.0012887378 -9.749124e-12
0.00036945855 0.0009076 -0.00083471905 0.00023366473 -0.42661378 -0.00021019774 0.0007925057 0.0014944626
-0.0010414021 -0.0007341832 -0.0009253508 -0.0022984787 -0.0003405035 0.0021409977 -0.0006803215 0.00020942093
-0.0017448277 -0.002729341 0.0009326386 -0.00033399227 0.0003220259 0.00036109803 1.8344496e-06 0.0036042
-0.00116422 0.0002630245 0.00031981466 0.00018561007 -6.391277e-05 -0.001022982 -0.00010535486 0.0011080678
9.507901e-06 -0.0020208454 -0.36647832 -0.27977815 0.00062590104 0.00012285235 0.000877672 0.00024298891
-3.358213e-05 0.00022996588 -0.002152722 -0.4333236 0.0006783809 -0.00051949196 -0.00088773627 0.10339768
-0.29493427 -0.00016793297 -0.00018684138 0.00089838734 -0.00086819124 0.00046158442 -0.0012337781 0.0006739047
-0.00056113227 -0.18991715 -0.002299555 -0.0548581 0.00030436038 0.0022395477 -0.186263 -0.0005195975
-1.2809237e-13 -1.2810092e-24 -1.7527092e-13 -1.4089922e-17 -0.009585838 -1.05573025e-35 0.0021833705 -0.00072921865
-4.3393484e-28 -7.6266765e-13 -3.7165398e-07 2.4294928e-07 -1.8806303e-09 2.3112097e-09 -8.998027e-08 2.6405093e-20
9.994297e-10 6.45257e-05 5.647439e-05 -0.00028277532 -3.1282604e-38 1.6025445e-38 1.5250206e-38 -0.0005473449
-9.193534e-08 -3.622456e-16 0.0029617352 -1.8710057e-07 3.0221008e-09 -3.4407012e-24 -0.0007914256 -4.8720056e-10
-3.502249e-38 -4.6506683e-09 -0.0011234822 -0.0077504637 -4.0870286e-11 2.2857774e-05 4.2889806e-38 -8.558948e-09
4.093112e-38 6.3258435e-38 -1.43626985e-05 -0.0009619802 -1.0862138e-07 8.6594937e-10 8.835424e-26 -0.006659808
-0.001297146 -1.74883e-38 -0.0012575733 -4.146102e-06 5.8814576e-18 0.002201153 -6.660172e-16 -5.267983e-23
-5.7288182e-28 -0.0015867107 2.5991735e-38 -0.0016324183 -2.7000726e-18 1.4501549e-07 -0.0014743693 -5.8208535e-11
-0.00039553954 -0.0013108695 -0.0014055636 -0.002926735 0.016540146 1.9318004e-05 0.006539226 -0.004016279
0.0001480528 0.006539814 0.011227262 -0.0032014009 -1.053165e-06 -0.0033035255 -0.0009061133 -0.0011594968
0.0010327895 0.0038658392 0.005125601 -0.000314304 0.000104656465 5.453282e-05 5.387782e-12 0.00067086413
0.00015084971 0.0006068752 0.0064031174 -0.0005684325 -0.004668649 -0.00096345885 0.00045324236 -0.00011694132
-1.6776902e-07 -0.0018899593 -0.020778246 -0.039012987 0.0014693723 -0.0014157014 -5.1403604e-06 -0.0007185956
-3.401757e-05 -3.7038882e-07 -0.00041618847 0.014681111 -0.0010057498 0.0031366865 0.0026949954 0.11287857
-0.012337599 1.3410391e-07 0.012473573 -8.345832e-05 0.0029665953 0.009868791 0.00035390226 -0.0004890069
0.0024731793 -0.08404131 0.00027987082 -0.04995599 -0.0028193821 -0.0047708047 -0.08980261 0.0001666473
00000000: fb49 08a9 fc12 af05 17ef e229 52e3 56a3
00000010: c70c 22bc be7e 4485 0754 423b 8e62 a639
00000020: d2f3 1f9a 0bbe 27ab 6c6d 45b5 e827 8135
00000030: a839 94b1 5b1b 1729 3f97 81b2 7c46 4b26
00000040: 9a7c 9933 fe95 87b9 f988 5436 233a 46b9
00000050: 369c 6001 c661 a69e cf89 1581 d76c 4139
00000060: 87ab 04b3 ea41 b4a8 f298 c93a c6fb f7b2
00000070: 778b 942f 0beb 5097 f8ad b4ba 34e7 deaf
00000080: b808 0a81 814c 6c31 5ff3 89ba 1a9f 00bc
00000090: a043 4434 6596 e137 bcee 4a81 e799 cbb0
000000a0: d67b 1081 d347 5180 c27c b8b7 c078 7aba
000000b0: 745c 282d 68a5 9f30 34ad 5920 a3e9 7fbb
000000c0: da00 99ba 7081 4880 90d7 82ba d2df 12b6
000000d0: 366e 4a12 2a80 ab3b 9cd3 0ea4 e2db 389b
000000e0: 0fb2 df92 0899 b3ba c456 7881 4001 beba
000000f0: 8fb7 70a3 1375 2b35 ddea a8ba 2782 2bad
00000100: e3b3 c139 01ec 6d3a 0cd1 5aba e603 7539
00000110: 1f6d dabe 8768 5cb9 28c0 4f3a d8e1 c33a
00000120: a87f 88ba 3376 40ba 3e93 72ba 13a2 16bb
00000130: 9b85 b2b9 fb4f 0c3b 9a57 32ba 0198 5b39
00000140: b4b2 e4ba bede 32bb 517c 743a af1b afb9
00000150: 96d5 a839 c251 bd39 3537 f635 7134 6c3b
00000160: be98 98ba 8de6 8939 ccac a739 53a0 4239
00000170: e808 86b8 9415 86ba f6f1 dcb8 963c 913a
00000180: 2084 1f37 2970 04bb 0ca3 bbbe 153f 8fbe
00000190: 8213 243a edd1 0039 9213 663a d7ca 7e39
000001a0: 8ada 0cb8 ff22 7139 af14 0dbb 97dc ddbe
000001b0: 5fd5 313a 842e 08ba f9b6 68ba 2ac2 d33d
000001c0: a001 97be 2a17 30b9 daea 43b9 c181 6b3a
000001d0: 5497 63ba d000 f239 b9b6 a1ba fba8 303a
000001e0: f318 13ba a479 42be 22b4 16bb e3b2 60bd
000001f0: 8f92 9f39 60c5 123b babb 3ebe 9935 08ba
00000200: 1d38 10aa 013a c697 6756 45aa e3f4 81a3
00000210: eb0d 1dbc 6c87 6085 e116 0f3b 0929 3fba
00000220: fa84 0992 ffab 56ab bc87 c7b4 b26e 8234
00000230: 663c 01b1 3bd3 1e31 2d3b c1b3 9963 f91e
00000240: 4e5c 8930 f951 8738 eade 6c38 7641 94b9
00000250: 9651 2a81 6c80 ae00 5f0f a600 b27b 0fba
00000260: fd6d c5b3 04d2 d0a5 ac19 423b d0e5 48b4
00000270: 5cad 4f31 0e1b 8598 ac77 4fba b1eb 05b0
00000280: 3aae 3e81 b6cb 9fb1 cf41 93ba 9af7 fdbb
00000290: dabf 33ae b2be bf37 aa83 6901 a70a 13b2
000002a0: a8d9 5e01 b234 ac01 52f7 70b7 662d 7cba
000002b0: 3c43 e9b3 c507 6e30 27c1 da15 853a dabb
000002c0: ff04 aaba 446e be80 28d5 a4ba bf1e 8bb6
000002d0: ccfc d822 3841 103b 65f7 3fa6 79be 7e9a
000002e0: b28d 3592 2df9 cfba 3183 0d01 def6 d5ba
000002f0: ee3a 47a2 8eb5 1b34 a03f c1ba 7e00 80ae
00000300: 6b60 cfb9 7bd1 abba e33a b8ba 77ce 3fbb
00000310: 337f 873c 190d a237 0147 d63b fd9a 83bb
00000320: 9f3e 1b39 f04b d63b 8df2 373c 98ce 51bb
00000330: 795a 8db5 f67f 58bb 3c88 6dba 42fa 97ba
00000340: aa5e 873a 055a 7d3b a8f4 a73b 2bc9 a4b9
00000350: 037b db38 2bba 6438 d390 bd2c eedc 2f3a
00000360: 692d 1e39 b516 1f3a 3ed1 d13b dc02 15ba
00000370: 77fb 98bb a190 7cba 29a1 ed39 653e f5b8
00000380: ff23 34b4 83b8 f7ba 2437 aabc 15cc 1fbd
00000390: f497 c03a 0e8f b9ba 5c7b acb6 2260 3cba
000003a0: 16ae 0eb8 dad9 c6b4 df33 dab9 0b89 703c
000003b0: 5dd3 83ba de90 4d3b 859e 303b e12c e73d
000003c0: a423 4abc 34fe 0f34 f55d 4c3c 5806 afb8
000003d0: 366b 423b b6b0 213c f58b b939 b330 00ba
000003e0: 1015 223b da1d acbd a0bb 9239 a79e 4cbd
000003f0: 62c5 38bb 6954 9cbb 6eea b7bd 0bbe 2e39

layers.0.conv.msg_mlp.2.bias f4 [64]
-0.020419776 0.27772716 -0.018581117 0.16147435 -0.020310502 -0.014955128 -0.020454612 -0.016371408
-0.020908203 0.11548422 -0.15034105 -0.017184474 -0.019008623 -0.032807585 -0.016714102 -0.019362265
-0.017857632 -0.020119146 -0.01956544 0.058083866 -0.017186997 -0.021208944 -0.019386584 -0.019029865
-0.01919906 0.020428056 -0.020030484 -0.22632279 0.29522347 -0.01882556 -0.03544958 -0.015554999
-0.019674193 -0.06831168 -0.01864944 -0.27776083 -0.01819977 -0.020555919 -0.019347517 -0.019595722
-0.01882677 0.46160612 -0.018713897 -0.015235453 -0.02024477 -0.020152714 -0.01743248 -0.017714182
-0.017612597 -0.039758388 -0.01681962 -0.018135611 -0.1319876 -0.016787313 -0.018290233 -0.02386235
0.16957541 0.0534992 -0.017492577 -0.25125876 0.30754077 -0.01909941 -0.01675159 0.72796386
00000000: 6047 a7bc 4132 8e3e 6d37 98bc 8859 253e
00000010: 3662 a6bc 5a06 75bc 6e90 a7bc 551d 86bc
00000020: ae47 abbc fe82 ec3d 01f3 19be 74c6 8cbc
00000030: f9b7 9bbc 3f61 06bd 03ec 88bc 9d9d 9ebc
00000040: 2b4a 92bc e8d0 a4bc b447 a0bc 59e9 6d3d
00000050: bfcb 8cbc 61be adbc 9dd0 9ebc 85e4 9bbc
00000060: 5947 9dbc bd58 a73c f816 a4bc 29c1 67be
00000070: 8827 973e 1038 9abc 9433 11bd 65da 7ebc
00000080: c62b a1bc fee6 8bbd b6c6 98bc ab36 8ebe
00000090: af17 95bc e364 a8bc af7e 9ebc 3587 a0bc
000000a0: 993a 9abc a357 ec3e e34d 99bc 1f9e 79bc
000000b0: 5cd8 a5bc 4e17 a5bc 8fce 8ebc 551d 91bc
000000c0: 4b48 90bc b1d9 22bd 4dc9 89bc 2291 94bc
000000d0: c227 07be 8c85 89bc 66d5 95bc fa7a c3bc
000000e0: 2da5 2d3e fa21 5b3d 984c 8fbc fda4 80be
000000f0: fc75 9d3e 5e76 9cbc a13a 89bc d75b 3a3f

layers.0.mlp.norm.weight f4 [64]
0.0009889947 -0.00014204337 -1.2747749e-05 -1.0076069e-05 1.2964294e-05 0.0006272689 -2.8119119e-05 5.5432207e-07
5.167523e-07 -2.2656846e-05 9.368237e-06 1.3388209e-05 -0.0006624693 0.009841652 0.0003559135 0.00018293955
2.4886394e-06 -0.00035759932 -0.00071263243 -6.685329e-05 6.84374e-07 -0.00023836817 -1.7731045e-07 2.616124e-06
7.6403546e-07 -0.0010853709 1.3520271e-06 -6.80021e-05 0.0074356087 -2.5766118e-07 -7.739174e-05 2.2901457e-07
-0.00090065197 -5.622649e-06 1.7785687e-05 -4.381603e-06 -5.159775e-05 0.00019625423 -9.694647e-06 2.5910153e-06
1.2193516e-06 1.4615325 -8.593405e-06 -1.3917878e-06 -2.1530957e-05 -0.0001875164 1.606898e-05 -7.836444e-07
-0.00086362776 -0.0010850916 -0.00030056934 1.6372942e-06 -5.282394e-07 0.00031706982 0.000541582 -3.321699e-07
7.8740095e-06 0.00010398873 1.7233207e-05 -0.011225016 9.456479e-05 0.000103691425 0.00029785058 2.5912051
00000000: 28a1 813a 7af1 14b9 2adf 55b7 630c 29b7
00000010: 3881 5937 4e6f 243a 59e1 ebb7 b9cc 1435
00000020: f3b6 0a35 350f beb7 462c 1d37 eb9d 6037
00000030: 90a9 2dba e13e 213c e799 ba39 76d3 3f39
00000040: 8002 2736 2b7c bbb9 f4cf 3aba 9633 8cb8
00000050: d3b5 3735 78f2 79b9 ba62 3eb4 ab90 2f36
00000060: 1e18 4d35 0143 8eba 4c77 b535 599c 8eb8
00000070: 68a6 f33b af54 8ab4 604d a2b8 0ce7 7534
00000080: bb19 6cba 30aa bcb6 7932 9537 af05 93b6
00000090: aa6a 58b8 98c9 4d39 31a6 22b7 4ee1 2d36
000000a0: 9aa8 a335 7f13 bb3f 652c 10b7 77cd bab5
000000b0: 619d b4b7 0da0 44b9 dfcb 8637 a25b 52b5
000000c0: 1465 62ba a239 8eba bc95 9db9 00c1 db35
000000d0: 56cc 0db5 643c a639 f4f8 0d3a 1555 b2b4
000000e0: 9d1a 0437 8614 da38 0890 9037 21e9 37bc
000000f0: 1651 c638 e974 d938 d428 9c39 4ed6 2540

layers.0.mlp.norm.bias f4 [64]
0.0032117267 -0.00028018275 2.6302609e-05 8.622639e-06 -3.6904876e-05 0.0026384655 4.541354e-05 -2.63629e-06
1.214372e-06 -4.157875e-05 1.6397782e-05 -1.9276311e-05 -0.003383672 -0.0063401605 0.00081190886 0.00070639024
-2.821865e-06 -0.0007858296 -0.0033846188 -2.9218103e-05 -1.5567612e-06 -6.435395e-06 -6.4386217e-07 -1.3450851e-05
-5.560588e-07 0.0006542078 -1.017246e-06 -8.4386564e-05 -0.0031849898 -2.8249488e-07 6.673429e-05 -3.155637e-06
-0.0043454706 -7.857368e-06 -4.4655917e-05 1.6963841e-06 -0.00018930367 0.00083759165 -0.00012333959 2.2617796e-06
-2.4946944e-06 0.421906 8.654511e-07 3.6494016e-06 -0.00012565679 -0.00011177272 3.3083776e-05 2.2092308e-06
-0.003499696 -0.00039828086 0.00016121642 -1.3570824e-05 -1.7313741e-07 0.00051325094 0.0027321852 5.3431034e-08
-2.1098235e-06 6.656736e-05 -2.2461867e-05 -0.0059123654 -0.00019736479 0.000542479 0.00066528114 0.515923
00000000: d57b 523b 7ee5 92b9 6ca4 dc37 f4a9 1037
00000010: 4fca 1ab8 1bea 2c3b 6b7a 3e38 1eeb 30b6
00000020: 81fd a235 d864 2eb8 f88d 8937 90b3 a1b7
00000030: 99c0 5dbb 1fc1 cfbb 48d6 543a 0c2d 393a
00000040: 465f 3db6 2200 4eba 7bd0 5dbb 6619 f5b7
00000050: e8f1 d0b5 9fef d7b6 dfd5 2cb5 f7aa 61b7
00000060: 1244 15b5 247f 2b3a 4e88 88b5 b1f8 b0b8
00000070: 43bb 50bb cda9 97b4 b3f3 8b38 6ec5 53b6
00000080: 7364 8ebb 23d3 03b7 ed4c 3bb8 50af e335
00000090: d17f 46b9 d391 5b3a b854 01b9 14c9 1736
000000a0: 866a 27b6 1004 d83e 5951 6835 3ee8 7436
000000b0: bdc2 03b9 8667 eab8 6fc3 0a38 4c42 1436
000000c0: 285b 65bb 5ad0 d0b9 340c 2939 3fae 63b7
000000d0: a6e7 39b4 b08b 063a 760e 333b 0b7c 6533
000000e0: 7e96 0db6 149a 8b38 7e6c bcb7 84bc c1bb
000000f0: b5f3 4eb9 2635 0e3a 4366 2e3a 8813 043f

layers.0.mlp.mlp.0.weight f4 [256, 64]
-1.4143639e-05 -2.330151e-06 -3.9001375e-07 8.599193e-08 4.0368653e-07 -1.0488193e-05 -4.678612e-07 1.0478181e-07
-6.291082e-08 1.0228327e-06 -1.4744375e-06 1.03069844e-07 1.7251707e-05 0.0003843937 -3.9876713e-06 -4.101437e-06
6.792462e-08 3.7024427e-06 1.6470809e-05 -5.011809e-07 4.2731436e-08 -8.54966e-07 6.125119e-08 2.571253e-07
3.0987145e-08 1.5829884e-05 5.5738223e-08 2.3176534e-07 0.0002198732 3.790486e-09 -2.0961757e-07 9.9375e-08
2.6495392e-05 2.414822e-07 2.2644375e-07 6.3987486e-08 7.205865e-07 -4.331376e-06 2.7693052e-06 -1.7244898e-07
6.2805476e-08 -0.021972725 -1.5215059e-07 -8.942998e-08 6.3664856e-07 7.3888987e-07 -7.0944665e-08 -9.0940325e-08
1.5886397e-05 -1.859755e-06 -8.8545185e-06 4.5076618e-07 -6.096102e-09 -1.9676e-06 -1.1984731e-05 -9.281482e-09
2.4320865e-09 -8.9375135e-07 1.3683183e-07 0.00021056739 -4.183869e-08 -3.102904e-06 -3.1710001e-06 -0.13565247
7.091389e-05 5.271677e-07 -4.6748013e-07 -3.7437317e-07 6.098148e-07 5.8725076e-05 -1.3125471e-07 6.9306445e-08
-3.784236e-08 -4.6829446e-06 7.6721443e-07 -1.0339105e-07 -6.7957306e-05 0.00026774983 1.6208269e-05 1.3259259e-05
6.432522e-08 -1.5748366e-05 -7.039792e-05 -4.2519002e-07 5.2586415e-08 -1.4725899e-06 4.5580318e-08 3.566397e-07
9.037639e-09 -2.0706604e-05 7.598976e-09 -1.7700919e-06 -2.7887152e-05 -1.0249456e-08 -1.0852185e-06 9.6331966e-08
-7.741561e-05 3.0936062e-07 -4.095348e-07 1.6451108e-06 1.1317688e-06 1.7205122e-05 1.7273007e-06 -7.6399466e-08
6.406154e-08 -0.020007933 -3.020468e-08 -9.986713e-08 -2.2242211e-06 -4.651948e-06 3.06186e-07 -6.208286e-08
-7.423776e-05 1.8089027e-05 -3.7432947e-06 3.5379887e-07 1.4493754e-08 8.240579e-06 5.932925e-05 -2.9285774e-10
8.106671e-07 1.5587062e-05 -8.296826e-08 -5.212717e-05 7.5377306e-05 1.0746217e-05 1.3187303e-05 -0.13820723
8.153147e-05 -1.8563509e-05 -1.0142177e-06 2.3296887e-07 7.218129e-07 6.976593e-05 1.9000865e-06 4.472177e-07
-1.8639368e-07 -3.3163271e-06 4.463802e-06 -1.5949261e-06 -8.3944964e-05 0.00069168623 1.7080805e-05 1.6802236e-05
3.6626068e-07 -1.5932272e-05 -8.55932e-05 6.4681466e-08 4.200176e-07 5.747928e-06 3.9878907e-07 8.0851714e-07
7.575102e-08 3.086832e-05 2.1686589e-07 -1.1071856e-07 0.00016095092 1.5194644e-08 4.436321e-06 4.1297122e-07
-9.603102e-05 6.265548e-07 -2.990381e-06 2.3809623e-06 -1.0560354e-05 1.7445338e-05 -6.4553633e-06 -9.965794e-07
3.028904e-07 -0.021894442 -1.0028087e-06 -4.058012e-07 -4.6453715e-06 3.800223e-06 1.8393713e-06 -3.882205e-07
-8.968145e-05 -2.9666859e-05 -5.7426936e-05 1.4479044e-06 -9.169942e-08 1.3217501e-05 7.204345e-05 -1.2622228e-07
2.3055512e-07 -5.693939e-06 -1.9275435e-06 7.781508e-05 4.767476e-05 1.1154789e-05 1.4412426e-05 -0.13147883
0.00012740906 -1.2957168e-05 1.9182519e-06 -3.4042347e-07 -2.368414e-06 0.00010502379 1.8707494e-06 -2.9336016e-07
1.3793561e-07 -2.5578136e-06 3.6816843e-06 -5.679202e-07 -0.00013530618 -3.6649635e-06 2.6293746e-05 2.4055093e-05
-1.9799558e-07 -2.5135834e-05 -0.00013604625 -2.162152e-06 -1.1539645e-07 -2.9561534e-06 -1.3095655e-07 -1.0255352e-06
-6.749451e-08 -2.18093e-05 -1.3456115e-07 1.1247386e-06 -0.00013614784 -6.488519e-09 2.5403765e-06 -2.7597775e-07
-0.00016732122 -8.0073664e-07 -1.3977867e-06 9.628756e-07 -4.8749307e-06 2.7995022e-05 -3.5924363e-06 4.9076607e-07
-1.6120312e-07 -0.020212485 4.3399112e-07 2.6945645e-07 -4.481844e-06 -8.520277e-06 8.6683707e-07 2.4610446e-07
-0.00014047055 -1.9324163e-05 2.4371282e-05 -1.2153617e-06 -2.2243944e-08 1.6744598e-05 0.00011013313 1.3023203e-08
3.637544e-07 1.8825463e-06 -6.6557726e-07 -9.414786e-05 1.1690235e-05 1.8162002e-05 2.170841e-05 -0.13708112
00000000: 784a 6db7 b05f 1cb6 1563 d1b4 90aa b833
00000010: 41ba d834 72f6 2fb7 5b2e fbb4 6904 e133
00000020: 9719 87b3 4448 8935 49e5 c5b5 3f57 dd33
00000030: c2b7 9037 7388 c939 d6cd 85b6 139f 89b6
00000040: f4dd 9133 7b77 7836 cb2a 8a37 e488 06b5
00000050: b687 3733 d180 65b5 3389 8333 080b 8a34
00000060: ba16 0533 6bca 8437 d364 6f33 2cdb 7834
00000070: c38d 6639 783d 8231 3d13 61b4 fc67 d533
00000080: 6c42 de37 10a5 8134 6224 7334 7e69 8933
00000090: 546e 4135 3d56 91b6 4dd8 3936 6a2a 39b4
000000a0: addf 8633 2500 b4bc d65e 23b4 a70c c0b3
000000b0: 28e6 2a35 2058 4635 3e5a 98b3 f94a c3b3
000000c0: c743 8537 b29c f9b5 de8d 14b7 d500 f234
000000d0: e175 d1b1 1c0b 04b6 0712 49b7 6474 1fb2
000000e0: b821 2731 20ea 6fb5 0cec 1234 c1cb 5c39
000000f0: 20b2 33b3 7c3b 50b6 5ecd 54b6 7be8 0abe
00000100: 9bb7 9438 b082 0d35 fbf9 fab4 75fd c8b4
00000110: 27b2 2335 924f 7638 05ef 0cb4 9fd5 9433
00000120: 1d88 22b3 3022 9db6 93f2 4d35 d507 deb3
00000130: 4d84 8eb8 c660 8c39 fef6 8737 1574 5e37
00000140: 2a23 8a33 5c1b 84b7 98a2 93b8 ac45 e4b4
00000150: 60db 6133 cea5 c5b5 17c4 4333 3078 bf34
00000160: f543 1b32 18b3 adb7 a68c 0232 e593 edb5
00000170: 34ef e9b7 9615 30b2 d3a7 91b5 0fdf ce33
00000180: 305a a2b8 3316 a634 09de dbb4 94cd dc35
00000190: 48e7 9735 b853 9037 9ad5 e735 0d11 a4b3
000001a0: 3492 8933 ade7 a3bc 66ba 01b3 8976 d6b3
000001b0: d443 15b6 ee17 9cb6 e261 a434 6a52 85b3
000001c0: 18b0 9bb8 e4bd 9737 5035 7bb6 bff1 bd34
000001d0: 3400 7932 0441 0a37 4cd8 7838 1000 a1af
000001e0: 9e9c 5935 f6c0 8237 492c b2b3 1fa3 5ab8
000001f0: e213 9e38 a74a 3437 093f 5d37 3286 0dbe
00000200: e0fb aa38 d5b8 9bb7 4120 88b5 ff25 7a34
00000210: 9bc2 4135 4c4f 9238 7a06 ff35 2219 f034
00000220: 8123 48b4 118e 5eb6 c4c7 9536 3e11 d6b5
00000230: 9c0b b0b8 4752 353a c048 8f37 87f2 8c37
00000240: 7ca2 c434 4ba6 85b7 8080 b3b8 03e7 8a33
00000250: c87e e134 53de c036 2719 d634 e008 5935
00000260: 90ac a233 9b78 0138 a4db 6834 2cc4 edb3
00000270: efc4 2839 6085 8232 b5db 9436 55b6 dd34
00000280: 4364 c9b8 8530 2835 5bae 48b6 9fc8 1f36
00000290: 602c 31b7 9457 9237 269b d8b6 35c2 85b5
000002a0: f19c a234 f95b b3bc 3f98 86b5 e4dc d9b4
000002b0: 70df 9bb6 5607 7f36 51e0 f635 9f6c d0b4
000002c0: 5d13 bcb8 18dd f8b7 b4dd 70b8 9e55 c235
000002d0: 4aec c4b3 bcc0 5d37 0816 9738 b787 07b4
000002e0: 828e 7734 900e bfb6 f25a 01b6 a730 a338
000002f0: 62f6 4738 7425 3b37 e6cc 7137 63a2 06be
00000300: 1c99 0539 9d62 59b7 51bb 0036 72c3 b6b4
00000310: 0bf1 1eb6 3840 dc38 7616 fb35 1d7f 9db4
00000320: 741b 1434 e7a6 2bb6 db12 7736 2e73 18b5
00000330: fae0 0db9 98f3 75b6 6491 dc37 ebc9 c937
00000340: 9c98 54b4 cbda d2b7 a3a7 0eb9 7d19 11b6
00000350: dfcf f7b3 5462 46b6 109d 0cb4 1fa5 89b5
00000360: 80f1 90b3 1df3 b6b7 e37b 10b4 b9f5 9635
00000370: e8c2 0eb9 9ef1 deb1 567b 2a36 182a 94b4
00000380: f372 2fb9 34f2 56b5 969b bbb5 273c 8135
00000390: 5693 a3b6 dad6 ea37 9615 71b6 30bd 0335
000003a0: 2d17 2db4 a794 a5bc 49ff e834 d0a9 9034
000003b0: bf62 96b6 50f2 0eb7 97b0 6835 5720 8434
000003c0: 474b 13b9 531a a2b7 ee70 cc37 831f a3b5
000003d0: f312 bfb2 c076 8c37 46f7 e638 a7bc 5f32
000003e0: 064a c334 ccab fc35 1faa 32b5 3f71 c5b8
000003f0: 2d21 4437 9a5a 9837 751a b637 fe5e 0cbe

layers.0.mlp.mlp.0.bias f4 [256]
-0.0103690205 -0.012657668 -0.010078257 -0.012157057 -0.010971306 -0.010909438 -0.012472509 -0.01148436
-0.010176744 -0.009479593 -0.01117292 -0.011393264 -0.01152495 -0.043268666 -0.010799592 -0.010001259
-0.008719669 -0.0122382995 -0.011386846 -0.011165026 -0.009520899 -0.011653517 -0.013162805 -0.012301057
-0.010783994 -0.011088719 -0.04504381 -0.008212643 -0.011700191 -0.012167448 -0.010532738 -0.050438385
-0.012492497 -0.008766069 -0.011254409 -0.010838709 -0.010700601 -0.010287035 -0.011543828 -0.010614119
-0.009774981 -0.010283499 -0.0123314485 -0.009501528 -0.011505714 -0.009667064 -0.008923197 -0.016175063
-0.010391386 -0.0095025515 -0.009422539 -0.010618107 -0.012433362 -0.01121544 -0.0074358084 -0.01160762
-0.0104634045 -0.010836311 -0.013434157 -0.0066697556 -0.009400132 -0.0109027205 -0.008217295 -0.008999846
-0.011389156 -0.007965193 -0.013441087 -0.011782275 -0.010412039 -0.011354898 -0.009450827 -0.011396611
-0.009296483 -0.0128935175 -0.007350123 -0.011197487 -0.009519364 -0.0104012955 -0.006618874 -0.012862278
-0.0074733226 -0.007747254 -0.010196832 -0.0081369635 -0.009983858 -0.011381959 -0.010053642 -0.011196301
-0.010265691 -0.010351229 -0.011647481 -0.0050390796 -0.011293515 -0.011000643 -0.0107097365 -0.011271835
-0.012828487 -0.010128567 -0.010931873 -0.008949783 -0.011069765 -0.039481893 -0.009190631 -0.0109790675
-0.010795583 -0.009975676 -0.011648153 -0.01048095 -0.011306946 -0.04238819 -0.01331694 -0.012530953
-0.011850919 -0.010496285 -0.0069714775 -0.008926454 -0.0110287 -0.00920845 -0.010054732 -0.011756007
-0.00865963 -0.010545464 -0.010381041 -0.012681323 -0.011841727 -0.006976178 -0.0118234875 -0.012351279
-0.009904663 -0.012270784 -0.009527875 -0.012497564 -0.03391769 -0.010082433 -0.00960162 -0.011810417
-0.013261093 -0.0119055025 -0.012059236 -0.007827277 -0.009410503 -0.011556686 -0.00785765 -0.0077652303
-0.010554949 -0.009418118 -0.008106137 -0.012891489 -0.012060458 -0.009467283 -0.0094262995 -0.0114957895
-0.0070371516 -0.011922984 -0.011126141 -0.0091431 -0.00823327 -0.011328473 -0.012904708 -0.011862983
-0.012750056 -0.011601425 -0.012027634 -0.00994837 -0.0095619755 -0.01033075 -0.010169889 -0.008931194
-0.009267699 -0.011158651 -0.010035047 -0.010010401 -0.0076887826 -0.012336398 -0.013641373 -0.010607926
-0.008756507 -0.012433555 -0.010523981 -0.007830628 -0.010933056 -0.011902343 -0.047027003 -0.0108482
-0.008424012 -0.011476794 -0.013803939 -0.040887557 -0.011501687 -0.011010394 -0.009486449 -0.011514931
-0.01060956 -0.010164447 -0.009045943 -0.012064235 -0.008838109 -0.010091663 -0.008422853 -0.011527001
-0.010101915 -0.010916706 -0.01233229 -0.012455712 -0.010446833 -0.009011198 -0.008220041 -0.008993563
-0.005759835 -0.013553105 -0.010564393 -0.0103178555 -0.011904851 -0.010525662 -0.0103404615 -0.007144025
-0.012192585 -0.0096314205 -0.0103904605 -0.011467621 -0.011627305 -0.012394337 -0.011050213 -0.008630427
-0.00900115 -0.012132398 -0.012385267 -0.013907199 -0.010350628 -0.011735598 -0.0062482487 -0.01068803
-0.009356761 -0.01087979 -0.010784042 -0.009789041 -0.01008615 -0.010706889 -0.010805864 -0.011547844
-0.008415882 -0.041908402 -0.010903976 -0.011044867 -0.009596153 -0.009706528 -0.0103361 -0.012206193
-0.0130916005 -0.01309892 -0.009517348 -0.010173873 -0.012064978 -0.012294448 -0.037440956 -0.0126495985
00000000: d3e2 29bc 1c62 4fbc 461f 25bc 652e 47bc
00000010: fec0 33bc 80bd 32bc 7f59 4cbc e628 3cbc
00000020: 5cbc 26bc 4b50 1bbc a00e 37bc d0aa 3abc
00000030: 25d3 3cbc 7c3a 31bd c6f0 30bc 52dc 23bc
00000040: f1dc 0ebc 2683 48bc e58f 3abc 83ed 36bc
00000050: 8bfd 1bbc 65ee 3ebc cea8 57bc 5f8a 49bc
00000060: 59af 30bc 75ad 35bc dc7f 38bd 528e 06bc
00000070: 28b2 3fbc fa59 47bc 8191 2cbc 7b98 4ebd
00000080: 55ad 4cbc 8f9f 0fbc 6a64 38bc d794 31bc
00000090: 9351 2fbc f48a 28bc 5322 3dbc d7e6 2dbc
000000a0: 3e27 20bc 1f7c 28bc d809 4abc 4cac 1bbc
000000b0: 7682 3cbc 9b62 1ebc 9a32 12bc 9181 84bc
000000c0: a240 2abc 97b0 1bbc fe60 1abc 92f7 2dbc
000000d0: 4db5 4bbc f7c0 37bc 15a8 f3bb e32d 3ebc
000000e0: b36e 2bbc c88a 31bc f01a 5cbc f78d dabb
000000f0: 0303 1abc 53a1 32bc d5a1 06bc 1774 13bc
00000100: 9599 3abc 7180 02bc 0138 5cbc 710a 41bc
00000110: 4297 2abc e509 3abc a4d7 1abc dab8 3abc
00000120: 4750 18bc 553f 53bc 4dd9 f0bb aa75 37bc
00000130: 1bf7 1bbc 326a 2abc 24e3 d8bb 4ebc 52bc
00000140: c6e2 f4bb addc fdbb 9d10 27bc e650 05bc
00000150: 5693 23bc 657b 3abc 08b8 24bc b170 37bc
00000160: 6e31 28bc 3498 29bc 13d5 3ebc dd1e a5bb
00000170: 6f08 39bc 0a3c 34bc e477 2fbc 81ad 38bc
00000180: 932e 52bc 4af2 25bc 991b 33bc 1ca2 12bc
00000190: f65d 35bc c4b7 21bd 4d94 16bc 8ce1 33bc
000001a0: f5df 30bc 0571 23bc e5d7 3ebc 4ab8 2bbc
000001b0: c540 39bc 3d9f 2dbd 4b2f 5abc a04e 4dbc
000001c0: 5b2a 42bc 9cf8 2bbc fe70 e4bb 4340 12bc
000001d0: b8b1 34bc 0adf 16bc 9abc 24bc 449c 40bc
000001e0: 1fe1 0dbc e2c6 2cbc 3e15 2abc 53c5 4fbc
000001f0: ce03 42bc 6c98 e4bb 4db7 41bc 055d 4abc
00000200: 2b47 22bc 660b 49bc ce1a 1cbc 95c2 4cbc
00000210: 47ed 0abd ca30 25bc 1d50 1dbc 7b80 41bc
00000220: 0e45 59bc 4c0f 43bc 1a94 45bc fb3d 00bc
00000230: 832e 1abc 4158 3dbc 5fbd 00bc 7973 febb
00000240: aaee 2cbc 734e 1abc 9acf 04bc d336 53bc
00000250: 3a99 45bc aa1c 1bbc c470 1abc d658 3cbc
00000260: e897 e6bb 9f58 43bc 6b4a 36bc f1cc 15bc
00000270: d6e4 06bc 0f9b 39bc 456e 53bc f55c 42bc
00000280: 9ce5 50bc e713 3ebc 8e0f 45bc 7dfe 22bc
00000290: d5a9 1cbc 4e42 29bc 9b9f 26bc 2554 12bc
000002a0: 8cd7 17bc c6d2 36bc 0a6a 24bc aa02 24bc
000002b0: 2ff2 fbbb 9a1e 4abc 1180 5fbc decc 2dbc
000002c0: 7477 0fbc 1cb6 4bbc c76c 2cbc 094c 00bc
000002d0: 8f20 33bc 0b02 43bc 639f 40bd a6bc 31bc
000002e0: de04 0abc 2a09 3cbc eb29 62bc b679 27bd
000002f0: 9271 3cbc f164 34bc 0d6d 1bbc 1fa9 3cbc
00000300: b8d3 2dbc c888 26bc 6f35 14bc 12a9 45bc
00000310: b7cd 10bc 8157 25bc 0200 0abc bfdb 3cbc
00000320: 8182 25bc fcdb 32bc 600d 4abc 0b13 4cbc
00000330: 3229 2bbc b4a3 13bc 5aad 06bc bd59 13bc
00000340: ffbc bcbb d80d 5ebc 4716 2dbc 390c 29bc
00000350: 900c 43bc d473 2cbc 0a6b 29bc 6d18 eabb
00000360: 68c3 47bc 1bcd 1dbc c03c 2abc b0e2 3bbc
00000370: 7480 3ebc 9e11 4bbc f40b 35bc a266 0dbc
00000380: 8f79 13bc f7c6 46bc 93eb 4abc 05db 63bc
00000390: ae95 29bc aa46 40bc 1cbe ccbb d91c 2fbc
000003a0: 1a4d 19bc 2641 32bc 8daf 30bc 3762 20bc
000003b0: 6140 25bc f36b 2fbc 140b 31bc 2b33 3dbc
000003c0: c4e2 09bc 25a8 2bbd 97a6 32bc 88f5 34bc
000003d0: 2f39 1dbc 2108 1fbc bf58 29bc 7cfc 47bc
000003e0: 277e 56bc da9c 56bc a7ee 1bbc 51b0 26bc
000003f0: 2fac 45bc a76e 49bc b05b 19bd 4340 4fbc

layers.0.mlp.mlp.3.weight f4 [64, 256]
-0.0024061715 -0.0021777628 -0.0021553033 -0.0032428042 -0.0011311882 -0.0028556243 -0.0021462305 -0.0016213247
-0.0027249386 -0.0024947047 -0.0024107534 -0.0022277702 -0.0029319047 -0.006899019 -0.001695718 -0.0009336335
-0.002103205 -0.0007712148 -0.0015908264 -0.0018588521 -0.0019469955 -0.0019881257 -0.0020478289 -0.0019593453
-0.0012333172 -0.0028217155 -0.0073728766 -0.002993635 -0.0022656 -0.001905213 -0.0020313654 -0.00653523
-0.0010068122 -0.0012584233 -0.0034438472 -0.0010777649 -0.0018689431 -0.0021434182 -0.0016912598 -0.0032415956
-0.0021927576 -0.0002490998 -0.0019343602 -0.0026115058 -0.0023188104 -0.0013496736 -0.0027658192 -0.0077911895
-0.002039135 -0.0026683665 -0.002682994 -0.0032731446 -0.0021477034 -0.0023849767 -0.0026153666 -0.001645905
-0.0011278051 -0.00200065 -0.0023519362 -0.002009523 -0.001649807 -0.002654926 -0.0023053535 -0.0020760961
-0.003016041 -0.0020483627 -0.0019762495 -0.002976842 -0.0025134229 -0.002452441 -0.002569602 -0.0011104153
-0.0013990352 -0.001286916 -0.001898326 -0.001685282 -0.0024255705 -0.00259928 -0.0028302125 -0.0024696502
-0.0020964618 -0.0015845874 -0.002924772 -0.0017791451 -0.0024301552 -0.0016026902 -0.0015674133 -0.0025816502
-0.0029960785 -0.0016127371 -0.00094405364 -0.0012311854 -0.0014589841 0.0009518278 -0.00263079 -0.0026540526
-0.0017783405 -0.0027765215 -0.0016968236 -0.00089571154 -0.0018570807 -0.006926591 -0.002054015 -0.003323802
-0.0021418189 -0.0027802472 -0.0023024154 -0.0021599852 -0.0013176745 -0.0076081594 -0.0026235732 -0.00230173
-0.0010526893 -0.0024584944 -0.0019744618 -0.0017698291 -0.0014022902 -0.0024133285 -0.0027139396 -0.0019243574
-0.0020292506 -0.002363822 -0.0033168728 -0.0024135548 -0.0012915658 -0.0025667418 -0.0027470095 -0.0011225849
-0.0026879879 -0.002628086 -0.0021482196 -0.0026736944 -0.0070997407 -0.0021238064 -0.0022600882 -0.0030051952
-0.0017140452 -0.0028225763 -0.001904806 -0.0006509273 -0.0033358934 -0.0020758691 -0.0015525332 -0.0027201013
-0.0012308327 -0.002299008 -0.0030383726 -0.0021147516 -0.0015483648 -0.0013011016 -0.0023989493 -0.0012138962
-0.0013814924 -0.0022251245 -0.0030774132 -0.0019497795 -0.002677734 -0.0028823742 -0.002210306 -0.002145602
-0.00244916 -0.0024208222 -0.0021773283 -0.0012674624 -0.0027031815 -0.00200121 -0.0007869755 -0.0023760996
-0.0019169607 -0.00027681747 -0.0009800816 -0.0020653564 -0.0024597074 -0.0025470636 -0.0021560497 -0.0014708474
-0.0021980237 -0.0023553148 -0.0026274996 -0.0032259838 -0.0026593339 -0.0017803453 -0.006898677 -0.0029337006
-0.0026616773 -0.001998327 -0.0022337453 -0.0086883595 -0.0005637291 -0.0028871456 -0.001774021 -0.0027049177
-0.0020235176 -0.0025770508 -0.0016273501 -0.00012216796 -0.0017386117 -0.0017016553 -0.0014981737 -0.0029213657
-0.0023091366 -0.0019986262 -0.0016674805 -0.00260653 -0.0033648482 -0.0014123435 -0.0025837435 -0.0030471096
-0.0022424834 -0.002349928 -0.0013415394 -0.002374262 -0.0011377113 -0.003117365 -0.0019174244 -0.0016276564
-0.0007837732 -0.002872733 -0.0022261608 -0.0024740759 -0.001822705 -0.0034789525 -0.0012854439 -0.0028248392
-0.0026293555 -0.0029549415 -0.002428466 -0.0015674477 -0.0021464915 -0.0015337602 -0.0016757149 -0.0012477703
-0.0022289075 -0.0020046888 -0.0016757762 -0.0024093112 -0.0014462802 -0.0022689651 -0.0034485438 -0.0029950591
-0.0029008426 -0.00815966 -0.0012980315 -0.001996628 -0.00010282568 -0.0026227944 -0.00072728924 -0.0023918683
-0.002599617 -0.0024695871 -0.0018005694 -0.0024788245 -0.002215536 -0.0022185782 -0.009106856 -0.002479744
00000000: dcb0 1dbb ccb8 0ebb fd3f 0dbb 3a85 54bb
00000010: 6144 94ba 6d25 3bbb c6a7 0cbb a182 d4ba
00000020: e294 32bb 337e 23bb bbfd 1dbb c8ff 11bb
00000030: 3325 40bb 2a11 e2bb db42 deba 15bf 74ba
00000040: edd5 09bb 592b 4aba 4783 d0ba baa4 f3ba
00000050: 5432 ffba 374b 02bb de34 06bb 5c68 00bb
00000060: 42a7 a1ba 88ec 38bb 2c98 f1bb dc30 44bb
00000070: 767a 14bb 57b8 f9ba a820 05bb 7c25 d6bb
00000080: 03f7 83ba aef1 a4ba 2bb2 61bb ca43 8dba
00000090: 53f7 f4ba 9778 0cbb 43ad ddba f370 54bb
000000a0: 5eb4 0fbb 9c99 82b9 5c8a fdba cc25 2bbb
000000b0: 2ff7 17bb 88e7 b0ba bf42 35bb 3c4d ffbb
000000c0: 02a3 05bb c3df 2ebb 2bd5 2fbb 4182 56bb
000000d0: 7cc0 0cbb 454d 1cbb 9266 2bbb 68bb d7ba
000000e0: dcd2 93ba 561d 03bb f122 1abb 34b2 03bb
000000f0: 563e d8ba 44fe 2dbb 6a15 17bb 1d0f 08bb
00000100: c5a8 45bb d33d 06bb f783 01bb 1f17 43bb
00000110: 3db8 24bb 22b9 20bb c566 28bb 5b8b 91ba
00000120: d55f b7ba bcad a8ba 40d1 f8ba aee4 dcba
00000130: 52f6 1ebb af58 2abb 167b 39bb dbd9 21bb
00000140: cb64 09bb eeb1 cfba 88ad 3fbb 3432 e9ba
00000150: 3d43 1fbb 5c11 d2ba aa71 cdba e730 29bb
00000160: db59 44bb 7a62 d3ba 5e7a 77ba ba5f a1ba
00000170: 623b bfba 1584 793a 5569 2cbb 9def 2dbb
00000180: 3517 e9ba 4df6 35bb f467 deba 2fce 6aba
00000190: 4a69 f3ba 75f8 e2bb a79c 06bb 25d4 59bb
000001a0: c25d 0cbb cf34 36bb 1fe4 16bb 8a8e 0dbb
000001b0: d2b5 acba de4d f9bb 41f0 2bbb 9fd8 16bb
000001c0: 64fa 89ba b11e 21bb f965 01bb 9cf9 e7ba
000001d0: 0dcd b7ba ef28 1ebb 5adc 31bb b83a fcba
000001e0: 2dfd 04bb 5aea 1abb e45f 59bb bb2c 1ebb
000001f0: c249 a9ba c836 28bb 2c07 34bb b323 93ba
00000200: f428 30bb f73b 2cbb 25c9 0cbb 2639 2fbb
00000210: f1a4 e8bb 8f2f 0bbb fd1d 14bb cff2 44bb
00000220: d0a9 e0ba f9fa 38bb afaa f9ba fea2 2aba
00000230: 019f 5abb 4e0b 08bb 5f7e cbba ba43 32bb
00000240: e453 a1ba f4aa 16bb 6f1f 47bb a597 0abb
00000250: 80f2 caba ba89 aaba b137 1dbb 991b 9fba
00000260: 3113 b5ba 65d3 11bb 6dae 49bb be8f ffba
00000270: ec7c 2fbb 37e6 3cbb c8da 10bb 3a9d 0cbb
00000280: 1682 20bb a8a6 1ebb 82b1 0ebb fb20 a6ba
00000290: dc27 31bb bc26 03bb 084d 4eba 56b8 1bbb
000002a0: 8742 fbba d021 91b9 1576 80ba ee5a 07bb
000002b0: 0b33 21bb a3ec 26bb 834c 0dbb 73c9 c0ba
000002c0: b80c 10bb a05b 1abb 2132 2cbb 076b 53bb
000002d0: 3848 2ebb 7a5a e9ba 4c0e e2bb 5443 40bb
000002e0: 896f 2ebb 5df6 02bb 0764 12bb 9f59 0ebc
000002f0: 38c7 13ba 4436 3dbb 4486 e8ba fd44 31bb
00000300: fe9c 04bb bde3 28bb cf4c d5ba 361a 00b9
00000310: 21e2 e3ba 140a dfba 5e5e c4ba 6274 3fbb
00000320: e254 17bb 62fb 02bb 5c8f daba 51d2 2abb
00000330: c984 5cbb 621e b9ba 0654 29bb 04b2 47bb
00000340: a1f6 12bb 4001 1abb 98d6 afba 8299 1bbb
00000350: 421f 95ba b54c 4cbb 1652 fbba 1657 d5ba
00000360: 2176 4dba 7644 3cbb c8e4 11bb 1b24 22bb
00000370: d5e7 eeba 23ff 63bb 577c a8ba f020 39bb
00000380: 4451 2cbb b1a7 41bb e626 1fbb d172 cdba
00000390: 27ac 0cbb 7408 c9ba a9a3 dbba 398c a3ba
000003a0: dd12 12bb 1961 03bb b8a5 dbba 89e5 1dbb
000003b0: 1c91 bdba ebb2 14bb f700 62bb c148 44bb
000003c0: 101c 3ebb 18b0 05bc b622 aaba dcd9 02bb
000003d0: 1ea4 d7b8 30e3 2bbb 8ea7 3eba e4c0 1cbb
000003e0: 565e 2abb ccd8 21bb 1501 ecba c673 22bb
000003f0: 8732 11bb 9165 11bb ec34 15bc 3383 22bb
