models/best_demon_len=100004_qbits=20_{Gen=true_L1=32_cp=0.00123418_w=Inf}_{L2=2_cp=1.0e-15}.pth (torch, 47128 bytes, 29 tensors)

input_proj.weight f4 [16, 3]
00000000: 8ab3 5f3c c897 c63e e7c8 103e 62bf e73c
00000010: a745 463e 9414 d9bc 619c e73c b328 463e
00000020: f1dd d8bc a49b 513f 5370 043f c155 453c
00000030: 0a35 e73c 183c 463e ae07 d9bc 71a0 ed3c
00000040: bfc5 473e 017a d9bc 1afc 8a3f c44e 14bf
00000050: c199 e3bd c214 e83c 5a50 463e cbed d8bc
00000060: 020d 893c 1be4 9d3e 2b86 803d 34f8 9fba
00000070: c859 76bc 72ed f7bc 246b 00c0 1792 f8be
00000080: 63e9 9d3d 84e6 753d f5da bcbe a975 80bc
00000090: 6ea9 f3bd 0406 1ebf 3a1e b23e 0801 aebb
000000a0: 2d9c f33d 16b7 3f3e 5030 743c 061b a83e
000000b0: 459f a13d 90d0 e63d 6cf5 68be fa7e 0dbd
0.013653645 0.38787675 0.14139138 0.0282895 0.19362508 -0.02649907 0.02827281 0.19351463
-0.026473017 0.81878114 0.51733893 0.012044371 0.028223533 0.19358861 -0.02649292 0.029007168
0.19509028 -0.026547434 1.0858185 -0.57932687 -0.111133106 0.02833021 0.19366589 -0.026480576
0.016729835 0.30838093 0.062755905 -0.0012204708 -0.015036054 -0.03026459 -2.0065393 -0.48548958
0.077105306 0.06003429 -0.368858 -0.015681105 -0.118975505 -0.6172793 0.34788686 -0.0053101815
0.118950225 0.18722185 0.014904097 0.32833117 0.078917064 0.11270249 -0.22749871 -0.034544922

input_proj.bias f4 [16]
00000000: c9c9 8e3e 0f2a ef3d 2544 ef3d c965 37be
00000010: 3958 ef3d 537a ed3d a0de 50bf 0e78 ef3d
00000020: d225 693e 8ec9 073e 8c7b 4e3e 7d01 683d
00000030: a758 1d3e 6bf2 323e fbd2 413e ebaa 883c
0.27888325 0.11677944 0.116829194 -0.17909922 0.11686749 0.11595597 -0.815897 0.116928205
0.22768334 0.13260481 0.20164317 0.056642044 0.1536585 0.17475288 0.18928139 0.016683063

layers.0.conv.norm.weight f4 [16]
00000000: 4bcb 57b9 682c afb9 1f62 9eb9 fb5b 903f
00000010: 05ca a1b9 4a6a c439 323e 8e3e 9837 4939
00000020: ff61 8d39 fbd8 5fb9 cac1 c33f 10f8 cf39
00000030: c648 313f 5ef4 02b9 ab89 2db9 5e79 a739
-0.0002057973 -0.00033411686 -0.00030209214 1.127807 -0.0003085883 0.00037463225 0.27781826 0.00019189564
0.00026966629 -0.00021347769 1.5293515 0.00039666938 0.6925167 -0.000124888 -0.00016549851 0.00031943148

layers.0.conv.norm.bias f4 [16]
00000000: 666b 0aba ccfd f8b9 7c6e a4b9 49ae 5abd
00000010: 0c87 cbb9 7023 9439 b634 fd3d 2035 b139
00000020: 278d 223a 9986 bab9 5ca7 a6bd b0ef e5b9
00000030: 44bb 8c3c 72e0 ba39 fd32 e8b9 0fa3 01ba
-0.0005280286 -0.0004749134 -0.00031362835 -0.053388868 -0.00038819795 0.00028255163 0.123635694 0.00033799652
0.0006200843 -0.00035576968 -0.0813739 -0.00043856865 0.017179139 0.0003564391 -0.00044288478 -0.0004945257

layers.0.conv.msg_mlp.0.weight f4 [16, 16]
00000000: 74fa adb9 2bf8 153a 16c8 76b9 3177 6d3e
00000010: 090d 93b9 b03b 4639 e5c2 4fbe 341a 16ba
00000020: 857f be39 e2c5 83b9 f7fc b7be 51b1 c239
00000030: d2bd 47be b784 4639 bebd 6db9 badc d5b9
00000040: fa19 df39 962d a1ba 139b c239 ff43 edbe
00000050: 986b 1e3a 840e d5b9 8a8c 92be df4a 783a
00000060: 595d 3cba 185c 183a 50d2 633e 9ca1 74ba
00000070: aac1 083e 3d6d 82b9 fe14 e639 d986 083a
00000080: a897 8282 fa28 df81 99af 2882 9c41 cd31
00000090: fca9 3202 e4eb 7381 61cc 952f 21c3 8802
000000a0: 7605 bd81 ac5a 2001 a9d7 a331 30fe 2d81
000000b0: f168 072b e8be 7b82 3e12 ed81 22d3 5d82
000000c0: 8ef8 8ab9 d909 143a d8a8 35b9 442d a53d
000000d0: 0a5d 68b9 7864 2d39 d187 4f3a a6d5 15ba
000000e0: 9103 a639 1b1e 39b9 bf79 80bd a413 b039
000000f0: 53fb acbd 9035 2439 f60f 72b9 470b aab9
00000100: fc2d 1582 06fc 3282 e3ca 1882 8557 a101
00000110: d859 2600 b443 5001 0619 8e01 102f 7002
00000120: 78a3 f481 d8b1 c580 d96d b300 f60d ed01
00000130: 99b1 3381 8cb3 ee01 7f92 2802 f0f0 cd80
00000140: dd54 40b9 5476 3c3a fb5e fdb8 acf2 9fbc
00000150: 09dd 69b9 eb40 4539 dfb5 8d3d 2932 4fba
00000160: 2960 9d39 2c64 06b9 8f15 aebe 24bd 7539
00000170: 1626 2f3d 5932 ee38 b566 81b9 5978 cbb9
00000180: e0fd 062e 189c 1d31 c08a 45ae febb ad39
00000190: 9623 dcb1 1ee9 0e31 bbef bf3a 00f1 f7ae
000001a0: 39bd 8230 63bb f5b0 7d81 8539 833f 0131
000001b0: 0267 2a37 af71 4132 0270 dfb1 815e 7330
000001c0: 3813 4602 d45e 1f01 6c1c 6781 e8d2 9d2c
000001d0: 13a0 5b82 ea18 4f82 487c 632a 001a 2e02
000001e0: 828b 9501 34ad 3801 db2f 0b2f d2db 1702
000001f0: 77c7 bda2 eca9 1a02 603e 0700 8a58 fa01
00000200: 84c6 2829 fef2 17a6 259a 2529 fc11 a939
00000210: bbad 5729 aa7e c5a8 5780 a339 e701 b0a7
00000220: f7b2 0ca9 e238 4628 0a51 9d38 75b5 29a8
00000230: fdfa dbb8 6088 f228 c4cd 9329 5470 5928
00000240: 4a3a c023 459a ed22 5854 2b24 dccc 8f36
00000250: 12af 0524 1ae8 5ea3 0605 ca35 120c 8ea3
00000260: 5a31 80a3 2e06 2e23 6a5d 7337 70a2 11a3
00000270: 9bd8 c6b5 e818 4023 fc18 5724 e609 a623
00000280: eaea a3b9 a2ed 1a3a 6ceb 53b9 ffa9 7b3e
00000290: 6ddb 89b9 42bf 4039 eda7 55bd 0d6e 1cba
000002a0: e0ad ac39 839c 67b9 61d1 1fbf a37b be39
000002b0: 7618 3cbe 473f 3739 5373 5ab9 54a2 d0b9
000002c0: 1ad7 1332 964a 1e32 312b 8231 8908 8239
000002d0: f4c9 cd30 954f 0ab1 8edc 6439 2bd1 8ab2
000002e0: aa4d 9eb1 441b 1d31 36a5 1439 898b 1431
000002f0: 2931 a0b8 f397 aeb1 7add ad31 223b ac31
00000300: 18ea 15b9 fbfb 3b3a 591e 86b8 5efa b93e
00000310: a2ed 31b9 11b1 2539 90fc 323d 65b9 4bba
00000320: a398 9b39 0e56 8db8 aa1b 36bf 0443 8139
00000330: 6c6b 2dbe b2af 0b39 c467 8bb9 f1eb a6b9
00000340: d71d 230a 701a bf87 1f4d 8d89 32ae f638
00000350: 4c71 f889 fab5 aa89 9f99 a3b9 9a8f fc07
00000360: 539a 758a 2347 9d89 47cc db39 aaf2 8108
00000370: 691c a5b7 c8fe 480a bd09 660a fdcf f109
00000380: 8104 b6b9 cfcd 093a 018a b7b8 2833 273e
00000390: 16b6 7eb9 b1ee 4039 afc9 aa3e a0f5 11ba
000003a0: 00a5 b139 2b74 dcb8 05d4 f0be ca1c fb39
000003b0: 2283 803e 4e51 bd39 369f bcb9 d92f cbb9
000003c0: a0e6 a68f f629 9d0e 567d c490 c327 49b8
000003d0: a8b0 2191 1774 1491 eee3 9fb4 3a80 7010
000003e0: d2d0 9091 e478 8a8f cb9f 7cb7 a0a9 940e
000003f0: c3b0 3634 264e 0991 3922 6511 e548 9d91
-0.00033183733 0.0005720879 -0.00023534926 0.23189999 -0.00028047737 0.00018904987 -0.2028919 -0.00057259505
0.00036334633 -0.000251337 -0.35935184 0.00037134674 -0.19506004 0.00018932192 -0.00022672766 -0.0004079098
0.0004255323 -0.0012296911 0.00037118103 -0.4634094 0.00060432544 -0.0004063734 -0.28622848 0.0009471606
-0.0007185541 0.0005812063 0.22248197 -0.0009331943 0.13355127 -0.0002487692 0.0004388466 0.0005208082
-1.918883e-37 -8.197606e-38 -1.2393085e-37 5.973744e-09 1.3126158e-37 -4.4801294e-38 2.7248162e-10 2.0095402e-37
-6.943547e-38 2.9452413e-38 4.768442e-09 -3.1957452e-38 4.810727e-13 -1.8495355e-37 -8.7086227e-38 -1.6297108e-37
-0.000265066 0.00056472194 -0.00017324404 0.08065274 -0.00022159904 0.00016535993 0.00079166616 -0.0005715735
0.00031664644 -0.0001765419 -0.06273221 0.0003358397 -0.08446374 0.00015660212 -0.00023084864 -0.0003243333
-1.0959988e-37 -1.3149702e-37 -1.1225422e-37 5.9267644e-38 3.521979e-39 3.825214e-38 5.219847e-38 1.7645922e-37
-8.986601e-38 -1.8155391e-38 1.647796e-38 8.7080083e-38 -3.3004528e-38 8.768503e-38 1.2384733e-37 -1.8912709e-38
-0.00018342161 0.0007189263 -0.000120816716 -0.019524895 -0.00022302954 0.00018811568 0.06919455 -0.0007903898
0.00030017018 -0.00012816553 -0.34000823 0.00023435481 0.04276093 0.00011358102 -0.0002468132 -0.00038808843
3.069356e-11 2.2935236e-09 -4.491585e-11 0.00033137196 -6.4068884e-09 2.0796231e-09 0.0014643589 -1.127507e-10
9.512525e-10 -1.7879355e-09 0.00025464213 1.8808073e-09 1.0156773e-05 1.1259927e-08 -6.502888e-09 8.8537183e-10
1.4552258e-37 2.9271724e-38 -4.244839e-38 4.4856237e-12 -1.6135518e-37 -1.5215108e-37 2.0204769e-13 1.2790963e-37
5.493414e-38 3.391973e-38 1.2658978e-10 1.1156813e-37 -5.1439744e-18 1.1362898e-37 6.65224e-40 9.1962543e-38
3.747568e-14 -5.2717965e-16 3.677106e-14 0.0003224759 4.7890277e-14 -2.1926325e-14 0.00031185403 -4.8851876e-15
-3.1241472e-14 1.10035424e-14 7.501438e-05 -9.420732e-15 -0.00010489484 2.692654e-14 6.563806e-14 1.2070277e-14
2.0841368e-17 6.440232e-18 3.7151156e-17 4.285581e-06 2.8988068e-17 -1.20837935e-17 1.5051635e-06 -1.5400783e-17
-1.3898689e-17 9.4338675e-18 1.4505678e-05 -7.894863e-18 -1.481519e-06 1.0413615e-17 4.6641856e-17 1.8001948e-17
-0.00031264807 0.0005910044 -0.0002021023 0.24576567 -0.0002629416 0.00018381796 -0.0521621 -0.00059673266
0.00032935943 -0.00022088182 -0.6242886 0.0003633174 -0.18368706 0.00017475813 -0.00020833062 -0.00039793795
8.605435e-09 9.213769e-09 3.7884083e-09 0.0002480189 1.4973112e-09 -2.012688e-09 0.00021825937 -1.6160433e-08
-4.6072346e-09 2.2862006e-09 0.00014175926 2.161615e-09 -7.638551e-05 -5.081341e-09 5.0601416e-09 5.0125815e-09
-0.00014296954 0.0007171032 -6.3952706e-05 0.36323828 -0.0001696856 0.00015801589 0.043697894 -0.00077714614
0.00029677627 -6.739433e-05 -0.7113596 0.00024654728 -0.1693551 0.00013321525 -0.00026589457 -0.00031837777
7.853777e-33 -2.8754024e-34 -3.401704e-33 0.000117626405 -5.9810372e-33 -4.109714e-33 -0.0003120424 3.8001147e-34
-1.1825346e-32 -3.786327e-33 0.00041923134 7.820955e-34 -1.9682762e-05 9.677569e-33 1.1075929e-32 5.821423e-33
-0.000347171 0.0005256803 -8.751825e-05 0.16328108 -0.0002429116 0.00018399466 0.33356997 -0.0005567912
0.00033883005 -0.000105120555 -0.47036758 0.000478959 0.25100046 0.00036109466 -0.00035976776 -0.00038754827
-1.6457697e-29 3.8743895e-30 -7.750148e-29 -4.7959165e-05 -1.2755097e-28 -1.1710914e-28 -2.9781899e-07 4.7430436e-29
-2.284789e-28 -1.3654416e-29 -1.5057575e-05 3.664816e-30 1.7014376e-07 -1.0831476e-28 1.807546e-28 -2.4815157e-28

layers.0.conv.msg_mlp.0.bias f4 [16]
00000000: bd26 943e 7630 d13e 6e8e 98b1 93d6 273e
00000010: 873b 5181 2893 243e ab85 e1ba 5d17 24af
00000020: 9875 c5b9 fac6 ccb6 428a c43e 009c 84b9
00000030: 0b3c ae3e 4a52 38ba 6a54 72be 2e67 42b9
0.28935805 0.40857285 -4.4399746e-09 0.16390447 -3.8429946e-38 0.1607176 -0.0017205974 -1.4924013e-10
-0.00037662382 -6.1028377e-06 0.38386732 -0.0002529323 0.34030184 -0.0007031305 -0.23665014 -0.00018539719

layers.0.conv.msg_mlp.2.weight f4 [16, 16]
00000000: e38f c03e 933e 8cbe 498e 5a2c 4076 883e
00000010: 8f58 8801 c4df d13e 76da beba 0d47 b125
00000020: ce30 3c38 1d56 5935 8d7f 243f 5f21 3a39
00000030: 128c 043f 348e 0ab9 ae6e 9b3e f06e 3039
00000040: ed09 113c 1bca f5bb 27fb 6f82 7439 c03b
00000050: 312e ac00 4446 3a3c 5ba2 6f38 97db 6b02
00000060: e392 c7b5 ee3d f127 d1b1 593c b747 af35
00000070: 64d4 883c b486 1db7 db88 ed3b eafd 9714
00000080: d822 163c 285b e6bb 43e4 7f82 e644 c13b
00000090: 57d7 9d00 aee3 393c ee86 8238 bf9d b780
000000a0: dec0 cfb5 8b1a f227 c96d 443c 541c b235
000000b0: cc96 913c 269f 20b7 ad16 e93b 9885 9514
000000c0: 3eae b4ba cf4c 223b c30a 2e82 0a83 7c3b
000000d0: ee62 6480 5528 b93b b981 ee38 c098 d681
000000e0: 1fd4 5736 06d9 e528 b1b5 6fbb 82d1 d034
000000f0: a027 a1bb 34f3 8d35 0f1a 60bb 584c cb14
00000100: 5a6b 103c d233 e9bb 5d15 6882 5853 c03b
00000110: 1ef4 8400 fa38 3a3c 3b45 8438 8ef1 9b81
00000120: af8c cbb5 2e72 ec27 597c 593c c656 b635
00000130: 3956 893c b67c 1fb7 adef ec3b a377 9814
00000140: 5295 103c 8365 00bc abc1 5682 f07e c03b
00000150: 7286 7600 8d6c 3a3c 2bd2 5e38 efb1 4100
00000160: 1959 d2b5 f687 f627 b9f1 543c e7a0 a535
00000170: 2447 8a3c 3929 1cb7 625d ee3b 34e2 9614
00000180: 129c 8e3e 1310 20bf 410a ca21 597f fa3d
00000190: 60a4 0d01 9c1a 56bb f272 473a 8ba1 ff82
000001a0: 25fd f1b8 9b44 0ab2 4244 8f3e d0e2 0539
000001b0: d94f 993c ceb4 973a 992a c1bd ca51 fab8
000001c0: e962 103c b82a e8bb 587d 7382 e0e3 c03b
000001d0: 825a 1601 cf29 3a3c b299 7f38 4ec4 5d01
000001e0: d736 c3b5 21f2 ee27 657a 543c b387 b335
000001f0: 2229 8c3c f203 20b7 5149 eb3b b444 9714
00000200: 7e18 f33e c128 68be 65c5 6524 2c53 c83c
00000210: 6e2c 2901 3119 963e b388 48ba 4036 de16
00000220: fa75 7f38 566a 2134 24ec 103f c38d 4239
00000230: 4eed 0f3f 5c24 07b9 eff5 993e 9315 b338
00000240: 23bd 05bc 6568 a93e dce6 5b18 7835 c43b
00000250: 99dc 8681 ec15 cbbd d627 a339 06bd 7401
00000260: 6464 e2b7 3ab2 4e34 4f6a ccbe 46d6 3fb9
00000270: 6b40 7fbe 672c a338 3534 4cbd b543 1538
00000280: 9e0e 55bc 645f 1e3e 7ee2 6db3 627f 29bd
00000290: 0a22 9c81 b406 363e ca67 beba 256f 522d
000002a0: ad2c 6a38 d097 2029 053f 3c3d ffa9 8038
000002b0: 17ea 5f3e f3d6 08b9 6a29 3c3f 6f2c 9e35
000002c0: 3f45 63be f78b c43e 835b feab ecf3 e3bd
000002d0: e35f 8701 ef5f a33d 2261 f8b9 0313 269f
000002e0: 1587 2c39 3b08 da35 3667 02bf 2579 5bb9
000002f0: 51d2 fbbe 2450 0339 856b 06be 19e7 0b38
00000300: 70c0 a43e 8099 d23b f083 6800 0d45 5f3e
00000310: b8f4 3081 cb95 3a3e e0e1 84ba 71c3 4f02
00000320: 0723 8937 e0bd 1132 d4df c9bd bcfb 91b8
00000330: f2c5 b3bc f6df 2fb9 78af d0be e2d4 8a37
00000340: 98e1 d33c a386 cdbd 534d 2881 0bf1 1a3c
00000350: 839c 5500 c028 a53c bbfa 60b9 d06f 7d02
00000360: b873 92b6 414e 7228 dfbb 183d 7106 bb35
00000370: e0bf 243d 0b9e c935 ac49 06bc 5013 45a4
00000380: 4710 903e 6e7b 22be 6ce8 971b 49a5 963d
00000390: fc6c 8281 4804 853d 883b 8aba 9043 0910
000003a0: b065 a038 63ef 2934 1c8e 033f b5d9 0939
000003b0: 93ad b33e 761e 1db9 298b 023e 68a4 2938
000003c0: 3d77 a03c ebb6 41bc d663 6a82 18c7 f93b
000003d0: a7c3 1382 a260 183c af52 8339 5536 7880
000003e0: dba9 a1b5 e3d8 b827 cda0 a33c 1493 f935
000003f0: 8ed9 9e3c 77cf abb7 77ec 0fbc f762 9795
0.37609777 -0.2739149 3.1058647e-12 0.26652718 5.0085585e-38 0.40991032 -0.0014560956 3.0752751e-16
4.4868146e-05 8.096411e-07 0.6425713 0.00017750774 0.5177623 -0.0001321368 0.3035788 0.00016825995
0.008852464 -0.0075008995 -1.7631024e-37 0.005866224 1.5812276e-38 0.011369292 5.7133246e-05 1.7328092e-37
-1.4869405e-06 6.695808e-15 0.013287024 1.3059388e-06 0.016702838 -9.389292e-06 0.0072489805 1.5347255e-26
0.009163581 -0.0070299096 -1.8799949e-37 0.005898106 1.4495422e-38 0.011345787 6.224016e-05 -1.6862484e-38
-1.5478834e-06 6.719727e-15 0.011989065 1.3270278e-06 0.0177721 -9.573798e-06 0.007113299 1.5097849e-26
-0.0013784838 0.002476502 -1.278659e-37 0.0038530254 -9.219039e-39 0.00565056 0.00011372887 -7.883037e-38
3.2160967e-06 2.5518226e-14 -0.0036576802 3.8895456e-07 -0.0049180537 1.05761e-06 -0.003419522 2.0527874e-26
0.008814657 -0.007116773 -1.7050799e-37 0.0058693103 1.2209858e-38 0.011366123 6.307146e-05 -5.728462e-38
-1.5165623e-06 6.5626952e-15 0.013274276 1.3585311e-06 0.016764747 -9.506175e-06 0.00723072 1.5395266e-26
0.008824663 -0.007836702 -1.5777817e-37 0.005874507 1.0884818e-38 0.01137842 5.312466e-05 6.033138e-39
-1.567215e-06 6.8426125e-15 0.012997084 1.2340287e-06 0.016879626 -9.3079225e-06 0.0072743157 1.5235351e-26
0.27853447 -0.6252453 1.3690767e-18 0.12231321 2.6015543e-38 -0.003266967 0.0007608376 -3.7561604e-37
-0.00011538927 -8.048256e-09 0.27981764 0.00012768363 0.018714832 0.001157427 -0.09431953 -0.00011936163
0.0088126445 -0.0070851706 -1.7888792e-37 0.00588654 2.7615585e-38 0.011362507 6.0939878e-05 4.073213e-38
-1.4544593e-06 6.6320787e-15 0.012968634 1.3376033e-06 0.017109457 -9.537662e-06 0.007180371 1.5274202e-26
0.47479624 -0.22671796 4.982366e-17 0.024453722 3.1072274e-38 0.29316095 -0.00076497643 3.590027e-25
6.0906612e-05 1.5032978e-07 0.5661032 0.00018554092 0.56221473 -0.00012888148 0.30070445 8.539404e-05
-0.0081627695 0.3308746 2.842164e-24 0.0059878193 -4.954037e-38 -0.09916291 0.00031119463 4.495134e-38
-2.6988047e-05 1.9250083e-07 -0.39924857 -0.00018295003 -0.24926917 7.780716e-05 -0.049854476 3.5587425e-05
-0.013003973 0.15466076 -5.5386856e-08 -0.041381247 -5.7354193e-38 0.17775995 -0.0014526781 1.1961797e-11
5.5831555e-05 3.5658813e-14 0.045958538 6.13518e-05 0.21866642 -0.00013050046 0.7350069 1.1784849e-06
-0.22194384 0.38388035 -1.8073185e-12 -0.11130509 4.972876e-38 0.07977282 -0.00047374616 -3.5167593e-20
0.0001645352 1.6244661e-06 -0.5093874 -0.00020930597 -0.49183896 0.00012522988 -0.13126953 3.335541e-05
0.32178068 0.00642699 9.598222e-39 0.21803685 -3.2501672e-38 0.18221204 -0.0010138117 1.5264047e-37
1.6347984e-05 8.483283e-09 -0.09857145 -6.961028e-05 -0.021944974 -0.00016772732 -0.40758872 1.6550013e-05
0.025864407 -0.100354455 -3.0912204e-38 0.009456883 7.862163e-39 0.020161033 -0.00021455709 1.8619593e-37
-4.3646105e-06 1.3450667e-14 0.037288543 1.393446e-06 0.04022205 1.5021664e-06 -0.008196276 -4.2733924e-17
0.2813742 -0.15867397 2.5131054e-22 0.073557444 -4.7910843e-38 0.06494957 -0.0010546306 2.7070534e-29
7.648335e-05 1.582644e-07 0.51388717 0.0001314644 0.35093364 -0.00014984034 0.12748398 4.0445855e-05
0.019588107 -0.011823396 -1.7220256e-37 0.007622611 -1.0856004e-37 0.009300383 0.0002504787 -1.103975e-38
-1.2044869e-06 5.130541e-15 0.019974137 1.8594751e-06 0.019390848 -2.0481397e-05 -0.008784405 -6.1144553e-26

layers.0.conv.msg_mlp.2.bias f4 [16]
00000000: 8825 c13d 6abe 80bb a86c 7bbb 22c4 283b
00000010: d18a 77bb e8bd 85bb 34db 15be c1c4 7bbb
00000020: 9ea8 c93d b44c 03be c6aa d1bc ad08 20be
00000030: cd55 963e 1262 b8bc 13fa fb3c 1cfb b83b
0.09430987 -0.003928949 -0.0038364325 0.002575167 -0.003777195 -0.0040814765 -0.146344 -0.0038416835
0.09846614 -0.12822229 -0.025594126 -0.1562831 0.29362336 -0.022507701 0.030758893 0.005645169

layers.0.mlp.norm.weight f4 [16]
00000000: f6db 6438 4a51 2132 8e25 b235 c004 9d34
00000010: cf8b b2b5 2969 4d3a 7e38 c938 2183 07ba
00000020: 5f30 8e39 b08a 33ba bc51 bd3f 2f22 61b9
00000030: d7de 5835 ecc3 99b7 8443 e9b7 3282 1e35
5.456429e-05 9.389916e-09 1.3272963e-06 2.9246985e-07 -1.3302723e-06 0.00078357995 9.5949494e-05 -0.0005169381
0.0002712039 -0.0006848974 1.4790568 -0.00021470407 8.0790545e-07 -1.8330255e-05 -2.7807204e-05 5.9049046e-07

layers.0.mlp.norm.bias f4 [16]
00000000: 0a2d e338 d3fc ce33 e9a7 c8b5 2b8c b2b6
00000010: 119c 8d36 fd7a 48ba 4613 c238 b425 bb39
00000020: 6e7c 8eb9 b84f a639 616f 86bd 3c5a 8538
00000030: a418 49b4 cf1f f737 2e39 16b7 0fb3 94b4
0.00010832593 9.638611e-08 -1.495003e-06 -5.321131e-06 4.220296e-06 -0.0007647721 9.254231e-05 0.0003569551
-0.00027177058 0.00031721382 -0.065642126 6.358742e-05 -1.8728548e-07 2.9459507e-05 -8.95401e-06 -2.769743e-07

layers.0.mlp.mlp.0.weight f4 [96, 16]
00000000: 1093 2a36 5981 222f d7ac bcb1 ad8a eeb2
00000010: 6559 9f32 bef0 a7b6 1c50 5136 86e5 0436
00000020: 28c8 ce35 0c05 8436 4a52 dcb9 13a9 b535
00000030: cee0 2fb0 6319 5434 e663 b7b3 704a bfb0
00000040: 1ac6 2d35 2666 0630 3cef c031 d47b 9633
00000050: 1bba 9931 982e ae36 ead1 87b6 e141 8db6
00000060: 7c65 79b7 3400 cdb6 763b a739 f781 51b6
00000070: 1183 7f31 dd16 e9b3 b672 0a35 d0b2 daaf
00000080: 51c8 1d37 b6ee 1930 4c64 40b2 e639 24b4
00000090: 9db9 7733 8ffc 08b8 c240 2b37 9a85 6c37
000000a0: c248 d437 2054 f437 96a8 baba 2e5c 5a37
000000b0: 7004 98b2 ca34 be34 3b2d eeb5 aaa1 b4b1
000000c0: 84e8 e136 9ca3 c530 9834 98b2 f009 24b4
000000d0: fa1c 9733 0abd 9eb7 0237 b536 24f6 0437
000000e0: 43c0 c335 0189 ad37 ad74 4dba 1893 2f37
000000f0: 8ef0 7eb2 c38b 0d35 6434 9fb5 8e10 e7b1
00000100: 3f28 4b37 91fa 0e31 356a e9b2 b02a 9eb4
00000110: 430f 0334 d751 2eb8 df46 be36 db2d 9637
00000120: fdaf c637 0717 0138 9835 b6ba 60be 8137
00000130: 9929 94b2 111d 4935 be26 52b5 8627 27b2
00000140: 58f8 b7b6 aad8 21b0 cf1f 0c32 6383 f633
00000150: 4a68 1ab3 47a6 5737 509a b0b6 de16 b4b6
00000160: e641 0fb7 9a37 7bb7 4479 303a 984f d4b6
00000170: 7725 0832 2d62 a6b4 98fc 4835 c2fa 8231
00000180: 7038 6837 b0ab 1931 da91 f3b2 3e78 bbb4
00000190: 441b 0434 6477 57b8 9fc6 3937 18be c737
000001a0: f59f e837 755f 1f38 8738 f3ba 5ced ae37
000001b0: 55c1 d0b2 c1b0 6d35 54ed 8ab5 d2af 3bb2
000001c0: ae8a fe36 b942 d730 33c5 acb2 e9f2 38b4
000001d0: d63f 9b33 8794 acb7 0df4 ab36 34b6 1537
000001e0: 1d84 8135 a8a4 b837 486e 4cba 6a47 4937
000001f0: 66a7 8fb2 4522 1535 8685 b1b5 b8f3 efb1
00000200: b0f9 c8b5 f452 632d 89de e8af 3c43 0a32
00000210: 7a9b 11b1 9818 8234 aa8e 41b5 30ba 5c33
00000220: 8a5e a6b6 7696 95b5 3de4 0eb7 992b 03b5
00000230: c63a 34af 3d3a 0fb3 44bf 9c32 cda0 0b30
00000240: 3cad bcb4 0297 dcaf 48c5 6cb1 5ef4 a0b3
00000250: 7878 1db1 69b2 bfb6 a871 9936 38b1 6736
00000260: dc68 7637 f2d0 d736 9f0f dbb9 f288 3d36
00000270: b2c2 80b1 f6cb 6f33 2a6b e6b4 0073 552f
00000280: fe3c 0b37 ea96 0830 2e5d 2ab2 c562 2eb4
00000290: a639 7c33 87b2 0eb8 f86b 3937 8e87 7537
000002a0: d5dd e237 e8da f537 c483 b4ba 4ea6 5e37
000002b0: 9303 90b2 7a3d f534 b56c ccb5 9554 ddb1
000002c0: c049 abb5 ada8 63af 40d6 8f31 7948 8e32
000002d0: 09b8 abb2 f672 4636 d0e9 aab5 9452 01b6
000002e0: 1f34 5cb6 ba5c 24b6 1725 a339 4ed6 8eb5
000002f0: 11ad c9af 0701 24b4 c80a ec34 f637 d230
00000300: 2055 a4b7 65b1 34b1 bcdb 0c33 d2d3 e434
00000310: f5d9 24b4 c516 8038 d18c 6fb7 6089 00b8
00000320: c016 dbb7 b818 34b8 ae1d 173b e03f dfb7
00000330: e058 0a33 79ad 8cb5 48a9 b135 a77b 6632
00000340: 4009 e8b6 10c5 cfaf a6f9 1b32 521f 2e34
00000350: bcaf 56b3 1c79 f737 f4d7 28b7 4ad8 4fb7
00000360: 86bc d3b7 3f8f dcb7 e99e a73a 09da 37b7
00000370: 912b 8232 b038 c2b4 065f a335 9d1f a131
00000380: 2993 eeb6 01ed a6b0 1b80 9732 63ce 1034
00000390: ba93 bab3 087f f437 155f f3b6 eed9 4db7
000003a0: 67a6 b7b7 0326 ceb7 0986 c73a 9bd1 40b7
000003b0: 7abd 6932 ec84 2db5 b806 0136 e0ac f231
000003c0: b6cb 0d37 5510 fc30 8c92 b1b2 123a 92b4
000003d0: a473 b133 065a 2ab8 90df 2837 a2a9 9637
000003e0: 21ef de37 8615 0b38 4c53 d4ba 7650 8937
000003f0: 2bf6 acb2 d161 4035 5fb9 8fb5 edbc 07b2
2.5417576e-06 1.4779768e-10 -5.4911697e-09 -2.7769909e-08 1.8550688e-08 -5.005014e-06 3.1190057e-06 1.9803133e-06
1.5406449e-06 3.934494e-06 -0.0004202298 1.3534758e-06 -6.3984096e-10 1.9753274e-07 -8.539773e-08 -1.3918235e-09
6.47358e-07 4.889408e-10 5.6151332e-09 7.0074435e-08 4.474044e-09 5.1910283e-06 -4.0477507e-06 -4.2097968e-06
-1.4865185e-05 -6.1094997e-06 0.00031897024 -3.1219076e-06 3.7181886e-09 -1.0854067e-07 5.157593e-07 -3.9781023e-10
9.404569e-06 5.6000304e-10 -1.1198676e-08 -1.5294754e-07 5.7677983e-08 -3.266014e-05 1.0207472e-05 1.4097803e-05
2.530625e-05 2.912624e-05 -0.0014240916 1.3015275e-05 -1.7697147e-08 3.5428667e-07 -1.7745546e-06 -5.2570686e-09
6.732591e-06 1.4380137e-09 -1.7719046e-08 -1.5277305e-07 7.036756e-08 -1.8923096e-05 5.400624e-06 7.925122e-06
1.4584588e-06 2.0687005e-05 -0.00078375154 1.0465061e-05 -1.4839442e-08 5.2729973e-07 -1.1861671e-06 -6.724867e-09
1.2109113e-05 2.080615e-09 -2.7173067e-08 -2.9460853e-07 1.2205878e-07 -4.1561052e-05 5.6706917e-06 1.7902747e-05
2.368539e-05 3.0777443e-05 -0.001390147 1.5466649e-05 -1.7248384e-08 7.492063e-07 -7.8287474e-07 -9.729666e-09
-5.482736e-06 -5.8879357e-10 8.156305e-09 1.1479167e-07 -3.595077e-08 1.2853713e-05 -5.263173e-06 -5.36708e-06
-8.538807e-06 -1.4973712e-05 0.0006731937 -6.3273583e-06 7.92476e-09 -3.0991342e-07 7.487338e-07 3.812006e-09
1.3841418e-05 2.2362023e-09 -2.8355249e-08 -3.4918952e-07 1.2303377e-07 -5.1371186e-05 1.1073104e-05 2.3811168e-05
2.7731041e-05 3.7997455e-05 -0.0018556275 2.0852945e-05 -2.4302304e-08 8.854659e-07 -1.0350873e-06 -1.09248095e-08
7.5859343e-06 1.5662273e-09 -2.0113111e-08 -1.7224706e-07 7.2293616e-08 -2.0573161e-05 5.1246084e-06 8.9235145e-06
9.649699e-07 2.2011183e-05 -0.00077984156 1.1997161e-05 -1.6723515e-08 5.5556694e-07 -1.3226388e-06 -6.983523e-09
-1.497383e-06 1.2921875e-11 -4.2358675e-10 8.0479445e-09 -2.1188655e-09 2.423228e-07 -7.2105706e-07 5.1392078e-08
-4.9581913e-06 -1.1145155e-06 -8.517e-06 -4.8864746e-07 -1.6391785e-10 -3.334775e-08 1.8247768e-08 5.0796417e-10
-3.5143773e-07 -4.0125064e-10 -3.4454661e-09 -7.495031e-08 -2.2914985e-09 -5.7130133e-06 4.5729867e-06 3.4524837e-06
1.4687157e-05 6.4318237e-06 -0.00041782574 2.8242907e-06 -3.7474246e-09 5.5832025e-08 -4.291881e-07 1.9413093e-10
8.2992465e-06 4.9690974e-10 -9.916489e-09 -1.6240945e-07 5.8725753e-08 -3.4021705e-05 1.1051998e-05 1.4634699e-05
2.7044598e-05 2.9308212e-05 -0.0013772179 1.3270952e-05 -1.6765432e-08 4.5679536e-07 -1.5230822e-06 -6.4415624e-09
-1.2761957e-06 -2.0705455e-10 4.186205e-09 1.6563932e-08 -1.999071e-08 2.9571215e-06 -1.2734035e-06 -1.9270565e-06
-3.2812893e-06 -2.4491878e-06 0.00031117417 -1.0642195e-06 -3.6684658e-10 -1.5274064e-07 4.396627e-07 1.5295416e-09
-1.9589963e-05 -2.6294285e-09 3.2796137e-08 4.262243e-07 -1.5352983e-07 6.107757e-05 -1.42782965e-05 -3.064552e-05
-2.6117428e-05 -4.2938365e-05 0.0023058462 -2.6613416e-05 3.221146e-08 -1.04813e-06 1.3236795e-06 1.3415877e-08
-6.9152156e-06 -3.7793102e-10 9.078951e-09 1.6216407e-07 -4.9985587e-08 2.950109e-05 -1.0063861e-05 -1.238852e-05
-2.5240948e-05 -2.6292748e-05 0.0012788448 -1.0958415e-05 1.5153804e-08 -3.6176561e-07 1.2172102e-06 4.6893107e-09
-7.1100844e-06 -1.214545e-09 1.763697e-08 1.3486128e-07 -8.688171e-08 2.914622e-05 -7.2530333e-06 -1.2269693e-05
-2.1892787e-05 -2.4574814e-05 0.0015222441 -1.1492894e-05 1.3605467e-08 -6.464095e-07 1.9226409e-06 7.0627806e-09
8.451685e-06 1.8340055e-09 -2.0672154e-08 -2.723687e-07 8.26324e-08 -4.0615e-05 1.00656325e-05 1.7960385e-05
2.6575815e-05 3.3160228e-05 -0.0016199141 1.636914e-05 -2.013538e-08 7.1667915e-07 -1.070828e-06 -7.900991e-09

layers.0.mlp.mlp.0.bias f4 [96]
00000000: c828 88b9 77f5 c139 29f5 68ba 820e 0eba
00000010: f603 a1ba 49ef 303a d709 b3ba 1147 feb9
00000020: 30f8 8c39 ec67 c7b9 e2f5 7cba 84b2 8d39
00000030: 36a9 bc3a 1d0b 6c3a eefb 673a 0b9c 93ba
00000040: f09d 82b9 d005 cfb8 a6c6 76ba 2188 03ba
00000050: 3cb4 b3ba 077f aeba 3a95 c3b7 36eb 0d3e
00000060: 9461 a739 1ae6 25ba 09df c937 88a6 03b8
00000070: de92 8237 d3c4 023a 10ba e439 6fe1 d139
00000080: 59b4 b23a 9e7b 6838 02e1 e1ba 2289 973a
00000090: 6e4a fa39 f56e a6ba 846a ac3a b7ca 833a
000000a0: fd72 25b9 8c32 443a e7d4 a4ba 57b7 9e39
000000b0: 412f 31b9 46ec 9cb9 60be b8ba 3fab a1b9
000000c0: 9acf 85b9 486e ae3a dd01 253a 8b10 e3b9
000000d0: 9b8a afb8 84aa f539 b8e6 ce39 de3c 9a38
000000e0: bc29 bf39 47c5 dcba 853f 0338 eb73 b3ba
000000f0: 5141 e037 e3fd 28ba d8f7 c8b9 a3d7 9138
00000100: 351e a8b9 54f9 a6ba a4f7 32ba d33b 2b3a
00000110: d6d2 b6ba 7f8c 8dba 2ce7 e2b9 722b 193a
00000120: a370 623a 34b9 12b8 24db 2939 4f36 1dba
00000130: 9365 343a c9ba 63ba 4d5c a3ba ec22 9fb7
00000140: c5ec 633a 3202 21ba 2073 86ba 1ae8 d039
00000150: 9581 e83d c184 46ba 65a2 93b8 42fc 25ba
00000160: 27c0 7839 b09f 1c3a d868 8038 0586 3939
00000170: 5550 8a38 235c ad3a 522d d439 22f8 fc39
-0.00025970326 0.00036994714 -0.00088866294 -0.0005419032 -0.0012284506 0.00067495235 -0.0013659549 -0.00048499604
0.00026887795 -0.00038033666 -0.00096496765 0.0002702662 0.001439369 0.00090043416 0.0008849491 -0.0011261714
-0.00024913205 -9.871612e-05 -0.0009413756 -0.0005017538 -0.001371033 -0.0013313004 -2.33153e-05 0.13859257
0.00031925424 -0.00063285383 2.4064926e-05 -3.1387928e-05 1.5565598e-05 0.00049884355 0.00043626176 0.00040031548
0.001363407 5.5428238e-05 -0.0017233195 0.0011561255 0.0004773917 -0.0012697863 0.0013154303 0.001005492
-0.00015778463 0.0007484339 -0.0012575657 0.00030272707 -0.00016897639 -0.00029930676 -0.0014094822 -0.000308359
-0.00025522412 0.0013308013 0.0006294528 -0.0004330914 -8.3704675e-05 0.00046857086 0.0003946328 7.3546296e-05
0.00036461453 -0.0016843461 3.129199e-05 -0.0013691162 2.6733296e-05 -0.00064465235 -0.0003833163 6.954304e-05
-0.00032065963 -0.00127391 -0.00068270625 0.0006532047 -0.0013948332 -0.0010799317 -0.00043278316 0.00058429607
0.0008638 -3.4981596e-05 0.00016198732 -0.00059971673 0.0006881591 -0.0008687196 -0.0012463421 -1.8970539e-05
0.0008694644 -0.000614199 -0.0010257699 0.0003984578 0.11352841 -0.00075728825 -7.0397546e-05 -0.000633184
0.00023722705 0.0005974723 6.123044e-05 0.00017692901 6.595316e-05 0.0013226311 0.00040469557 0.0004825006

layers.0.mlp.mlp.3.weight f4 [16, 96]
00000000: a5b1 d438 0d6b 7cb9 fdbe 653a c613 163a
00000010: bcfc 783a 1ebf bbb9 427a 983a 0ed9 253a
00000020: 2a20 b338 cc20 8739 dd13 5b3a c930 82b8
00000030: d13c beba 698c 4bba c5af 3fba 1881 783a
00000040: 7823 e038 7b78 92b8 2ac4 7d3a ed3d 2d3a
00000050: 839e a03a c94d 9e3a 068f 80b7 eba9 10be
00000060: d2d8 00ba da18 113a 9243 c9b7 d814 b6b7
00000070: e2db 0c3a e924 af38 2742 e2b8 daec 91b9
00000080: fd50 9bba f126 0eb8 0d22 c73a 7812 89ba
00000090: 2fb7 95ba d6c6 9d3a 4a37 99ba 7832 51ba
000000a0: 4b7d 88b9 0244 03ba ddc2 8f3a a8bb 29b9
000000b0: 5b10 6236 cf55 0339 3021 b33a 775e 35b8
000000c0: 50ca 00b9 4b6f 9fba d1fc a8b9 ff84 b939
000000d0: dfe5 5c39 660f 10ba 31d1 8eb9 ed91 2f38
000000e0: 5dda 8db9 781b c63a 3f42 e237 b16c ac3a
000000f0: cea2 5637 5b72 183a a08f b238 0f4b adb8
00000100: 8c8a ba39 6659 9d3a ef45 da39 1b0f b1b9
00000110: cdbb 9b3a d2fb 613a b4b9 92b8 1aff 0dba
00000120: b0f9 49ba 7e3d b4b7 03b8 48b9 2989 9239
00000130: 6d96 15ba eb0d 3d3a a62f 743a e7f5 2eb6
00000140: 0bce 7aba d1a5 a839 f673 703a f699 84b9
00000150: b713 5fbe 5adc ac3a 71c7 f5b8 e4f7 bd39
00000160: f194 d3b8 aa5f b0b9 be30 e937 78cc cdb9
00000170: 267d 37b9 7fe4 94ba 9d24 9fb9 bbd7 adb8
00000180: f753 00ba 14a6 b939 dad9 56ba e251 21ba
00000190: de35 9cba da72 cd39 628d b0ba f3c6 25ba
000001a0: 250a 87b8 24a1 aeb9 0c9d 4cba ff60 2739
000001b0: 6bbc d93a 1cfc 413a 076c 603a 0d6a 86ba
000001c0: 0b7e 0dba fc95 7eb9 6912 6bba 74d7 42ba
000001d0: 6a57 b7ba 0789 aaba 5872 5937 e05f df3c
000001e0: a1d8 cf39 0b3d 0aba f078 0338 7003 4837
000001f0: 5486 20ba 39a8 9339 9fbd a639 f782 a339
00000200: 8c5a b33a e1cf 5238 8b77 e5ba 3362 d93a
00000210: cc6a a23a 476c 9fba 6124 a83a 67e7 503a
00000220: f6c5 7bb9 daf0 293a 470b 9fba 1c80 8739
00000230: e215 8ab8 f7c9 3fb9 dc79 caba f5e3 7a37
00000240: 8553 90b8 7c32 b23a 28ae 093a 4b13 b6b9
00000250: fe1d 63b8 4f4c 153a a02d c739 efc6 7fb7
00000260: 8870 393a c4f5 e6ba e522 a2b7 034c c0ba
00000270: 0b92 8eb8 6faf 2aba 00d7 11ba a528 8d39
00000280: 44ac 3aba 9340 abba 6526 dfb9 03c6 f539
00000290: f290 b8ba 02c5 76ba 22f1 4db9 773d 0a3a
000002a0: 2d07 3d3a 7af8 d638 d932 d538 c83f 12ba
000002b0: 4216 133a b218 3cba 8073 acba 8709 9036
000002c0: 5231 883a f08b c7b9 1468 79ba 6082 bf39
000002d0: a3ed 073d 5794 ceba 129b b6b9 d041 e3b9
000002e0: d43f a739 cb9b 313a c4ab 93b6 cd40 a539
000002f0: 24b5 7638 fc8f a93a b42a 013a ee2a 8939
00000300: f62d 01ba eca2 ba39 5272 57ba 9779 22ba
00000310: b675 9cba 080f d139 b538 b1ba cacf 26ba
00000320: 0460 82b8 aeee afb9 d45d 4dba f978 2839
00000330: 7ca3 da3a 88a4 423a 6da7 613a fe00 87ba
00000340: eb42 0eba 04ed 7fb9 0f7b 6cba b9a2 43ba
00000350: d919 b8ba 3303 abba 69d5 5a37 a748 df3c
00000360: afc4 d039 0628 0bba 5a16 0438 7fc1 4937
00000370: 4933 20ba 3c2a 9639 74b2 a639 f7d4 a439
00000380: d40e b43a 6ed4 5238 2483 e6ba f589 da3a
00000390: 2ebc a23a fb91 a0ba e909 a93a 8c68 513a
000003a0: d1d2 7db9 0f83 2a3a 0eb8 9fba 9941 8839
000003b0: 1749 8bb8 fa14 41b9 ac2e cbba 9efe 4c37
000003c0: a05e 8eb8 a3fe b23a 5f3d 0b3a 0505 b8b9
000003d0: 8806 66b8 6652 163a 23f1 c739 1262 80b7
000003e0: 6d36 393a 45fa e7ba b81e a3b7 a832 c1ba
000003f0: 9319 8eb8 07ba 2aba 06c7 12ba c831 8b39
0.000101420366 -0.00024072472 0.0008764116 0.00057249924 0.00094981096 -0.00035809813 0.0011633115 0.0006326594
8.541376e-05 0.00025773642 0.0008357147 -6.20797e-05 -0.0014513974 -0.0007764758 -0.00073122635 0.00094796857
0.00010687759 -6.984264e-05 0.0009680415 0.0006608654 0.0012254271 0.0012077625 -1.532539e-05 -0.14127319
-0.0004915121 0.0005535014 -2.3992532e-05 -2.1705797e-05 0.0005373341 8.351525e-05 -0.000107888416 -0.00027833023
-0.0011849698 -3.3891705e-05 0.0015192643 -0.0010457775 -0.0011422391 0.0012037407 -0.0011689451 -0.0007980238
-0.00026033292 -0.00050073874 0.0010968108 -0.00016187003 3.3686144e-06 0.000125251 0.0013666507 -4.324174e-05
-0.00012282399 -0.0012163905 -0.0003223182 0.0003538504 0.00021066469 -0.00054954586 -0.0002724021 4.1859155e-05
-0.0002705631 0.0015114387 2.6972148e-05 0.0013154951 1.27933e-05 0.000581538 8.514454e-05 -8.2632636e-05
0.0003557991 0.0012004792 0.00041632305 -0.00033771325 0.001188153 0.0008620593 -6.9964124e-05 -0.0005416736
-0.0007704748 -2.1486307e-05 -0.00019142036 0.00027949482 -0.0005706314 0.0007211852 0.00093149615 -2.6071154e-06
-0.0009567446 0.00032167 0.0009172553 -0.00025291712 -0.21784864 0.0013188228 -0.00011719659 0.00036233582
-0.000100890065 -0.0003364061 2.7798462e-05 -0.00039252988 -0.00017498861 -0.0011359601 -0.00030354122 -8.289466e-05
-0.0004895324 0.00035409688 -0.00081959146 -0.0006153864 -0.0011917909 0.00039186218 -0.001346987 -0.0006323896
-6.439191e-05 -0.00033307925 -0.0007805384 0.00015962495 0.0016611939 0.0007399933 0.0008561019 -0.0010254994
-0.0005397505 -0.00024279201 -0.0008967282 -0.0007432618 -0.0013987843 -0.0013010808 1.2960831e-05 0.027267396
0.00039643518 -0.00052733783 3.1345466e-05 1.1921729e-05 -0.0006123532 0.0002816336 0.00031803266 0.0003118736
0.0013683601 5.0261504e-05 -0.001750694 0.0016585052 0.0012391447 -0.0012163006 0.0012828225 0.0007969052
-0.00024010972 0.0006482728 -0.0012134098 0.00025844655 -6.584429e-05 -0.00018290417 -0.0015447694 1.4954237e-05
-6.882012e-05 0.0013595368 0.00052520866 -0.0003472812 -5.414895e-05 0.000569527 0.0003799023 -1.5245502e-05
0.00070739584 -0.0017620851 -1.9328154e-05 -0.0014671091 -6.79829e-05 -0.0006511127 -0.00055633485 0.00026923898
-0.00071210065 -0.0013065509 -0.0004256248 0.00046877572 -0.0014081283 -0.0009413512 -0.00019640152 0.0005273441
0.0007210847 0.000102505976 0.000101661026 -0.0005578962 0.00056109217 -0.0007175311 -0.001315698 4.2926436e-06
0.0010390675 -0.000380605 -0.0009514105 0.00036527496 0.033185612 -0.0015760761 -0.00034829282 -0.00043345848
0.00031900278 0.0006775229 -4.4009375e-06 0.00031519533 5.881967e-05 0.0012936587 0.0004927323 0.0002616266
-0.0004927808 0.0003559807 -0.0008218634 -0.0006197928 -0.0011936936 0.00039874786 -0.0013520928 -0.00063633604
-6.216767e-05 -0.0003355643 -0.0007834111 0.00016066794 0.0016680802 0.000742503 0.0008608017 -0.0010299978
-0.00054268417 -0.0002440699 -0.00090210227 -0.0007462907 -0.0014045789 -0.0013047218 1.3043501e-05 0.027256323
0.00039819392 -0.0005308393 3.149207e-05 1.2025585e-05 -0.00061111577 0.00028641697 0.00031794945 0.0003143919
0.0013737329 5.0265742e-05 -0.001758669 0.0016673194 0.0012415701 -0.0012250537 0.001289663 0.0007988296
-0.00024206495 0.00065045146 -0.001218559 0.00025988815 -6.6416505e-05 -0.00018413729 -0.001550158 1.221863e-05
-6.788713e-05 0.001365621 0.0005311574 -0.00035098955 -5.4842356e-05 0.0005734324 0.000381359 -1.5304457e-05
0.00070653 -0.0017698487 -1.9445419e-05 -0.0014739828 -6.775851e-05 -0.00065127056 -0.0005599115 0.00026549236

layers.0.mlp.mlp.3.bias f4 [16]
00000000: a60b ff3c 3100 4dbb c952 71bb 46ba 413d
00000010: a572 69bb 2426 43bb 6f9c 16bd 6b54 6bbb
00000020: 616b babc 3251 e5bd 6d43 27bd 2cb0 25be
00000030: 644b c93d 697f 013c fc5f 823a 05c6 533c
0.031133484 -0.0031280632 -0.0036823025 0.047296785 -0.0035621312 -0.0029777372 -0.03677028 -0.0035908471
-0.02275628 -0.111971274 -0.040835787 -0.16180485 0.09828833 0.007903912 0.0009946818 0.0129256295

layers.1.conv.norm.weight f4 [16]
00000000: 82ef 48b8 13fa 44b8 f0ed 3cb8 6dee 53b9
00000010: 0f18 9038 dafe 8d38 5fcc e43f fca3 67b8
00000020: d158 41b9 383e 5939 6624 783f 4e3c 5c39
00000030: 9a6c 7b3f 2b58 0cb8 fb95 7d38 a9d9 91b7
-4.7906775e-05 -4.696294e-05 -4.504429e-05 -0.00020211349 6.870936e-05 6.770874e-05 1.7874869 -5.5227414e-05
-0.00018439001 0.00020717911 0.9693054 0.000210033 0.9821259 -3.3460714e-05 6.045958e-05 -1.7386703e-05

layers.1.conv.norm.bias f4 [16]
00000000: e85a 9cb8 54cc 1338 6b6e 0b38 d1b8 f7b8
00000010: 07bd f637 8555 f837 2cb4 ee3d 93e6 91b7
00000020: 68db f1b8 f704 8cb8 c60f 10be bfd5 a6b8
00000030: 135e 143e 7f75 6c37 86c9 0038 f812 0eb8
-7.455592e-05 3.5237827e-05 3.3243017e-05 -0.000118123025 2.9413508e-05 2.9603727e-05 0.11655459 -1.7392716e-05
-0.00011532643 -6.676645e-05 -0.14068517 -7.95531e-05 0.14489011 1.4094053e-05 3.070526e-05 -3.3873104e-05

layers.1.conv.msg_mlp.0.weight f4 [16, 16]
00000000: 5a0d 8a39 903d 64b9 75b5 62b9 7d03 3939
00000010: 1b58 4a39 6c0e 5639 d3d8 963e e36b 84b9
00000020: 929c 083a 5c18 db39 cc2d 073f ba34 1e3a
00000030: 49f5 45bd 42ca 89b9 ff96 f4b9 eeb4 a339
00000040: 5082 9138 a04a a0b7 d99c 96b7 96ae 1339
00000050: db13 d3b7 84d4 b7b7 c385 183e 8ddb 5b37
00000060: a5fc 5e38 dd30 0138 11f3 ffbd 076c 1338
00000070: 152f 563e 8374 57b6 196c 5ab8 107b 0837
00000080: 7a65 3e80 fe99 a581 5b97 9681 3267 0b81
00000090: 10ac 3a00 f2a7 5a01 b01d 1a80 484e 6700
000000a0: 1093 e280 d0f5 f380 0d73 ec00 928e 9281
000000b0: 9c0c 9500 0c83 0701 4853 1201 3495 5c80
000000c0: 4247 9981 4c7b bd81 303c a780 98da ff80
000000d0: fcbf 9c81 2cb8 9a01 90bd 1301 bc02 9581
000000e0: eaf4 8a81 dc61 1701 5145 ad01 044b 9001
000000f0: 8485 3a80 701d 6d00 54f8 4301 2e41 8181
00000100: 09f3 b0b0 d625 89b0 fa9e 33b0 e51b 0031
00000110: a9db 14b1 710d 17b1 ca33 873a 7faf fe30
00000120: ce2a 5532 43b9 ab32 81f5 f5b9 f82f ea32
00000130: 4c36 f5b8 ac8e 99b0 cac3 4bb2 8a6b 2cb0
00000140: 3084 ff38 62d3 d2b8 5dad cab8 5697 de38
00000150: 52ec a238 cb4a a938 b722 11bc eea4 b9b8
00000160: 54b2 a239 f49c 8a39 0701 ebbd 3ec0 b739
00000170: 926e 14bf 0ff4 c1b8 ceff 40b9 df8c f238
00000180: 7610 2db5 3e19 bbb6 d66f b9b6 0e82 bf38
00000190: 6221 feb7 0361 02b8 ae05 b43d 9178 ac37
000001a0: fc0a 0538 3bfe 8337 0d4c 93bd e659 b037
000001b0: 77f5 f43d 84ca 4c37 ef86 3cb7 267e 51b6
000001c0: 2808 2080 b89f bf80 f88d 9e01 a0fc ca00
000001d0: f014 6901 f87c 6701 840c 4f00 0c9a 8f81
000001e0: a887 a501 7404 6701 cb2c 9881 8ac6 b581
000001f0: e3fa 5c80 6c97 5881 2276 ae01 c001 e300
00000200: 34f1 2581 679c 6b02 64f3 d801 ea91 8b81
00000210: 6206 aa81 4261 b201 36ec 9a39 14c5 8001
00000220: 412e 3482 d8e0 5081 cd16 e1b6 6740 2002
00000230: f754 acb8 e42f 8382 30ce f101 7813 3500
00000240: 0e15 0839 8ac8 d4b8 f4d1 cdb8 7c9c dc38
00000250: 761a a638 9007 ad38 287c 83bb a108 bcb8
00000260: b895 a239 025d 8a39 e621 f0bd 52bd b739
00000270: 6334 15bf 1da2 c1b8 968f 49b9 762f f638
00000280: 34d0 9181 dc8a 2b02 fc71 2882 a93f 6682
00000290: c461 1602 f5f0 4102 382c 663a 0241 4002
000002a0: 8826 dd01 f047 5702 5f3e 48b8 c7c2 6702
000002b0: 14ea 0dba b04e b700 602b 1f81 1484 7a02
000002c0: 7c1e ab80 b08d 6781 20ae 1e80 68f0 6d01
000002d0: 7e64 9981 2cde 8581 3f79 db80 5c85 9801
000002e0: 8419 2000 381e 0001 fdad 3600 20e5 7d00
000002f0: acaa 7300 64f5 8b01 606c bd80 b062 c900
00000300: c7cc d2b4 fbf2 4234 7ad3 3534 07f0 3434
00000310: 4c5d 8b33 7ba1 9033 5a7f 2839 bea4 9eb3
00000320: e8b2 61b5 2ce9 21b6 9c6a c13a 9730 12b6
00000330: f4f0 0dba ec74 80b1 01ab 0ab4 a07f a833
00000340: d0b4 6b80 ea84 a601 5ac7 8201 90ed 8c01
00000350: e00b 0980 2c97 4781 6123 ff01 a025 a401
00000360: 1443 1d01 57d9 9501 c33e 7400 c419 bb00
00000370: cab0 cf00 9683 8a81 4862 a200 f02f b300
00000380: e4d3 d426 e89e 7a27 1e90 6e27 9c99 e0a7
00000390: 44cb 92a7 e5a1 9aa7 f2a2 4032 c7ba 2c27
000003a0: 94a1 82a9 ab6c 1ea9 8e2b cfab 5535 93a9
000003b0: 443a 1d2d a138 12a6 58d5 c228 3059 26a7
000003c0: da47 6c37 b809 0438 111a dd37 96ef 99b8
000003d0: 79ec d3b8 3e76 cbb8 6a2c e33f 8840 5238
000003e0: 208e 6bb8 ef9b 88b7 04e4 41bf 3d7c 6bb8
000003f0: 68f2 0cbe 4213 d8b7 59a9 0139 4030 83b7
0.0002633136 -0.00021766708 -0.00021620638 0.00017644274 0.00019297043 0.00020414003 0.294623 -0.00025257384
0.0005211319 0.00041789084 0.52804255 0.00060350785 -0.048329625 -0.0002628137 -0.00046651807 0.00031224586
6.9384114e-05 -1.9108236e-05 -1.7954431e-05 0.00014084051 -2.5162406e-05 -2.191426e-05 0.14894776 1.3104535e-05
5.3164218e-05 3.0801504e-05 -0.12497533 3.514814e-05 0.20916398 -3.2105315e-06 -5.2075924e-05 8.134884e-06
-5.730204e-39 -6.0832395e-38 -5.531848e-38 -2.5604307e-38 5.388183e-39 4.016077e-38 -2.398373e-39 9.487138e-39
-2.0807578e-38 -2.2404206e-38 2.171445e-38 -5.383651e-38 1.3688012e-38 2.4889605e-38 2.6875716e-38 -8.50239e-39
-5.6305574e-38 -6.960456e-38 -1.5358119e-38 -2.3496468e-38 -5.7580834e-38 5.683494e-38 2.713564e-38 -5.473788e-38
-5.104463e-38 2.780453e-38 6.364963e-38 5.300489e-38 -5.374355e-39 1.0020629e-38 3.599401e-38 -4.7480644e-38
-1.287476e-09 -9.978816e-10 -6.534574e-10 1.8642308e-09 -2.1661697e-09 -2.1981033e-09 0.0010315117 1.8530811e-09
1.2407964e-08 1.9991267e-08 -0.00046912956 2.7262999e-08 -0.00011692624 -1.1172765e-09 -1.18606724e-08 -6.272606e-10
0.000121839694 -0.000100529534 -9.664402e-05 0.000106139734 7.76878e-05 8.072479e-05 -0.008858374 -8.852208e-05
0.00031031913 0.0002643835 -0.11474805 0.00035047712 -0.57981217 -9.2484166e-05 -0.00018405842 0.000115656985
-6.4471476e-07 -5.575973e-06 -5.526449e-06 9.131814e-05 -3.0294705e-05 -3.1084764e-05 0.08790146 2.0560141e-05
3.17199e-05 1.5734802e-05 -0.0719224 2.1022697e-05 0.11960881 1.2206499e-05 -1.123709e-05 -3.1216855e-06
-2.941662e-39 -1.7597876e-38 5.824375e-38 1.8641395e-38 4.2810363e-38 4.251766e-38 7.259494e-39 -5.275095e-38
6.0806085e-38 4.2431194e-38 -5.5900256e-38 -6.677379e-38 -8.538867e-39 -3.9781574e-38 6.408702e-38 2.0847285e-38
-3.0478768e-38 1.7309959e-37 7.9695117e-38 -5.126991e-38 -6.2457296e-38 6.552643e-38 0.0002954916 4.730257e-38
-1.3237586e-37 -3.8364884e-38 -6.708177e-06 1.1773426e-37 -8.217425e-05 -1.9276208e-37 8.8825283e-38 4.874265e-39
0.00012977814 -0.00010146301 -9.8142686e-05 0.00010519565 7.9204256e-05 8.2506915e-05 -0.0040126033 -8.966146e-05
0.00031010597 0.00026390707 -0.117252156 0.00035045535 -0.5828306 -9.233153e-05 -0.00019222344 0.000117390344
-5.3563345e-38 1.2602947e-37 -1.2375403e-37 -1.6916001e-37 1.1048317e-37 1.4248552e-37 0.0008780393 1.4124589e-37
8.123787e-38 1.581635e-37 -4.7741803e-05 1.7027098e-37 -0.00054136035 1.6834124e-38 -2.9234808e-38 1.8405004e-37
-1.5714806e-38 -4.2529655e-38 -2.817529e-39 4.3702508e-38 -5.6347523e-38 -4.9175285e-38 -2.0155469e-38 5.6027343e-38
2.947889e-39 2.3531568e-38 5.021532e-39 1.1561632e-38 1.0622308e-38 5.1412654e-38 -1.7395786e-38 1.8494337e-38
-3.9264543e-07 1.8156054e-07 1.6933873e-07 1.6851128e-07 6.4896625e-08 6.734896e-08 0.0001606917 -7.387415e-08
-8.4079375e-07 -2.4126593e-06 0.0014756504 -2.1783978e-06 -0.0005414628 -3.7385828e-09 -1.2914462e-07 7.8463245e-08
-9.891261e-39 6.116949e-38 4.8040513e-38 5.1768763e-38 -8.3078e-40 -3.6658988e-38 9.372297e-38 6.0298075e-38
2.8884472e-38 5.5045823e-38 1.0675432e-38 1.7182481e-38 1.9073368e-38 -5.088201e-38 1.4912607e-38 1.645575e-38
1.4767888e-15 3.4780613e-15 3.3107261e-15 -6.2339033e-15 -4.074352e-15 -4.2919113e-15 1.121292e-08 2.3971047e-15
-5.801189e-14 -3.5177302e-14 -1.4720323e-12 -6.537363e-14 8.937354e-12 -5.073067e-16 2.163085e-14 -2.3085476e-15
1.4083425e-05 3.1480304e-05 2.6357391e-05 -7.340235e-05 -0.000101053105 -9.7018186e-05 1.7747929 5.0128e-05
-5.616073e-05 -1.6285076e-05 -0.7573855 -5.6144072e-05 -0.13764346 -2.5758174e-05 0.00012365486 -1.5638885e-05

layers.1.conv.msg_mlp.0.bias f4 [16]
00000000: b52a edbd dc35 e63c dfdd 1f82 2083 1682
00000010: 328b 01ba efc6 c73d 9917 843c 9fe5 3c82
00000020: 6f2c 27b9 eab2 cf3d f861 8aba 5a43 5a82
00000030: e440 9739 3f9d d481 307a cfb1 0d23 6d3d
-0.11580411 0.028101854 -1.1745149e-37 -1.1057891e-37 -0.0004941701 0.097547404 0.016124533 -1.3877957e-37
-0.00015942914 0.10141547 -0.0010557761 -1.603544e-37 0.00028849312 -7.810214e-38 -6.038384e-09 0.057894755

layers.1.conv.msg_mlp.2.weight f4 [16, 16]
00000000: be44 90be b245 1f3e 7f85 fa80 cc52 8302
00000010: 1dc2 cfb6 069b a33e 8916 b43d f5a3 6d00
00000020: cec8 aab7 a189 a53e c918 98b9 716f 1501
00000030: 3a86 92b9 46e7 9f80 7e83 b62f 83ac 843f
00000040: 9fe9 8bb9 20b5 bfba 9411 c700 1839 7380
00000050: 98e4 22b4 be52 a4bb f037 d5b9 1a91 8381
00000060: 3288 f60b aee6 a4bb 00e1 3fb8 d606 3681
00000070: 0834 95b7 7336 7b80 3dd7 9f2a 3d1d 2ebc
00000080: 1a43 32b9 5b38 c2ba 153f 9001 7fd8 8501
00000090: f9b5 1fb4 0246 a4bb 543a dab9 9063 1e01
000000a0: c114 af86 e6f0 a4bb 09cf 3bb8 022f 4501
000000b0: 37a3 8ab7 70ef 2e00 dd77 daaa f238 30bc
000000c0: da54 eaba bb02 6438 bea5 5581 bc16 f880
000000d0: 27b4 54b4 4f21 b4bb c50a e639 08f6 a381
000000e0: 31ba 8eb4 d1aa b6bb 1c9d 073b 2a22 2881
000000f0: 45b5 053b a268 7c81 10e0 7b2a a96a febb
00000100: 6280 52b9 9ba2 bfba 8920 2081 84e6 ae80
00000110: 9341 23b4 b364 a3bb d5e7 d4b9 f829 8480
00000120: 15fd 3d0b 0b09 a4bb a9c9 39b8 d462 6580
00000130: 9a20 4ab7 6dff 3781 8f91 daaa 511a 2ebc
00000140: b824 a5b9 8f27 c0ba 505c f100 0805 bd80
00000150: 4e50 21b4 5a13 a7bb 43f4 d5b9 d2c9 8d81
00000160: 5283 1085 70ad a7bb 0fa0 42b8 65b6 9301
00000170: 662e 9cb7 772b 8801 9dfe d4aa 47ed 2ebc
00000180: 1625 8cbd 8579 213d c854 a881 2d3c 4c01
00000190: 075c 0837 179d 923d 3fa0 b13c de65 4400
000001a0: 2684 25b7 f6db 933d 0c62 28ba 82ea 8881
000001b0: 19ba 743b d1d7 0c80 288e a82a 345b 7c3e
000001c0: 5be2 59b9 32af c0ba d0a0 3681 f81c b080
000001d0: 0999 21b4 e718 a4bb c40a d7b9 98c5 c980
000001e0: 0416 868e 7ab9 a4bb b5e7 3cb8 c0ef 0101
000001f0: 2cf6 8bb7 b60f b180 38f9 0bab 3a47 2fbc
00000200: 4e1d 6fbe 8d64 093e 9414 d280 a9b3 5a02
00000210: 64ff 0a36 d0a7 8c3e 2a6d 9a3d 0871 7e81
00000220: cfb8 49b7 11a3 8c3e bed3 dd39 8426 8d01
00000230: 130d 2739 e8db 2e01 f145 e72f aa1f 5e3f
00000240: a4c9 3e3e 9a7a d6bd 7976 a400 d8ff 1180
00000250: 71e9 1ab7 a948 38be 03c3 70bd 7e38 6080
00000260: 0bc5 1538 5eba 38be a063 f7ba e5a4 c480
00000270: 3ff9 063a cf95 a680 a4c6 9fac aa2e 22bf
00000280: 8ec1 babb 7c16 e43b 8996 9180 c028 fc80
00000290: f498 02b6 406e 17bd b77b a53b 39d0 8181
000002a0: 52dc 47b2 2dcf 1cbd 7cb8 393a 881c b001
000002b0: 18e5 83ba 3c32 6d00 3c8a 2f2c 4809 bebd
000002c0: e95a 8f3e ae45 19be db66 a300 0a01 5d82
000002d0: 703c be36 7529 82be 3d20 adbd 4ab2 9601
000002e0: fa76 cf38 97ff 81be 2cd8 0bbb 9a13 7681
000002f0: db80 0a3a 5f4d 2a80 994c 06ad 48ed 6ebf
00000300: 322c 7b3c 3adc 92bb def7 8181 1e64 1801
00000310: 69ee 84b4 f92e 8d3a bd8d 0fbb 3885 a580
00000320: f2c3 a7b5 b006 c33a e244 f5b9 b527 9681
00000330: 6f70 543b f637 8101 c17c d22a a2e8 2fbc
00000340: daa0 47bc 36b1 9a3b fe5b 7f01 e0ab 0980
00000350: a300 3734 0b5e 083a 9107 0d3b fc07 1101
00000360: d005 081d 5012 4a39 206a 03b9 370b 1581
00000370: 7f79 8ab9 8a71 2c00 d325 9caa 58b3 573c
00000380: 1daf 2abe b3da c13d cca1 b480 d0f3 b501
00000390: f48f 2b37 e51d 3a3e 452d 593d eefd 3d81
000003a0: 6bc8 4fb7 411c 3c3e 98ca 80b9 35c7 a300
000003b0: b455 cbb9 dc87 2881 ce23 952e 7da9 173f
000003c0: 3163 063c ce95 88bb d50f 4680 e8f2 6e81
000003d0: d3c9 4934 d698 9bbb 582b faba 8c62 0001
000003e0: 4587 1c81 1239 96bb 9a6a fdb9 36e6 f080
000003f0: ba64 c739 9a72 a881 6e03 37ab c2a2 94bc
-0.28177446 0.1555393 -2.3006763e-38 1.9296243e-37 -6.1916785e-06 0.3195421 0.08793361 1.0068886e-38
-2.0359086e-05 0.32331565 -0.00029010166 2.7446933e-38 -0.00027947297 -1.4684809e-38 3.3199038e-10 1.0365146
-0.00026686207 -0.0014626123 1.828157e-38 -1.0581563e-38 -1.5170588e-07 -0.0050147464 -0.00040668203 -4.833001e-38
9.496068e-32 -0.005032382 -4.5747496e-05 -3.3433025e-38 -1.7786413e-05 -1.1315299e-38 2.8393425e-13 -0.010627088
-0.000170004 -0.0014817821 5.2987764e-38 4.916714e-38 -1.487423e-07 -0.0050132284 -0.00041623658 2.909145e-38
-6.585818e-35 -0.0050336 -4.477709e-05 3.6216912e-38 -1.6526885e-05 4.310327e-39 -3.880775e-13 -0.010755764
-0.0017878071 5.436198e-05 -3.9240836e-38 -2.2783359e-38 -1.9809578e-07 -0.0054971348 0.00043877042 -6.022978e-38
-2.6585033e-07 -0.005574562 0.002069301 -3.0881238e-38 0.0020402235 -4.636016e-38 2.2371016e-13 -0.0077641797
-0.00020074987 -0.0014620604 -2.9410702e-38 -1.606207e-38 -1.5204414e-07 -0.0049863695 -0.0004060852 -1.2137341e-38
3.6590474e-32 -0.005005961 -4.4295248e-05 -9.310838e-39 -1.2047729e-05 -3.379505e-38 -3.882558e-13 -0.0106263915
-0.0003149861 -0.0014660227 2.216547e-38 -1.7358714e-38 -1.5023508e-07 -0.0050987424 -0.00040808515 -5.208482e-38
-6.794967e-36 -0.005117111 -4.640227e-05 5.4260995e-38 -1.8618255e-05 5.002088e-38 -3.7835438e-13 -0.0106766885
-0.06843011 0.03942253 -6.183511e-38 3.7512056e-38 8.1276585e-06 0.07158869 0.021682857 6.281357e-39
-9.865535e-06 0.072196886 -0.00064233015 -5.029501e-38 0.0037342368 -1.179446e-39 2.9941436e-13 0.24644166
-0.00020779057 -0.001470065 -3.3543498e-38 -1.617344e-38 -1.5049967e-07 -0.0050078514 -0.00041016017 -1.8529818e-38
-3.305475e-30 -0.0050269933 -4.5038487e-05 2.386557e-38 -1.6684724e-05 -1.6260519e-38 -4.972858e-13 -0.010698134
-0.23351023 0.13417263 -1.9292836e-38 1.606767e-37 2.071226e-06 0.2747178 0.07540353 -4.6733528e-38
-1.2023563e-05 0.2746816 0.00042310165 5.1850487e-38 0.00015931232 3.2116528e-38 4.2068352e-10 0.86767066
0.18631607 -0.10472603 1.5103521e-38 -1.652983e-39 -9.233468e-06 -0.17996468 -0.058779728 -8.836473e-39
3.570788e-05 -0.18039843 -0.0018874295 -1.805891e-38 0.0005148835 -1.5298434e-38 -4.5411053e-12 -0.63352454
-0.005699343 0.006960688 -1.3370149e-38 -2.3157163e-38 -1.946054e-06 -0.036970377 0.0050501483 -4.76859e-38
-1.163342e-08 -0.038283516 0.000708468 6.469313e-38 -0.0010062782 1.002809e-38 2.4945731e-12 -0.09279114
0.27999046 -0.14967987 1.5006083e-38 -1.6236814e-37 5.669477e-06 -0.25422254 -0.084534146 5.535713e-38
9.89269e-05 -0.25390312 -0.0021338565 -4.5197128e-38 0.0005283483 -3.884846e-39 -7.634026e-12 -0.9333081
0.015330361 -0.0044818195 -4.774279e-38 2.798982e-38 -2.4760382e-07 0.0010771445 -0.002190455 -1.5200647e-38
-1.2499497e-06 0.0014879312 -0.00046781363 -5.5158274e-38 0.0032415648 4.7467416e-38 3.739006e-13 -0.010736616
-0.012184346 0.004720832 4.6902104e-38 -8.88177e-40 1.7043435e-07 0.0005202002 0.0021519403 2.6638022e-38
1.8002455e-21 0.00019271043 -0.00012532668 -2.7375024e-38 -0.00026411933 4.081492e-39 -2.7737413e-13 0.0131653175
-0.16668363 0.09465542 -1.6588431e-38 6.6838753e-38 1.0225911e-05 0.18175466 0.053021688 -3.4896003e-38
-1.2384825e-05 0.18370153 -0.00024565007 1.5040648e-38 -0.0003878303 -3.09542e-38 6.782096e-11 0.59242994
0.00820236 -0.0041682487 -6.434164e-39 -4.3887973e-38 1.8793007e-07 -0.004748444 -0.0019086404 2.358059e-38
-2.8749726e-38 -0.00458444 -0.00048335345 -2.2123103e-38 0.00038031285 -6.18779e-38 -6.501942e-13 -0.018144015

layers.1.conv.msg_mlp.2.bias f4 [16]
00000000: a19f 403d f49f c2bd 47a3 c3bd 5d32 183b
00000010: 59a2 c3bd 19bf c0bd ec80 a73f c4be c3bd
00000020: db9a f33c cb08 bdbe e2b0 9cbe d990 aabe
00000030: e85d ebbe dbcb 823b a32a 573c 3f82 65bd
0.047027234 -0.09503165 -0.09552627 0.0023223378 -0.0955245 -0.09411449 1.3086219 -0.0955787
0.029736927 -0.3692077 -0.306037 -0.33313635 -0.45970082 0.0039915866 0.013132724 -0.056032415

layers.1.mlp.norm.weight f4 [16]
00000000: 147b 6b3e 4080 cbb6 5bc4 7835 7f0c 7d37
00000010: 1af6 b234 e0cb ceb9 8b1e a83a 1377 9a39
00000020: ed98 563e 43e6 573e acfa 183f b75e ab3e
00000030: f664 b8b2 2c66 8d3e 0927 fa3d e240 d3b1
0.2299617 -6.0648017e-06 9.2672934e-07 1.5082885e-05 3.3334146e-07 -0.0003944328 0.0012826485 0.00029461886
0.20956774 0.21083932 0.59757495 0.334707 -2.1466331e-08 0.27617013 0.122144766 -6.1482845e-09

layers.1.mlp.norm.bias f4 [16]
00000000: fb9b f5bb c7e8 3936 9da5 d5b4 3846 2238
00000010: 44d8 7435 e0f8 9f39 6b76 e0b9 1671 1b3a
00000020: 4170 27bc 4beb 30bc 5655 693d f86c efbc
00000030: 41cc 9b33 c8eb 733d 32ac e2bb 81e5 5c31
-0.007495401 2.7702642e-06 -3.979484e-07 3.8689206e-05 9.121179e-07 0.0003051227 -0.00042812838 0.0005929632
-0.0102196345 -0.010798286 0.05696615 -0.029226765 7.2549035e-08 0.05955103 -0.0069175 3.2144671e-09
