models/best_NN_len=100004_qbits=20_{Gen=true_L1=32_cp=0.00123418_w=Inf}_{L2=2_cp=1.0e-15}.pth (torch, 40210 bytes, 17 tensors)

input_proj.weight f4 [16, 60]
00000000: bbf5 5abe b03a 48be 0df9 ac39 0186 58be
00000010: 52c5 d9bd 5280 e1bb c5b4 d13e 33b1 303e
00000020: a3b2 62bd c437 e63d 3cc6 b13e 60fe 30bd
00000030: e02c c7be 21f2 943e c404 fa3d f8e2 b5bd
00000040: 395f f43d 5535 243c af69 3e3e c1ad bd3c
00000050: 629b edbb 71a2 983e cd9a 61bd 9ed1 49bd
00000060: a21b 2fbe bb70 33be 0c6b 0abd 0085 e8be
00000070: 3e44 b8bc 6e65 9a3c 08a0 4dbe 3b69 153e
00000080: ec9d 87bd 6995 fc3e 88b1 963e 7dd8 dbbb
00000090: 5295 cbbe b9aa 03bd afe9 65bd ef67 0680
000000a0: bb5b 8bbb e378 80be 2011 3500 b049 3300
000000b0: 5e09 1280 cb04 3400 f145 3380 30b8 4c01
000000c0: 9cd4 3a00 6d14 1a81 e1f7 013b 1675 34bb
000000d0: ef92 72bd 80c2 28be 76d9 5e3c 142e 57be
000000e0: 67e6 38bd 73fc 30be c604 e1bd a689 0c3e
000000f0: dae8 90bf 98de bfbe 640d 373c 76f5 7cbe
00000100: f3aa 00bc 3561 ef3d 01e3 843f 5391 653e
00000110: 8a8f 6dbd 6539 e9bf 6215 d0be 26ed 053c
00000120: 1b46 413f 57a5 183e c348 e03b 10e4 d0be
00000130: 3dfb 80bd 9806 b2bb 059b bdbe 8d36 02be
00000140: 4a22 c3bc db74 13bf 3e81 21be 2b7d 0abc
00000150: 97ec 6a3f 8652 0b3e 9203 0ebd faac 9bbf
00000160: 3ac5 87be d270 8ebc 4546 2c3f f3c5 fd3d
00000170: 8ae1 b0bc 2601 f3be cd44 cbbd 5a84 c7bc
00000180: ba58 f63d fb73 f03c 5e80 61ba 5a60 2300
00000190: d2b5 b1bb d5f9 993d 14f7 3e00 44ce 2e00
000001a0: 1134 2980 551f 4080 587e 4a00 1a73 0f00
000001b0: 9267 9b01 8e49 b500 cebd 2cbd 5691 b2bd
000001c0: 5405 0abe 6574 b6bc ce83 b3bd c4cf 043e
000001d0: b0a5 c1bd 328a 87be 6df8 ebbc a600 bf3d
000001e0: 81d4 6dbe 2df5 93be 4981 f93c 7080 87be
000001f0: 5574 43bd 18b0 063e 1311 42bf c762 0bbe
00000200: 88b6 5dbc 3836 1a3e a79a 9f3d 6421 27bd
00000210: 1041 28be 6cc9 16be c474 a93c edb8 28bf
00000220: 8df9 8cbe 7313 b53b 4e3a 083e 9b87 9f3d
00000230: fbcc 77b9 2c1c 03bf aefe 833d 41f9 95bb
00000240: 6e77 55be ce34 193e cf66 04bc 73df 4bbf
00000250: 3242 92bd a5ea 2d3c 9eff 783c 25f1 aabd
00000260: ef87 b2bc 7cf8 edbe 3a9b 1abe 2a60 a33c
00000270: 823f 713c b53a a13d 98c4 6e3c 4dbb 3d00
00000280: 2989 edbc 34b7 e73d 9053 2d80 1f60 4280
00000290: ef45 1700 4de3 3900 05d7 4900 8245 0200
000002a0: e4d5 2d00 c5fc 1601 89fa 83bd f478 f3bd
000002b0: 311c f33d f9ca 113e ebdb 373e 1d2e 203d
000002c0: 84aa 5fbd 6837 33bf 830d 16be ae13 293e
000002d0: c027 e7bf c348 2dbf 5f40 863c b189 55bd
000002e0: 9a6b 6ebe e5cc 283d 47e0 c0bf 56c2 0fbf
000002f0: df59 72ba 2f83 0ebf 46b6 a1be 19f1 69bc
00000300: 64fb 18bf 768f b5be 9ef1 303b 1ead 6cbf
00000310: 9b2c e7be c66e 21bc 94a4 6abf c1be e1be
00000320: 82ce 8ebc e2cd 0abf 6ca2 9fbe dd0b 89bc
00000330: a044 7dbf 9251 d7be 61e7 b9bc 03ff 5dbf
00000340: 46e5 c7be 7095 90bb 19be 04bf 2cc4 b4be
00000350: fa14 5dbc 4137 64bf 4784 e4be c2fe b8bc
00000360: 928a 2cbf 7348 c1be e356 8c3b 7ff4 3380
00000370: 88a3 09be 38b4 a9bd af3d 1f00 d7cb 2980
00000380: 144c ae81 19c6 1100 8286 0f80 483d 3b80
00000390: 1cf9 4a80 dfb5 9000 cdd7 ffbd e459 35be
000003a0: 9610 ccbe 5069 35bd d353 8dbf 947e babe
000003b0: 39ca 42bd 6c2b dabe cfe2 acbe 2b7a b6bb
000003c0: 79b2 643d a145 a7be 54dd 833b e9ef 9b3c
000003d0: 5ab6 8a3d 6ffb 073e 6044 e9be be7b aabd
000003e0: ee6f 70bb 55b8 d53e 012b bc3d 4431 86bc
000003f0: 8f1c f6bd 0396 ea3d 3068 d53c 4537 9e3e
-0.21382801 -0.19553638 0.00032991954 -0.21144868 -0.10633339 -0.006881752 0.4095823 0.17255096
-0.055346143 0.11241105 0.34721553 -0.04321134 -0.38901424 0.2909098 0.1220794 -0.088811815
0.11932225 0.010022481 0.18595003 0.023154141 -0.007251189 0.29811433 -0.05507927 -0.049272172
-0.17100385 -0.17523472 -0.033793494 -0.4541397 -0.022493478 0.018847194 -0.20080578 0.14590923
-0.06621918 0.4933274 0.2943232 -0.006709157 -0.3976236 -0.032145236 -0.05613106 -5.88297e-40
-0.0042528785 -0.2509223 4.873425e-39 4.710044e-39 -1.656399e-39 4.777165e-39 -4.7087e-39 3.760103e-38
5.402729e-39 -2.8299988e-38 0.0019831585 -0.002753561 -0.059222158 -0.16480446 0.013601651 -0.21013671
-0.045141604 -0.17283802 -0.109872386 0.13724384 -1.1321061 -0.37474513 0.011172626 -0.24703011
-0.0078532575 0.11688463 1.0381776 0.22418718 -0.057998218 -1.822064 -0.40641314 0.008174216
0.754976 0.14906822 0.0068446114 -0.40798998 -0.0629792 -0.005432915 -0.37032333 -0.12716122
-0.023820061 -0.5760018 -0.15771958 -0.008452694 0.9176726 0.13605699 -0.034671374 -1.2162163
-0.2651766 -0.017387781 0.6729472 0.123912714 -0.02159192 -0.47461814 -0.09925232 -0.024355102
0.12028642 0.029352179 -0.0008602197 3.248807e-39 -0.005423286 0.07518355 5.782436e-39 4.298427e-39
-3.783933e-39 -5.888712e-39 6.84115e-39 1.418823e-39 5.7086624e-38 1.6648611e-38 -0.0421732 -0.08719127
-0.13478595 -0.022272298 -0.08765374 0.12969881 -0.094554305 -0.26472622 -0.028804982 0.093262956
-0.23225595 -0.28897992 0.030457156 -0.26465178 -0.047718365 0.13153112 -0.75807303 -0.136119
-0.013532288 0.15059745 0.077931695 -0.04080333 -0.1643107 -0.14725274 0.020685561 -0.65907174
-0.27534142 0.005526 0.13303491 0.077895366 -0.00023632117 -0.5121486 0.06445061 -0.0045768325
-0.2084634 0.1496155 -0.008081152 -0.7963783 -0.07141532 0.010615026 0.015197663 -0.08346776
-0.021793334 -0.4647864 -0.15098277 0.019943316 0.014724614 0.078725256 0.014573239 5.669156e-39
-0.028996067 0.1131424 -4.162574e-39 -6.095624e-39 2.137304e-39 5.316163e-39 6.781126e-39 2.08606e-40
4.209327e-39 2.7732002e-38 -0.0644427 -0.11888304 0.118706115 0.14237584 0.17954986 0.039106477
-0.054605976 -0.7000642 -0.14653592 0.16511413 -1.8059006 -0.6768915 0.016388116 -0.052133266
-0.23283234 0.041211028 -1.5068444 -0.5615591 -0.0009244959 -0.5566892 -0.31584376 -0.014278674
-0.5975859 -0.35461015 0.0026999484 -0.92451656 -0.4515122 -0.009853071 -0.91657376 -0.44090846
-0.017432455 -0.542204 -0.31178606 -0.01672929 -0.9893284 -0.4205442 -0.022693338 -0.8671724
-0.3904211 -0.0044123456 -0.51852566 -0.35305917 -0.013493771 -0.8914681 -0.4463217 -0.022582415
-0.6739894 -0.37750587 0.0042828186 -4.771319e-39 -0.13441288 -0.08286327 2.869028e-39 -3.83838e-39
-6.402667e-38 1.632267e-39 -1.425785e-39 -5.440278e-39 -6.88519e-39 1.3289555e-38 -0.124923326 -0.17710072
-0.39856404 -0.044289887 -1.1041206 -0.36424696 -0.047556136 -0.42611253 -0.3376679 -0.005568763
0.055834267 -0.3267031 0.004024187 0.019035297 0.06773062 0.13279508 -0.45559978 -0.08324383
-0.003668781 0.41742197 0.0918789 -0.016380914 -0.12017166 0.11454394 0.026050657 0.30901542

input_proj.bias f4 [16]
00000000: 995c 07bf 21e9 1a3f 5f47 d13f 9b66 983d
00000010: 943d 47bf 71df ce3f 7d2f 813f aa1d cdbf
00000020: 0a97 753f 25af 123f fd1c 6abf bce4 fabe
00000030: eed4 a63e 19d0 1d3f 46ec 413f ffb2 5fbe
-0.5287567 0.60511976 1.6349906 0.074414454 -0.77828336 1.6161939 1.0092617 -1.6024678
0.9593359 0.572985 -0.9145048 -0.49002635 0.32584327 0.61645657 0.7575115 -0.21845625

layers.0.norm.weight f4 [16]
00000000: e4d4 f73e c946 653a 8b0c 5c3f c51e 8a3f
00000010: 3731 363f 3f27 a03f 37cb ff3e 3a53 bd3f
00000020: e6b2 353f a7ec c53e 6d5e 183f 7f16 ea3e
00000030: 82b8 a83e 3c83 fdb8 c002 013e 1186 313f
0.4840461 0.00087462045 0.8595664 1.079064 0.71168846 1.2511977 0.49959728 1.4791024
0.709761 0.38657114 0.5951908 0.45720288 0.32953268 -0.000120884244 0.12598705 0.69345194

layers.0.norm.bias f4 [16]
00000000: a2da 183e 272c c7b9 84d1 843d cf59 fb3e
00000010: 974e 58be 8f0c 163e a70b 80be 1c4b fabe
00000020: af51 d33e dfab c3bd c6c9 7bbe c9ea 99be
00000030: d843 0c3e ff88 1639 0e18 7ebd d6fd e53e
0.14927152 -0.00037989134 0.064852744 0.49091956 -0.2112373 0.14653228 -0.2500889 -0.4888543
0.41273257 -0.09554266 -0.24588689 -0.3006194 0.13697755 0.0001435615 -0.06203466 0.44920224

layers.0.mlp.0.weight f4 [96, 16]
00000000: 6616 4e3b faaa 4eb9 8a30 dbbd c672 d4bd
00000010: 6f4f 113e 9b48 a4be 8252 3ebd 9304 be3e
00000020: 05ba 0ebe 1337 dbbc 815c c43d 3db3 e73d
00000030: 0ff9 b1bc 93f6 0a39 aa4a 31bc e65b b53d
00000040: 7e16 f9b8 8c04 c136 2a9e 44ba a756 9139
00000050: a380 2eb9 6872 343a 6c47 a0b9 ec57 bcb9
00000060: 5a7e 063a c5d7 2db9 5dd7 6039 6e56 38b9
00000070: 834c 1839 8908 d3b6 208c b2b9 e271 3fba
00000080: 5725 f439 ec00 2fb6 ca13 083a d8e1 cbb9
00000090: db37 a139 1bd2 10ba 03c9 0839 f126 4039
000000a0: 096c 80b9 33d0 6439 bcb4 5ab9 f184 8738
000000b0: f060 f1b9 c0ea 3e36 d776 2839 4409 273a
000000c0: 5349 41ba 5479 78b7 b9aa 783a 0155 4e39
000000d0: 9fc6 4eba 7569 a2b9 3a71 2c3a 9dd4 be39
000000e0: 6ab2 02ba f4e6 c638 726b 6aba 5f6d c33a
000000f0: cfc9 593a 3b91 5237 b726 6e3a 27e9 df38
00000100: cb55 cab9 b976 22b7 2649 e839 09d0 72b9
00000110: 47f4 8cb8 5ffc fbb9 054b e139 7947 6139
00000120: ee32 8cb9 54de d639 f7da d9b9 ac85 013b
00000130: 2b14 c539 9558 3f37 f4e1 893a 65dd 81b9
00000140: 6f8c 83ba a4e2 c336 ae25 c339 8a37 7838
00000150: 6c2a de38 271d 6439 b53d c739 86ad c739
00000160: b4dd 16ba 064c da39 a972 99b9 8cb8 c639
00000170: 7f53 223a 74ef 1136 71c6 103a 4787 13b9
00000180: 6b45 e139 2200 98b5 8e1a b239 34aa e6b9
00000190: 37dc b339 c5b3 0eba fade 96b8 1b4a 9637
000001a0: eaa5 a0b9 da65 dc38 4a01 fcb8 501e f5b8
000001b0: f886 0aba 1698 9eb4 16e9 c537 2315 b839
000001c0: d1bb c739 3506 78b6 a609 4e3a ecf5 3839
000001d0: 419b f838 ab1f 04ba b4f8 203a bb25 9539
000001e0: 05fb 3cb8 2992 2db8 9894 14ba dcc0 d839
000001f0: 86cc ee38 6052 0537 bcc3 9139 226e c9b9
00000200: 3ea7 01b9 761b 1937 940b 90ba d2aa dbb7
00000210: f7b5 44b9 7fd8 5d3a 535c deb9 fd68 09ba
00000220: bc53 fe39 3b82 12ba d33d 033a 6608 0dba
00000230: b538 4c39 61d0 e1b6 0c0e edb9 b2d8 91b9
00000240: d8ec 3f3d 3f6c 30ba 5d24 86bd 6707 3f3f
00000250: 1e79 7cbd 5dc0 3cbe 3db2 043e b668 13bf
00000260: 5722 3e3e 253a 1d3d 8c82 93bd 1834 56be
00000270: 328c 983d 2ad0 ddb9 b564 a7bd 15d5 b73e
00000280: 42f7 cdb7 ed93 ad36 7a59 23ba d23a b239
00000290: a4b0 b2b8 d10a 2d3a 0ecc d2b9 2b04 a4b9
000002a0: ddb0 123a 99d3 6eb8 a63b 8639 57f9 16b9
000002b0: 7daa 9138 5bc3 d2b6 f837 a7b9 0a34 4aba
000002c0: e319 6838 6757 06b7 d605 443a 893b a1b9
000002d0: b884 1d39 5830 3bba 3903 e039 582b db39
000002e0: 7b77 4dba dd34 b939 bfaa fcb9 1790 143a
000002f0: 0c63 26b9 b33a e136 d79c f339 a77f f839
00000300: e7f8 1e38 ab81 0c37 c558 8ab8 4ffe a538
00000310: f724 233a d6a8 113a d076 103a 6e32 95b9
00000320: 5384 dd39 ede2 98b9 5911 e3b8 57f5 c739
00000330: cc53 b1b8 d9e7 0a36 7641 a839 ef0a beba
00000340: 5a36 ce36 36a5 f336 918c 16ba 6359 9b39
00000350: 00f9 08b9 8f9f 353a 8044 afb9 6971 b3b9
00000360: 5b80 463a 8d99 38b9 b637 f239 b658 84ba
00000370: 1545 d0b8 391e e4b6 e9a6 0fba 8302 71b9
00000380: ebf9 34bc e9a7 bdb9 6263 9bbd 0f2c 9d3d
00000390: 3cc4 bb3d f2df a6be bb5e a6ba a9d7 7c3e
000003a0: c04b f3bd 03d7 cabb 9725 4f3d 230e 3f3d
000003b0: c6cd 4fbb 85bb a839 bb47 94bc 2700 0b3e
000003c0: 30b7 a4b9 4805 0eb7 7b3c ad39 c04e 60b8
000003d0: 302f f4b9 6747 a0b9 766e bc39 bb35 df39
000003e0: 2bb8 1aba d94f a239 097f 76ba 8124 033b
000003f0: 3949 043a fab9 4637 65f0 823a f526 70b9
0.0031446456 -0.00019709385 -0.107026175 -0.10373454 0.14190458 -0.32086644 -0.046465404 0.37112865
-0.13938148 -0.02675966 0.09587956 0.11313484 -0.021725206 0.00013252562 -0.010821024 0.08855419
-0.00011877435 5.7523775e-06 -0.0007500375 0.00027721116 -0.00016641854 0.0006883503 -0.00030570792 -0.0003592366
0.0005130522 -0.00016578946 0.00021442534 -0.00017579805 0.00014524352 -6.2892836e-06 -0.00034055207 -0.00073030416
0.00046567127 -2.6077569e-06 0.0005190937 -0.00038887444 0.0003074993 -0.0005524472 0.00013044853 0.00018325054
-0.00024494555 0.00021821335 -0.00020857429 6.462064e-05 -0.00046039326 2.8448849e-06 0.00016066 0.0006371925
-0.0007373292 -1.4810201e-05 0.0009485889 0.00019677357 -0.0007887873 -0.0003097762 0.00065781514 0.00036398033
-0.0004985692 9.484394e-05 -0.0008942402 0.0014909914 0.0008307965 1.25507895e-05 0.00090847485 0.000106768966
-0.00038592363 -9.683595e-06 0.00044304988 -0.00023156418 -6.7212204e-05 -0.00048062482 0.00042971238 0.00021484298
-0.00026740826 0.00040982908 -0.00041552607 0.0019763513 0.00037589794 1.1405112e-05 0.001051961 -0.0002476975
-0.0010036359 5.8378373e-06 0.00037221372 5.9179532e-05 0.000105936866 0.00021754635 0.00038002213 0.00038085523
-0.0005755082 0.00041636842 -0.00029267863 0.00037903 0.00061922515 2.1746064e-06 0.0005522734 -0.00014069407
0.00042967065 -1.1324921e-06 0.0003397059 -0.0004399583 0.00034305613 -0.0005443658 -7.19409e-05 1.7915901e-05
-0.00030641194 0.00010509389 -0.000120165365 -0.000116881565 -0.0005284394 -2.954045e-07 2.359277e-05 0.00035110963
0.00038096172 -3.6958493e-06 0.0007859714 0.0001763922 0.0001185448 -0.0005040119 0.0006140575 0.00028447606
-4.5056473e-05 -4.1382536e-05 -0.0005667894 0.00041342422 0.0001138682 7.946597e-06 0.0002780239 -0.00038419763
-0.00012364701 9.125904e-06 -0.0010989779 -2.6186379e-05 -0.00018759804 0.00084627414 -0.00042411927 -0.000524178
0.00048509042 -0.0005588864 0.0005006466 -0.00053799746 0.00019476081 -6.729781e-06 -0.00045214628 -0.00027818006
0.04685673 -0.0006729997 -0.065499045 0.7462067 -0.061638944 -0.18432756 0.12958618 -0.5758165
0.18567787 0.03838553 -0.07202634 -0.2091831 0.07448615 -0.000423075 -0.08173505 0.35904756
-2.4553043e-05 5.1730226e-06 -0.00062312896 0.0003399463 -8.520603e-05 0.0006601038 -0.00040206354 -0.00031283623
0.00055958127 -5.6940688e-05 0.00025602913 -0.00014398001 6.945895e-05 -6.28123e-06 -0.00031894422 -0.0007713443
5.533722e-05 -8.007372e-06 0.0007477676 -0.0003075267 0.00015022128 -0.00071406877 0.0004272701 0.0004180323
-0.00078379334 0.00035325336 -0.000481924 0.0005667223 -0.00015867891 6.712356e-06 0.00046465427 0.00047397355
3.7901944e-05 8.374841e-06 -6.5968874e-05 7.915182e-05 0.0006223465 0.00055564696 0.00055108685 -0.00028457068
0.00042250994 -0.00029160772 -0.00010827435 0.0003813903 -8.455626e-05 2.0698556e-06 0.0003209223 -0.0014499108
6.1456058e-06 7.2611974e-06 -0.0005742992 0.00029630502 -0.0001306273 0.0006928378 -0.00033429638 -0.00034226038
0.0007572227 -0.0001760481 0.00046199345 -0.0010097239 -9.9310804e-05 -6.798448e-06 -0.00054798886 -0.00022984487
-0.011045913 -0.00036173992 -0.07587315 0.07674419 0.09168288 -0.32592732 -0.0012693027 0.24691643
-0.118796825 -0.006190182 0.050572958 0.04664434 -0.0031708344 0.0003218317 -0.01810061 0.13574277
-0.00031417003 -8.465089e-06 0.00033042193 -5.3479103e-05 -0.00046574464 -0.00030570777 0.00035940454 0.00042573907
-0.0005902077 0.0003095854 -0.0009403085 0.0020010772 0.00050463114 1.1845021e-05 0.0009989856 -0.00022902696

layers.0.mlp.0.bias f4 [96]
00000000: e633 69be 1f39 6b39 e10e f1b9 5769 f739
00000010: a736 a839 a66d c9b8 fcd8 a5b9 3837 8a38
00000020: 2099 7eb9 d103 5dbe c128 8139 ecc2 d2b7
00000030: 5d0c 25b9 066d b0b9 03a3 d6bd 501f e239
00000040: 0d94 db39 226c 06b9 b764 ebb9 4ee1 2b39
00000050: d36c 1ab8 aa22 0eb9 d2da 64b8 fed7 19b9
00000060: d344 6339 2bea afbd 02c0 1739 9f52 b9b8
00000070: 9aca 9fb9 e42a b8be f881 1bbe a503 8b39
00000080: d3fe f836 54e7 2039 c333 a439 ac9f d23d
00000090: c256 03bf 3083 e8b8 34f9 0f39 22f3 d7b9
000000a0: 0bc3 12be 49e2 9039 4a30 923d 9bc1 aab9
000000b0: 41a3 2538 b440 8339 fd9a 9eb9 754a a3b7
000000c0: ec5a 98b9 c8f5 dcb7 41dc 9c37 e8a6 8ab9
000000d0: 8a2a 8db9 4029 9334 847c a3be 4959 4e3e
000000e0: ff8c 88b9 41e9 f7b8 e2c0 1239 4311 a6b9
000000f0: 45c5 c838 7cbb 66b9 adbb a239 2619 69b9
00000100: c765 df3a 776c e7b7 b806 a4b9 5bfa 0dbe
00000110: f9c9 d739 6b1b cbb9 0a2f 0ab8 1184 fe39
00000120: ec69 5ab9 004b aa39 aea0 69b8 a2e2 8bb9
00000130: df95 a336 f25a 06b9 d414 8439 3899 29b7
00000140: 1860 9ab9 a733 96b9 6652 50b9 125a e1b9
00000150: db60 ef38 7b3d 0839 e0f5 4c38 b446 d339
00000160: c828 bbb9 efc9 dd38 f45a 8eb9 d661 3e39
00000170: baa2 80b9 84d1 cd38 ffc9 31b9 8c89 8b37
-0.22773704 0.00022432626 -0.00045978188 0.00047189996 0.00032084176 -9.6048505e-05 -0.00031632918 6.590638e-05
-0.00024280371 -0.21583487 0.0002463516 -2.5124718e-05 -0.00015740232 -0.00033650565 -0.10480311 0.0004312941
0.00041881241 -0.00012819518 -0.0004489773 0.00016391763 -3.681781e-05 -0.00013555089 -5.456323e-05 -0.0001467168
0.00021674046 -0.08589586 0.0001447201 -8.836877e-05 -0.00030477793 -0.35970223 -0.15186298 0.0002651486
7.4206414e-06 0.00015344966 0.00031319083 0.10284361 -0.51304257 -0.00011087058 0.00013730378 -0.00041189144
-0.14332215 0.00027634416 0.07138117 -0.00032569174 3.9491108e-05 0.00025034475 -0.00030251584 -1.9465786e-05
-0.0002905944 -2.6340495e-05 1.8699213e-05 -0.00026445766 -0.0002692531 2.7410897e-07 -0.31930935 0.20151247
-0.00026044992 -0.00011821325 0.000139955 -0.00031674848 9.5734875e-05 -0.00022004353 0.00031038877 -0.0002222998
0.0017043882 -2.7587854e-05 -0.00031285523 -0.13865034 0.00041158477 -0.00038739605 -3.2945572e-05 0.00048545052
-0.00020829559 0.00032480806 -5.5701174e-05 -0.00026681 4.875226e-06 -0.00012813116 0.0002519252 -1.0108859e-05
-0.00029444764 -0.00028648713 -0.00019867122 -0.00042982452 0.00011414449 0.00012992874 4.886638e-05 0.00040297734
-0.00035697804 0.00010575714 -0.00027152116 0.00018156259 -0.00024535303 9.814187e-05 -0.00016955285 1.6634142e-05

layers.0.mlp.3.weight f4 [16, 96]
00000000: 02af b839 58be 0239 de44 8fb8 3e02 a4b9
00000010: c706 88b9 f68b b7b6 7678 e8b7 637b 05b9
00000020: 4b05 3439 3e51 00bc f760 fb38 6174 2eb9
00000030: f37d fa36 2d63 4a39 24ff f5b7 b63f 7bb9
00000040: fce7 50b9 3280 1f38 3065 38b8 0041 38b9
00000050: 76d8 a6b8 e12c 1d39 133d 0e39 adb2 2bb9
00000060: 50f6 28b9 d365 db3a 6be4 8cb8 c1f5 34b9
00000070: e864 1db8 6337 12ba 52e4 cc3b a855 e9b8
00000080: 43f3 2fb9 5105 2439 c8a4 81b9 281a c0ba
00000090: d597 fd39 6064 8ab6 18b1 4538 d057 4a39
000000a0: db82 98ba fb11 9d37 bce1 693d 99ca e4b7
000000b0: 3291 22b9 44db 12b9 9aa4 0b39 43b9 2fb9
000000c0: bced 4239 23d6 3239 659f d6b8 24e3 5f39
000000d0: d877 3038 a702 27b9 9021 a138 2e7a b53d
000000e0: e6ca 42b8 8ae2 26b9 b240 4fb9 0fab e238
000000f0: f2ec 2d36 762d 4b39 d158 2eb9 1072 3238
00000100: 3266 d637 c58a d6b8 bfb0 0ab8 6e3d 1038
00000110: 08c3 82b9 f4f5 5539 4bfd 3739 d8f6 84b9
00000120: c33e 9ab9 af8e f038 89b7 2839 d487 b3b8
00000130: 71d9 12b9 3195 0cb9 074d cbb7 1a05 4538
00000140: 61af e3b8 7a8c 2c39 cef1 dbb8 ec7e 5e39
00000150: 195b f7b8 b7b3 f238 02b6 3cb9 a8ed 0239
00000160: f132 5339 465c a4b8 b26d 4939 b0ee 1439
00000170: 9759 5a39 a7df 0739 7958 f838 74cc 0639
00000180: 9ed6 523c 3f0c 6ab9 d541 8639 9d95 e1b7
00000190: 5645 3a39 e023 73b9 7aaf 5e39 eac2 43b9
000001a0: 9043 c2b8 a8a3 3ebc ed4f 52b9 af60 3139
000001b0: b9ae aeb9 0886 56b9 abe6 143c ece8 1b39
000001c0: 9618 9f39 8efc c8b9 0c86 8739 4339 b0b9
000001d0: 32a7 bd39 85dc 89b8 300f 02b9 dccf 4339
000001e0: 6991 7839 e3c6 ea3c 0e3d 29b6 262d 2739
000001f0: 36e8 7339 9f78 f03a e917 43bd 00ff b539
00000200: 2b39 3239 4ae3 55b9 288e 4239 6393 aeba
00000210: 1d96 833b d12e 6cb9 22be b9b9 6de4 94b9
00000220: 975c 23bc c339 a1b9 48d4 2dbd 9b00 6e39
00000230: 4c94 3039 1106 5b38 8be7 27b9 14b8 3539
00000240: 17d0 21b9 b7ec 38b9 f6c7 e1b9 fec6 b3b9
00000250: a1b4 9639 1265 7a39 b270 353c 2fd4 213d
00000260: eb00 6e39 958c 4139 f74c 88b8 1997 8cb9
00000270: c4cc 9cb9 ab0d 9337 22bd c839 3d6b a039
00000280: 81f0 8a37 1c1d af39 62cf 6139 e4f7 3a3c
00000290: b7ac 4e39 91fb eeb8 ec10 ae37 2361 8439
000002a0: 7917 133a 2363 7db9 a018 e438 abcd 0739
000002b0: 0dbc 00ba 6978 1939 60a4 90b9 a6c8 9739
000002c0: 34e9 7139 5910 7739 ee6b d239 ee76 87b9
000002d0: 76d0 4139 0044 d739 0698 2239 6fb5 b339
000002e0: a868 3cb9 d482 58b9 b391 b9b8 e628 2cb9
000002f0: 4ce7 0639 d0f9 81b9 d594 a3b9 528d 58b9
00000300: 1da6 b13c 8885 1eb9 5545 5339 3397 1cb9
00000310: 2ee1 3438 3960 68b9 886e 3739 ffd6 5bb9
00000320: 6f36 9cb7 d148 adbc 2f3f 0ab9 3715 ac38
00000330: 9786 a2b9 3d06 fab8 9299 7e3c 94d4 31b7
00000340: 230d 5539 10a7 b5b9 375d 6239 bbda cab9
00000350: 0bed 9f39 320c 93b7 8f6c 73b8 7856 cf38
00000360: 9644 2f39 7f51 8a3d 3a66 56b8 6e88 9438
00000370: 2cef 4739 e105 de3b 684f 8abd ec4a 9339
00000380: f42a a838 9ef5 f8b8 4403 6638 fba7 e9bb
00000390: 0218 3d3c d14a 63b9 b0fe b3b9 343a 45b9
000003a0: 0d06 67bc 40cd 9eb9 d846 ecbc fa11 4739
000003b0: ddb3 a138 a0b5 1e37 bdce eeb8 3a4d b338
000003c0: 1c44 88b8 cc91 b6b8 9ebb edb9 6603 7cb9
000003d0: 9304 8c39 9b12 1e39 203a 9f3c 2e7e f8bc
000003e0: 57cc 3f39 8561 c938 b74c fab8 94c4 84b9
000003f0: a1c6 9cb9 8d79 a038 0356 9d39 a79e a539
0.00035225606 0.00012468675 -6.831599e-05 -0.00031282188 -0.0002594499 -5.4701186e-06 -2.771265e-05 -0.00012729834
0.0001716811 -0.00783187 0.00011986674 -0.00016637288 7.465243e-06 0.00019301167 -2.9325085e-05 -0.0002396096
-0.00019922847 3.8027945e-05 -4.3963257e-05 -0.00017571822 -7.955816e-05 0.00014989405 0.00013564927 -0.00016374393
-0.00016113487 0.001673872 -6.7182664e-05 -0.00017257688 -3.7525693e-05 -0.0005577711 0.006252804 -0.000111262605
-0.00016779923 0.0001564224 -0.0002472757 -0.0014656233 0.00048369044 -4.1244057e-06 4.713339e-05 0.00019296934
-0.0011635678 1.8724231e-05 0.057100043 -2.727406e-05 -0.00015503613 -0.00014005328 0.00013317392 -0.00016758316
0.00018589845 0.00017055175 -0.00010234005 0.00021351554 4.2073283e-05 -0.00015927349 7.68333e-05 0.088611946
-4.644217e-05 -0.00015915386 -0.00019765159 0.00010808382 2.591693e-06 0.00019376524 -0.0001662702 4.2544736e-05
2.5558376e-05 -0.00010230163 -3.306637e-05 3.4389486e-05 -0.00024940842 0.00020404888 0.00017546599 -0.00025360915
-0.0002941993 0.00011470669 0.000160901 -8.560685e-05 -0.00014004648 -0.00013407019 -2.4235354e-05 4.697321e-05
-0.0001085687 0.0001645553 -0.000104877734 0.00021218852 -0.00011794846 0.00011572934 -0.0001799688 0.000124863
0.00020141505 -7.837317e-05 0.00019209718 0.00014203298 0.00020823475 0.0001295792 0.00011842041 0.000128554
0.012868552 -0.00022320541 0.0002560752 -2.689176e-05 0.00017764172 -0.0002318765 0.0002123694 -0.0001866926
-9.2632254e-05 -0.011635698 -0.00020056935 0.00016916053 -0.00033318045 -0.00020458561 0.009088199 0.00014868722
0.0003034516 -0.0003833514 0.0002584908 -0.00033612 0.0003617346 -6.573744e-05 -0.00012403424 0.00018674083
0.00023705293 0.02865929 -2.52185e-06 0.0001594318 0.00023260791 0.0018346495 -0.047630224 0.00034713
0.000169967 -0.00020397935 0.00018554239 -0.0013319071 0.0040156976 -0.00022524154 -0.0003542761 -0.0002839895
-0.009970806 -0.0003075135 -0.042438775 0.00022697674 0.00016839913 5.221932e-05 -0.00016012618 0.0001733008
-0.00015431676 -0.0001763579 -0.00043064327 -0.000342898 0.00028744809 0.0002387951 0.011074232 0.039508995
0.0002269779 0.00018458285 -6.499321e-05 -0.00026815457 -0.000299072 1.753013e-05 0.00038287888 0.00030597477
1.6562875e-05 0.0003340029 0.00021534928 0.011411641 0.00019710032 -0.00011395582 2.0750296e-05 0.00025249374
0.00056111027 -0.00024164892 0.00010876474 0.0001295122 -0.0004910834 0.00014636073 -0.0002758829 0.0002895046
0.00023070426 0.00023561846 0.00040134735 -0.00025837816 0.00018483572 0.0004105866 0.00015506157 0.0003427672
-0.00017968065 -0.00020648103 -8.848626e-05 -0.00016418434 0.000128654 -0.00024790922 -0.0003120067 -0.00020652011
0.021685654 -0.00015117798 0.00020148356 -0.00014933645 4.312506e-05 -0.0002216109 0.00017493416 -0.0002096556
-1.8621997e-05 -0.021152886 -0.00013184243 8.205551e-05 -0.00030999325 -0.00011922091 0.015539544 -1.0599517e-05
0.00020318157 -0.00034647482 0.00021587765 -0.0003869141 0.00030503454 -1.7529444e-05 -5.8036818e-05 9.886635e-05
0.00016714851 0.067538254 -5.1116782e-05 7.082602e-05 0.00019067217 0.006775603 -0.06753427 0.00028093846
8.018865e-05 -0.00011871311 5.4839315e-05 -0.0071306205 0.011541368 -0.00021676278 -0.00034331298 -0.00018809066
-0.014100564 -0.00030289032 -0.028842375 0.00018984816 7.7105804e-05 9.459822e-06 -0.000113872324 8.54977e-05
-6.497672e-05 -8.705593e-05 -0.00045343948 -0.00024033859 0.0002670629 0.00015074985 0.019436896 -0.030333605
0.00018291302 9.602591e-05 -0.00011935218 -0.00025323464 -0.0002990263 7.652035e-05 0.00030009457 0.00031589458

layers.0.mlp.3.bias f4 [16]
00000000: 424b 963c 7a54 06bb 50ad afbd 75a9 0abf
00000010: bcfa 193d 4d55 2dbd 1ce1 72bb 22a8 833e
00000020: 843b 8bbb fef5 28bc ff29 f13c d457 443c
00000030: 935b 86be c332 c2bb 90ea 31bd bbad b1be
0.018346433 -0.002049713 -0.085779786 -0.5416482 0.037592635 -0.042317677 -0.0037060445 0.25714213
-0.004249038 -0.010312555 0.02943897 0.0119838305 -0.2624174 -0.0059264614 -0.043436587 -0.34702858

layers.1.norm.weight f4 [16]
00000000: b0f9 2e28 628b 922a bb05 7f37 f43e df3b
00000010: 463a 2b35 7e93 18b1 f6a9 062d 346d fa38
00000020: fb03 24ab 694e ceb5 723a d8b4 32ec 43b7
00000030: e7dd f731 d42c 6c2d e254 86aa a728 03b5
9.713083e-15 2.6031526e-13 1.5200519e-05 0.0068129245 6.3787263e-07 -2.220275e-09 7.654757e-12 0.000119412696
-5.827003e-13 -1.5371016e-06 -4.027566e-07 -1.1677899e-05 7.2138735e-09 1.3425001e-11 -2.386208e-13 -4.886046e-07

layers.1.norm.bias f4 [16]
00000000: 7e7e 40a9 757d 862a 7e59 92b7 270a 6d3a
00000010: 0218 12b7 4697 8030 38e6 80ad 9e47 31b8
00000020: 9e8d 24ab b20f 5a35 6edf 2db6 4a89 7bb7
00000030: 2253 b831 a860 ceae 0126 b12b 7edb 40b5
-4.274228e-14 2.3890235e-13 -1.744623e-05 0.00090423453 -8.707868e-06 9.35622e-10 -1.4654153e-11 -4.2266787e-05
-5.846104e-13 8.123417e-07 -2.5909062e-06 -1.4992731e-05 5.364556e-09 -9.384965e-11 1.2587155e-12 -7.1844977e-07

layers.1.mlp.0.weight f4 [96, 16]
00000000: 49ab 2da1 ce7f 3923 8754 93b0 ab1f 83b5
00000010: 8424 8daf 97bb 5529 f6a6 9ea6 42a5 a132
00000020: 4552 b723 4839 dc2e 9424 932f 7813 3931
00000030: 424d e0ab 7046 6fa5 0338 9424 6ef8 55ad
00000040: 6d37 39a3 be4a 4f24 0cbe 46b2 e3e1 0fb8
00000050: 95c2 a1b1 6420 b0ab 533e 1b29 2c33 11b5
00000060: afe5 51a6 139d e230 584b f2af 09c4 85b2
00000070: cb0b 912d b270 74a9 4944 6225 ee69 382d
00000080: 802a 4b27 1b52 4ca8 3778 96b5 51c3 d6b8
00000090: cdf1 4935 77b7 1e2d ac66 082c 2df8 8737
000000a0: b1ba 3f29 52a6 e434 4754 1eb3 869d 2435
000000b0: f4dc 35ae 9e74 0caa 0801 8da9 52d1 bfb1
000000c0: 76c4 9e24 7976 88a7 8efb 84b5 7975 1cb7
000000d0: 1d36 8434 6d63 862d 7727 552b 2f35 c236
000000e0: 9d2b 4ea8 c8c5 7333 4b8f d3b1 b131 9fb3
000000f0: 650d 082f edf8 d2aa b899 0428 82fb 43b2
00000100: c04e a623 bd79 3927 642a 54b5 fe98 5d38
00000110: 7145 5fb4 148f 0e2c c579 2cab feff d336
00000120: 3adb 64a8 4688 72b4 ce8b eeb3 8d93 cdb5
00000130: 3372 3f30 056a 412b 401f 7a26 d11e 1e32
00000140: b531 2628 c618 00a9 f59c 6fb6 7ca1 3bb9
00000150: 9498 ca35 cac1 ab2d 6ebe a22c e477 3638
00000160: 769e 0c2a 7867 2235 98f5 81b4 2695 05b5
00000170: 3c6d 9330 b31f 122b 98d4 42aa d0d8 b132
00000180: 8181 f2a7 9936 a028 fe32 4b36 4a47 0b39
00000190: 904d acb5 8935 382e 933e 4eac 81cb 27b8
000001a0: 570f d4a9 ce8e 00b5 2009 2a34 b28a 2534
000001b0: 3793 58b0 f4ca 5c2a 78d6 182a 82b1 2432
000001c0: 130e c327 867e 66a8 c7bb e2b5 c598 89b8
000001d0: f00c 8135 d23d 16ae 01a1 4b2c cdd4 0138
000001e0: 73a0 a829 8cd5 ba34 28e9 10b4 0ff1 1ab4
000001f0: 44b6 3130 58d0 5b2b daaf 0aaa 6508 f831
00000200: 1c1c 6525 94e1 bea7 207f b6b4 53d7 db38
00000210: dada 21b4 f3e5 502d 7251 c7a9 5e85 2b37
00000220: 0fd8 39a8 c379 46b4 028b 80b3 8576 b9b5
00000230: b4e7 3d30 0ea8 e32a b644 16a9 cd5f 5f32
00000240: 5a9a 6c28 fb61 6caa 919d 3eb7 86fd b3b9
00000250: 2bfe be36 059a 5bae 6e79 882d 293e 9cb8
00000260: e6e3 0a2b e8cc ac35 98c6 dc35 f83e 17b7
00000270: bc83 a830 f412 192e 5a4e 64ab e2b5 61b4
00000280: 4001 d0a5 3cee a725 3864 4734 28de dfb8
00000290: 7cca 61b3 b638 bbaa 47c5 b929 d6d2 e934
000002a0: df14 4327 822d 1631 c01e 8533 9af5 1535
000002b0: 48a2 01af 2d08 cfa9 bea4 ab28 1564 ceb0
000002c0: ce21 61a5 4485 4625 70f8 c932 5a39 a1b8
000002d0: 26b8 ebb2 8c0e caaa afe2 4929 7517 0a35
000002e0: 04d8 5426 cf81 9330 dddf d432 33be 7334
000002f0: 9a95 78ae 5477 21a8 4430 0c28 6fe7 79b0
00000300: 01d7 2526 91df 1ba8 4eab a635 7b93 1639
00000310: d867 6232 bad4 912c 1242 e1aa dd47 4637
00000320: c2c0 34a8 cd5d 7bb4 35f7 37b4 ec12 19b6
00000330: f8e7 9c30 c856 5629 a088 b2a8 d9b1 7432
00000340: 7bd5 6ea7 09e7 5c28 fefe 3935 cba4 7438
00000350: d7e2 3db5 af67 6fac 68c9 f7ab 4c27 d6b7
00000360: cb6c 3aa9 1ab0 81b4 788e ba33 a9eb 8eb3
00000370: eae1 91af 9c27 b82a ba2a 9f29 ef5a 1032
00000380: c00b cca4 bbdb 8727 74db 79b5 704e 8635
00000390: 8800 4334 ae56 48ad 7a11 d6aa 56d8 8636
000003a0: e76c 8ba8 fcec 0db2 6866 ee30 88f6 81b3
000003b0: 7e8b 662e ada5 a4aa da7d 7228 8e85 44b2
000003c0: 6c31 9f22 d41c 9ca3 7d3a 93af 7627 6533
000003d0: cb84 3130 4450 c928 fb70 7aa6 6b6b 5eb2
000003e0: 2361 4924 b465 5c2e 4887 bcaf eb2a 1fb1
000003f0: 097b 542b dff8 da26 ecb1 dda4 9d72 c52d
-5.8841374e-19 1.0055934e-17 -1.0719682e-09 -9.769477e-07 -2.5673697e-10 4.745821e-14 -1.1008707e-15 1.8818017e-08
1.9875742e-17 1.0014617e-10 2.6765135e-10 2.693211e-09 -1.5937601e-12 -2.0753811e-16 6.4279656e-17 -1.2162811e-11
-1.0040607e-17 4.494928e-17 -1.15683285e-08 -3.430423e-05 -4.707838e-09 -1.2514542e-12 3.447097e-14 -5.4091174e-07
-7.282272e-16 1.6488307e-09 -4.4073079e-10 -1.5572384e-08 1.6489829e-11 -5.427663e-14 1.9625511e-16 1.048271e-11
2.8194949e-15 -1.1342079e-14 -1.1210858e-06 -0.00010240696 7.52302e-07 9.0219976e-12 1.9383757e-12 1.620882e-05
4.257245e-14 4.2589323e-07 -3.686389e-08 6.132399e-07 -4.135088e-11 -1.2474958e-13 -6.261837e-14 -5.5826286e-09
6.8854395e-17 -3.787603e-15 -9.907978e-07 -9.325676e-06 2.4626289e-07 1.527819e-11 7.572757e-13 5.787842e-06
-1.1444754e-14 5.6757727e-08 -6.1571988e-09 -7.413053e-08 1.2373887e-10 -3.747622e-13 7.360804e-15 -1.140768e-08
1.8031108e-17 2.5739902e-15 -7.903784e-07 5.283299e-05 -2.0793756e-07 2.0258838e-12 -6.1275664e-13 6.3180914e-06
-1.270408e-14 -2.2587582e-07 -1.1108169e-07 -1.5316633e-06 6.964768e-10 6.8714506e-13 8.6778525e-16 9.203817e-09
9.22563e-15 -2.8443197e-14 -3.5705136e-06 -0.00017893867 1.5094579e-06 1.9526509e-11 4.625459e-12 4.350384e-05
1.2489475e-13 6.050027e-07 -2.4206815e-07 -4.97634e-07 1.0726704e-09 5.191361e-13 -1.730442e-13 2.0704107e-08
-6.73089e-15 1.7787246e-14 3.0279039e-06 0.0001328263 -1.2837572e-06 4.1884305e-11 -2.9309096e-12 -4.000543e-05
-9.417352e-14 -4.7891524e-07 1.5835803e-07 1.541728e-07 -7.8789547e-10 1.9610339e-13 1.3574721e-13 9.586417e-09
5.413863e-15 -1.2795e-14 -1.6892963e-06 -6.5611246e-05 9.615014e-07 -3.416096e-11 2.893741e-12 3.0954183e-05
7.488532e-14 3.4800576e-07 -1.3495867e-07 -1.4430064e-07 6.465124e-10 7.8093565e-13 -1.2317873e-13 7.2187043e-09
1.9872108e-16 -5.2980166e-15 -3.3992637e-07 0.00010482841 -1.5073911e-07 1.187449e-11 -8.851504e-14 1.0223446e-05
-1.0316413e-14 -1.8484484e-07 -5.98575e-08 -1.3818068e-06 6.908707e-10 4.0439912e-13 -3.3366288e-14 1.3002091e-08
1.3134101e-14 -2.0995005e-13 -1.1361569e-05 -0.0003433043 5.6920303e-06 -4.9931632e-11 1.5515336e-11 -7.450238e-05
4.934372e-13 1.2874634e-06 1.6449076e-06 -9.014962e-06 1.226105e-09 3.4805006e-11 -8.1110607e-13 -2.1020927e-07
-3.6083095e-16 2.9131316e-16 1.8569779e-07 -0.000106748485 -5.2571053e-08 -3.3257224e-13 8.2498725e-14 4.3553035e-07
2.7073e-15 2.185374e-09 6.1988885e-08 5.586422e-07 -1.1790136e-10 -9.194065e-14 1.905626e-14 -1.5016918e-09
-1.9527093e-16 1.7218915e-16 2.3512456e-08 -7.687761e-05 -2.7441342e-08 -3.5892502e-13 4.4827582e-14 5.144314e-07
7.384503e-16 1.0732552e-09 2.478185e-08 2.2700333e-07 -5.6521544e-11 -8.9631705e-15 7.782027e-15 -9.091456e-10
5.753726e-16 -8.652707e-15 1.241782e-06 0.00014360056 1.3178543e-08 4.1447653e-12 -4.0013874e-13 1.1818452e-05
-1.0033805e-14 -2.3410321e-07 -1.7133137e-07 -2.280979e-06 1.1416423e-09 4.7592816e-14 -1.9821221e-14 1.4243107e-08
-3.3144863e-15 1.2262551e-14 6.9288933e-07 5.832761e-05 -7.073808e-07 -3.4021499e-12 -1.7606307e-12 -2.5529087e-05
-4.139466e-14 -2.4156253e-07 8.687215e-08 -6.6552566e-08 -2.6535868e-10 3.271245e-13 7.06843e-14 8.402579e-09
-8.84908e-17 3.770826e-15 -9.3079075e-07 1.0006606e-06 1.8160983e-07 -1.13879305e-11 -3.8026163e-13 4.018696e-06
-1.5479329e-14 -8.261164e-09 1.7345885e-09 -6.0518744e-08 5.241984e-11 -2.9247213e-13 1.3460988e-14 -1.1439068e-08
4.3149364e-18 -1.6925763e-17 -2.6780703e-10 5.3354107e-08 6.4580935e-10 2.2350292e-14 -8.688929e-16 -1.2946525e-08
4.3667205e-17 5.011254e-11 -3.4293124e-10 -2.3161941e-09 7.5488276e-13 1.5194245e-15 -9.6144883e-17 2.2447206e-11

layers.1.mlp.0.bias f4 [96]
00000000: 8919 96b3 6dba bbb4 b072 3838 82b3 42b7
00000010: 10f9 78b8 17eb 8436 ae52 14b7 bab2 67b7
00000020: e963 d6b8 a968 c63b 2030 f5b7 ddaf 59b7
00000030: 982d 4cb9 e3f0 0337 30dc f3b6 ce64 3531
00000040: 4c83 a4b9 d804 04b6 b744 67b5 f973 7c38
00000050: 35ac f236 dd6a 3c32 d478 883b 584a 4438
00000060: 3c05 8134 6791 24b4 1bfa 02b4 470e 09b6
00000070: a36d a336 ad5b fd32 834e 3937 7630 c7b4
00000080: ab26 0236 cc56 d232 e370 4434 1242 99b6
00000090: 17b9 fb3c 280a 3e34 8020 7cb6 a217 9bb6
000000a0: e24e 2635 9753 ff38 6710 83b9 f23f 9136
000000b0: 8522 c536 0c85 8633 b801 5ebb e85a 2134
000000c0: 8a42 44b5 cd3f 83b9 89d6 5b36 5079 dfb3
000000d0: 3801 e0b8 8e55 14b8 e2fe 0ab7 59f1 8e35
000000e0: 32e4 4f34 c346 1ab9 0988 7ab7 0522 c7b9
000000f0: 12d7 9335 e526 16b4 56f8 55b6 a180 ed36
00000100: fc29 3a39 6828 c3b7 9f6b 35b4 96e4 f833
00000110: 4679 b9b4 4e48 2939 4024 cfb9 12eb 0cb6
00000120: 6024 6733 cb54 8135 1a86 58b6 04aa aeb4
00000130: 4cf3 3039 4c92 5e36 39eb 0c37 3fed 1cb3
00000140: 6783 19b9 42f8 2fb5 e3e2 6fb4 5abd 98bb
00000150: c8ae 5136 b68b 6db6 26ca 1739 8e4c 9734
00000160: 1f1c 7436 9931 a3b4 4cda 86b5 16f4 c033
00000170: 419f 02b5 39c1 dfb3 f20d fe35 26ec 6bb6
-6.989564e-08 -3.4967107e-07 4.397583e-05 -1.1605096e-05 -5.9359765e-05 3.9612746e-06 -8.840738e-06 -1.3810286e-05
-0.00010222925 0.006054957 -2.9228686e-05 -1.2975154e-05 -0.00019471941 7.864294e-06 -7.2675975e-06 2.6396267e-09
-0.0003137834 -1.9672352e-06 -8.61542e-07 6.018949e-05 7.2322096e-06 1.0967338e-08 0.0041647945 4.679928e-05
2.403193e-07 -1.5326587e-07 -1.2198181e-07 -2.0422901e-06 4.870542e-06 2.9494766e-08 1.1045139e-05 -3.7101898e-07
1.9394017e-06 2.4486688e-08 1.829499e-07 -4.567447e-06 0.030727906 1.7698824e-07 -3.7569844e-06 -4.622111e-06
6.195461e-07 0.00012174917 -0.00024998488 4.328781e-06 5.875076e-06 6.264062e-08 -0.0033875536 1.5027365e-07
-7.3112517e-07 -0.00025033802 3.275842e-06 -1.0406313e-07 -0.00010681379 -3.536563e-05 -8.2847855e-06 1.0650066e-06
1.9361394e-07 -0.00014712945 -1.4932834e-05 -0.00037981584 1.1014947e-06 -1.3983988e-07 -3.1884024e-06 7.078125e-06
0.00017753983 -2.3264627e-05 -1.6896091e-07 1.15899795e-07 -3.4547173e-07 0.00016144032 -0.00039509125 -2.0998455e-06
5.381696e-08 9.635927e-07 -3.2264566e-06 -3.2533728e-07 0.00016875303 3.3165734e-06 8.399417e-06 -3.6537354e-08
-0.00014640168 -6.5553843e-07 -2.234115e-07 -0.0046612443 3.1245163e-06 -3.5397074e-06 0.00014475788 2.8181643e-07
3.6375202e-06 -3.0397203e-07 -1.0047311e-06 8.985096e-08 -4.866052e-07 -1.0419394e-07 1.8928533e-06 -3.5155185e-06

layers.1.mlp.3.weight f4 [16, 96]
00000000: 671d 80b2 9751 c6b4 aee0 0137 e627 f4b5
00000010: 1bf6 1337 d54f 9137 89af 3537 8a70 d736
00000020: fb4e 8fb7 a4ef 0838 ba71 68b6 ebef d8b5
00000030: c68f 14b8 cc46 6b37 cc1c 97b4 6838 8232
00000040: b96a 28b8 4f19 adb4 8cd1 8cb5 404a bf36
00000050: 2944 e835 305e 89b2 93ee 2938 a5a5 2437
00000060: 8abc b7b1 9c19 6132 334f b832 0a66 8db4
00000070: 1f4a 3a35 54ed a5b0 8018 c032 9504 e9b3
00000080: 393f 6c35 e6fa bfb2 0850 4232 2924 b234
00000090: a31f 1839 2801 7ab1 ec74 2537 3cc7 af34
000000a0: 63d9 a1b4 42a1 ed37 1505 9fb7 c1cd adb4
000000b0: fcf6 6135 b159 8033 989f 39b8 4b19 56b3
000000c0: c018 8234 a333 9eb7 629f f7b3 3ba9 ec34
000000d0: 784e 60b8 4e67 5637 f2f1 0db7 01f8 c934
000000e0: fb22 bf33 9574 b937 9241 c6b5 76df 6fb8
000000f0: bb5e 9034 4a01 05b3 bc42 8433 28cd 2336
00000100: bff8 4d38 4298 72b6 459a adb1 22d4 e931
00000110: 51c8 25b5 685f 6737 ba1c 86b8 477f bbb5
00000120: 5405 66b3 fca4 9ab5 2264 0934 605d 24b3
00000130: 4f64 5137 32a9 5bb4 a722 8537 e24a cd32
00000140: b0c6 1238 fa98 82b5 9b12 1cb3 42b7 1cb8
00000150: a280 d4b3 68ce 0db5 8df1 dc37 a59e 38b2
00000160: 109b 00b4 e11b d3b3 7d6e edb4 0e94 55b2
00000170: aed7 22b2 15cd 90b3 56e1 3935 023a 8b34
00000180: 036c 06b3 35d9 8034 a735 01b8 6305 8bb7
00000190: d626 2e38 2c3e 05b6 f5e6 3137 da83 d0b6
000001a0: f517 2538 0bd3 22b9 2df5 0ab7 8284 9bb6
000001b0: 9ebe 4839 04c5 bc36 0082 b5b7 827a dcb1
000001c0: 01be 8739 4518 c535 f64c 4037 b90f 80b8
000001d0: 8429 9b38 4ae7 4434 e41d afb8 a819 75b8
000001e0: a0a6 cab4 37ac 20b4 aef3 2eb4 9ada fb35
000001f0: 73fb 80b6 4a8d 4534 86a3 6737 9cd1 2d34
00000200: f30f 7fb5 1e91 1133 7db2 4534 bb4e 3c38
00000210: 829d e0b8 1047 2834 14fa 3ab7 142e 3738
00000220: 4b98 e3b5 c1c0 e0b8 da9d 1db8 c76c 24b8
00000230: d732 fe35 878a a0b3 5e61 4338 c957 4c35
00000240: 2932 5a35 96a9 1db8 6018 8fb7 decb d534
00000250: 08e1 a338 c0df b837 487a 9635 5a46 b9b3
00000260: f5a0 26b5 5655 ef38 de45 7937 c59a ab39
00000270: 884c 01b4 3a60 19b4 b866 6837 1d81 42b6
00000280: 8b84 81b9 23de a037 3d34 d634 4193 5ab4
00000290: e7ab 91b7 88d6 f037 11c8 bc39 e8db bf34
000002a0: a977 3d35 bb3b a7b8 9891 9037 cf5b 58b5
000002b0: 6d83 ed37 b882 e8b7 2234 fa35 9829 47b3
000002c0: 466b ee38 b9a6 cd36 6177 9fb4 f401 dc38
000002d0: 7ce3 70b7 3536 9ab5 827b 8eb8 d7a3 6035
000002e0: dfaa b7b7 67db 5db3 2c87 1335 1b71 0034
000002f0: f05a 92b4 dc95 c333 22ca 6cb5 e58e 0938
00000300: a43c b6b3 452d b2b7 c799 e837 da0b 39b8
00000310: a634 84b7 e0b5 cc38 7b71 85b8 3f5b fa37
00000320: 8c00 9336 c7d8 1138 47a9 19b8 eedc b6b7
00000330: 5f7d 3f38 1e5f 48b6 d8bb 5eb8 9064 ab33
00000340: d3d1 bdb7 9dca 8b34 b2a9 4938 6ca3 8fb8
00000350: ba3b 3039 2a66 45b1 4fcd 9138 594e ccb7
00000360: 29d0 86b3 07a2 a933 9d93 8b33 84c4 a234
00000370: 3c54 5bb5 316a 4433 544e a537 1206 08b5
00000380: 3986 04b5 13c7 dcb3 b3a9 83b3 1712 ee38
00000390: 78dc d239 c99a 2db3 62ad 3738 d274 f038
000003a0: d946 d1b7 f6d9 1db8 5ac9 02b9 2337 e3b8
000003b0: 6020 4537 0914 5734 119d bab8 2be4 18b5
000003c0: b25a b337 183f 02b9 1076 94b8 5256 c137
000003d0: 3882 67b8 2e45 9cb8 aa09 5037 50b5 1eb5
000003e0: fc48 bcb3 e703 edb7 64a0 0436 7e56 8937
000003f0: b61e 23b6 77b8 d8b3 b5bf 8738 b5fa 3036
-1.4914532e-08 -3.6939738e-07 7.7413115e-06 -1.8191029e-06 8.819184e-06 1.7322522e-05 1.0829311e-05 6.4206006e-06
-1.7083707e-05 3.264811e-05 -3.4636892e-06 -1.6163079e-06 -3.541985e-05 1.4023575e-05 -2.8146894e-07 1.5159642e-08
-4.0153715e-05 -3.2242176e-07 -1.0491799e-06 5.7008874e-06 1.7305184e-06 -1.599173e-08 4.051493e-05 9.813729e-06
-5.3474354e-09 1.3102547e-08 2.1456435e-08 -2.633754e-07 6.939826e-07 -1.2072783e-09 2.2362883e-08 -1.08507415e-07
8.800885e-07 -2.2349422e-08 1.1310483e-08 3.3181394e-07 0.00014507635 -3.6380445e-09 9.861989e-06 3.2741252e-07
-3.0146757e-07 2.8327693e-05 -1.8956644e-05 -3.2373467e-07 8.417844e-07 5.976779e-08 -4.425607e-05 -4.984876e-08
2.4232395e-07 -1.8859113e-05 -1.15308254e-07 4.4081557e-07 -5.347884e-05 1.27794465e-05 -8.460587e-06 3.7619614e-07
8.9004935e-08 2.2108006e-05 -1.4771233e-06 -5.7190155e-05 2.6891016e-07 -3.0967648e-08 6.158868e-08 2.440831e-06
4.910747e-05 -3.6149436e-06 -5.052501e-09 6.805309e-09 -6.175879e-07 1.3790886e-05 -6.394969e-05 -1.3969628e-06
-5.3555894e-08 -1.1521911e-06 1.2795547e-07 -3.826915e-08 1.2480726e-05 -2.0457517e-07 1.5870972e-05 2.3899194e-08
3.4994155e-05 -9.730277e-07 -3.6338502e-08 -3.736397e-05 -9.8954175e-08 -5.2826954e-07 2.6338525e-05 -1.0746281e-08
-1.197734e-07 -9.830524e-08 -4.422508e-07 -1.24318955e-08 -9.478681e-09 -6.742827e-08 6.924578e-07 2.5932974e-07
-3.1297542e-08 2.3999897e-07 -3.0805964e-05 -1.65726e-05 4.1521e-05 -1.9854733e-06 1.0603796e-05 -6.2142326e-06
3.9361377e-05 -0.00015528144 -8.282525e-06 -4.634786e-06 0.00019144497 5.6257722e-06 -2.1637417e-05 -6.4167702e-09
0.0002589077 1.4684707e-06 1.1462011e-05 -6.106444e-05 7.398709e-05 1.8338065e-07 -8.350218e-05 -5.8436446e-05
-3.7746668e-07 -1.4963813e-07 -1.6293663e-07 1.8764579e-06 -3.84397e-06 1.8398455e-07 1.3806746e-05 1.6188136e-07
-9.501811e-07 3.3892427e-08 1.8411988e-07 4.4896016e-05 -0.000107104905 1.5672072e-07 -1.114469e-05 4.3673514e-05
-1.6957141e-06 -0.000107170556 -3.7578728e-05 -3.9201954e-05 1.8939271e-06 -7.4757786e-08 4.6582303e-05 7.6123666e-07
8.128432e-07 -3.7589656e-05 -1.7058279e-05 3.9822675e-07 7.814361e-05 2.2038701e-05 1.1211459e-06 -8.627531e-08
-6.207404e-07 0.00011412303 1.4857824e-05 0.00032730974 -1.2041903e-07 -1.4284242e-07 1.3852194e-05 -2.8983407e-06
-0.0002470355 1.9176927e-05 3.9898615e-07 -2.0356403e-07 -1.7365395e-05 2.8710128e-05 0.00036007215 3.5736525e-07
7.0582115e-07 -7.974306e-05 1.7233935e-05 -8.059987e-07 2.8313802e-05 -2.7717426e-05 1.8641624e-06 -4.6371127e-08
0.000113687056 6.128885e-06 -2.9702917e-07 0.00010490781 -1.435808e-05 -1.148967e-06 -6.794093e-05 8.368492e-07
-2.1894868e-05 -5.1655118e-08 5.495847e-07 1.1962076e-07 -2.7260785e-07 9.1076544e-08 -8.8210993e-07 3.2796426e-05
-8.486066e-08 -2.1240334e-05 2.7728163e-05 -4.4118475e-05 -1.5760143e-05 9.761355e-05 -6.3630716e-05 2.9844812e-05
4.381005e-06 3.4772584e-05 -3.6635694e-05 -2.179897e-05 4.565471e-05 -2.9857688e-06 -5.3103868e-05 7.9811e-08
-2.2628263e-05 2.6038188e-07 4.8080175e-05 -6.849211e-05 0.00016806918 -2.8725347e-09 6.9523805e-05 -2.4355179e-05
-6.2777254e-08 7.8991484e-08 6.4995426e-08 3.0317835e-07 -8.1706435e-07 4.5731387e-08 1.9706007e-05 -5.067278e-07
-4.936915e-07 -1.028076e-07 -6.131031e-08 0.00011352094 0.00040218583 -4.0420478e-08 4.3792075e-05 0.00011465851
-2.4947733e-05 -3.763471e-05 -0.00012472775 -0.000108344735 1.1749653e-05 2.0030724e-07 -8.898427e-05 -5.695644e-07
2.1380696e-05 -0.0001242127 -7.079181e-05 2.3047589e-05 -5.5195967e-05 -7.4515454e-05 1.2400016e-05 -5.912343e-07
-8.767708e-08 -2.8254419e-05 1.9762892e-06 1.6371949e-05 -2.430677e-06 -1.0091838e-07 6.47301e-05 2.6371974e-06

layers.1.mlp.3.bias f4 [16]
00000000: b7e5 953c 2a6f 0cbc 4148 9fbd 7258 b2be
00000010: 783d 193d e5ea 07bd 72c6 6cbb 0f83 9d3e
00000020: 5dba be3b ede5 13bc 6d43 f03c a5cb 1d3c
00000030: f676 77be 02fc 72bb 6090 26bd 7066 95be
0.018298013 -0.008571425 -0.07777453 -0.34833103 0.037412137 -0.033182997 -0.0036129025 0.30764052
0.005820556 -0.009026987 0.029329026 0.009631072 -0.24166474 -0.0037076478 -0.04066503 -0.29179716

readout.0.weight f4 [16, 16]
00000000: 9f64 fc39 fd45 4c3a 0269 6aba 15b9 1f39
00000010: a91b 4f38 d155 61b9 f53c feb9 8878 42b8
00000020: 8415 47ba 0b7a a0ba e481 c439 afca 96ba
00000030: 8c50 c9b9 a3e6 933a 1fcf c7b9 6d01 51b8
00000040: 37ec b63d e221 c03d 8230 9e3d 7c99 60bf
00000050: 2eb7 abbd bc3b cfbd 8166 5a3d 807d ea3e
00000060: 99cf 09bd 10ee ac3c 4956 70bc 3da8 a73d
00000070: 5f68 b9be 4562 00be a98e b83d 09d6 11bf
00000080: 97f4 fdb9 383f 3eba 5ab4 803a 65a1 8fb9
00000090: 0928 9bb8 65fe 0939 c37f 0c3a db49 40b8
000000a0: 6fe3 163a dab3 a33a 6e37 aeb9 dd25 923a
000000b0: 6242 203a 316f a5ba a86d ed39 7ae3 7837
000000c0: 9382 b0bc 8d73 2e3e 7ea3 4a3e d36f c83e
000000d0: b3f9 e5bc e1ca 6f3e e4aa 1f3a d302 0dbf
000000e0: 8e1d 963e b908 803d 220a f0bc 87b8 6abd
000000f0: e216 913d 97b2 873d 081c 36bc e06a b23d
00000100: b5b8 ddbd c266 b0bd 6449 283c 6598 5fbf
00000110: ae81 a43d 7771 193e 3504 053d ffbb 083f
00000120: 1721 943c 137b 963a 9ecf d13c fe01 25bd
00000130: 2730 f1be 2b32 d83d ef40 29bd 6849 fcbe
00000140: ea9d 013a eb08 3f3a 9f88 56ba bcae 2339
00000150: 43b0 5536 ac91 5cb9 f761 c7b9 083e e0b7
00000160: 9136 40ba 389d 9eba f5b7 a639 9983 96ba
00000170: ad0e b9b9 e8ea 973a b1f0 b7b9 fc2c 6db8
00000180: 5444 29ba 1d5a 9eb9 0d7a 113a 1dd5 5a38
00000190: cfe0 41b9 f27a 14b9 7591 783a 9d68 35b9
000001a0: 3b5e 7137 af59 df39 d1b0 07ba 4cd5 2939
000001b0: 16a0 3d3a b236 25b8 2788 9c39 f61e fdb9
000001c0: 220f 8139 1d73 633a 3544 bbba cb0c 0b3a
000001d0: 0d50 ec38 dd40 a8b9 00b5 8fba 8676 0539
000001e0: cac7 47ba e100 9bba 5d75 ec39 ed00 a8ba
000001f0: 76ac dbb9 3a0c c23a 125c 8bb9 9a8a 93b9
00000200: 8c23 283a a01b 2b39 1213 0fba 0753 dc38
00000210: f4cc a7b5 d444 e3b8 620b af38 e72c e5b8
00000220: c1ef 9fb9 920c 7fba c4a3 af37 582d 6cba
00000230: 5513 02ba 01e5 bc3a 2b20 09ba 5cb3 aa38
00000240: d801 0b3a 528d d639 1adc 08ba c121 9838
00000250: 15e3 f2b8 e8a0 3db9 3db5 1f39 3666 5bb9
00000260: c73e 02ba 979d 87ba 0e49 08b7 1edc 62ba
00000270: 29ef dcb9 7a06 983a be4a 90b9 f8c2 39b5
00000280: ec7c 2c3a c308 7b39 ecc6 33ba 6a14 2a39
00000290: 757c 6538 f612 0db9 2229 17b9 eedf 94b7
000002a0: e6ba 99b9 f9ac 84ba 44dc 0639 a5be 84ba
000002b0: cf1c 08ba 0e48 c53a dbb0 15ba 78d0 c638
000002c0: 5c7f f5b9 ecde 2cba 1204 053a b024 c3b8
000002d0: a146 7839 baf0 4739 4004 41b9 2e4c 4b39
000002e0: d010 163a 705f 8d3a 218f 37b7 bb66 4a3a
000002f0: 376c fa39 8ab3 5aba 895d e5b7 aed6 52b8
00000300: 7cb3 0aba 9b98 f3b9 a446 273a a69e 05b9
00000310: 0836 aa38 b554 0739 c7f1 8837 4f13 3a39
00000320: 0e4a 103a 91b1 943a 28d7 d0b8 d199 7b3a
00000330: 43e7 f239 7cde 9bba 8a14 a739 8e57 4338
00000340: 56c7 063a 74da 1a3a 7cc3 2aba 1e39 0639
00000350: 3c7e f7b8 5c4d 33b9 bc74 92b8 a96e b1b8
00000360: c1b9 20ba 05eb 97ba 0acc 1b39 2c43 87ba
00000370: edba abb9 bb0b 993a 311d 70b9 628f 47b8
00000380: fe32 8a3d baef f03c 0373 babd 0d9e 05bf
00000390: ae1a c83c c910 b9bd 3c14 30be 1b45 083e
000003a0: 65ba 933d e99f 3f3c f816 0abd ad09 2fbd
000003b0: 700f f4bd c58f 833d e114 c3bc 83d6 29be
000003c0: 218a 073a 3294 233a 7293 3eba fa75 1839
000003d0: d1f0 36b8 8798 44b9 7572 5db9 6dc2 49b8
000003e0: 1288 2dba d77a 9aba b1c5 6f39 6fa0 8eba
000003f0: 5479 bfb9 0f02 9c3a e152 abb9 eabd 1fb8
0.00048140154 0.00077924115 -0.0008942039 0.0001523237 4.9378406e-05 -0.00021489641 -0.00048492072 -4.6365458e-05
-0.00075944536 -0.0012243403 0.0003748081 -0.0011504496 -0.0003839772 0.0011283945 -0.00038110555 -4.983081e-05
0.08931773 0.09381463 0.07724096 -0.877342 -0.08384548 -0.10118815 0.05332041 0.45798874
-0.033645246 0.02110961 -0.0146690095 0.08186386 -0.3621244 -0.12537487 0.09011585 -0.56967217
-0.00048438154 -0.0007257345 0.0009819374 -0.00027395334 -7.398433e-05 0.00013160107 0.0005359614 -4.584515e-05
0.0005755936 0.0012489513 -0.00033229165 0.00111502 0.00061134074 -0.0012621639 0.00045285863 1.4834915e-05
-0.021546638 0.17036267 0.1978893 0.39147815 -0.028073167 0.23417236 0.00060908333 -0.55082434
0.29319423 0.06251664 -0.029301707 -0.057304885 0.07084443 0.0662586 -0.011115082 0.08711791
-0.10826246 -0.086133495 0.010271404 -0.8734191 0.08032547 0.1498469 0.032474715 0.5341186
0.018082185 0.0011480771 0.025611695 -0.040285103 -0.4710705 0.10556444 -0.04132169 -0.49274755
0.00049444905 0.00072874007 -0.000818381 0.00015609985 3.1842071e-06 -0.00021035102 -0.00038029227 -2.6731766e-05
-0.000733235 -0.0012101298 0.00031799046 -0.0011483311 -0.00035296884 0.0011590393 -0.0003508381 -5.65471e-05
-0.000645702 -0.00030203248 0.0005549498 5.2173727e-05 -0.00018489662 -0.0001416018 0.0009482124 -0.00017300477
1.4386659e-05 0.00042600694 -0.0005176189 0.00016196555 0.00072336325 -3.9390005e-05 0.0002985608 -0.00048278988
0.00024616072 0.0008676516 -0.0014287295 0.00053043355 0.000112682676 -0.00032091784 -0.0010963976 0.00012728022
-0.00076210184 -0.0011825823 0.0004510087 -0.0012817659 -0.00041899428 0.0014804669 -0.00026580744 -0.0002814129
0.00064139883 0.00016318122 -0.0005457859 0.000105058825 -1.2502119e-06 -0.00010837024 8.3467705e-05 -0.000109279346
-0.00030505474 -0.0009729351 2.0937885e-05 -0.00090094423 -0.0004961987 0.001441151 -0.00052309287 8.13964e-05
0.0005302704 0.00040922553 -0.0005220786 7.254212e-05 -0.000115817566 -0.00018084387 0.00015230938 -0.00020923544
-0.0004968461 -0.0010346648 -8.123241e-06 -0.0008654016 -0.00042139858 0.001159861 -0.00027521508 -6.920159e-07
0.0006579894 0.0002394049 -0.000685795 0.00016220068 5.4713764e-05 -0.00013453871 -0.00014415805 -1.774725e-05
-0.00029321684 -0.0010122351 0.00012861291 -0.0010127617 -0.0005192281 0.0015051381 -0.00057102524 9.480206e-05
-0.00046824932 -0.0006594497 0.0005074154 -9.305158e-05 0.00023677434 0.00019067797 -0.00018407498 0.00019387968
0.0005724551 0.0010785889 -1.0940975e-05 0.00077209965 0.00047764342 -0.00083427934 -2.7342483e-05 -5.0267838e-05
-0.00052910275 -0.00046462272 0.00063810707 -0.0001274297 8.116296e-05 0.00012906159 1.632505e-05 0.00017745535
0.0005504199 0.0011344423 -9.958289e-05 0.00095978106 0.0004633014 -0.0011891867 0.00031868025 4.6573165e-05
0.00051413977 0.0005907186 -0.0006514115 0.00012800514 -0.00011801391 -0.00017099589 -6.983566e-05 -8.46063e-05
-0.0006131195 -0.0011590427 0.00014857962 -0.0010319701 -0.00032754932 0.001167647 -0.00022899058 -4.7578833e-05
0.06748007 0.029411186 -0.09103968 -0.5219429 0.024426784 -0.09036405 -0.17195219 0.13307612
0.07213286 0.01169584 -0.03371331 -0.042733837 -0.11917007 0.06423906 -0.023813667 -0.16585736
0.0005170424 0.00062400394 -0.0007269896 0.000145398 -4.361646e-05 -0.00018748837 -0.00021118841 -4.8103208e-05
-0.00066197023 -0.0011785877 0.00022866462 -0.0010881553 -0.00036520755 0.0011902469 -0.0003267741 -3.8085425e-05

readout.0.bias f4 [16]
00000000: 7f31 59b9 cee9 4c3f 3481 4639 bc3d 243e
00000010: da3d 153f 18ef 35b9 cbde 8339 1c46 94b9
00000020: 205b abb8 8744 14b8 613b 13b9 9adc 7bb7
00000030: 42fb 9338 d042 a8b8 c2b6 fc3e 9f86 08b9
-0.00020713171 0.8004426 0.00018930883 0.16039175 0.58297503 -0.00017350574 0.0002515226 -0.00028280995
-8.170889e-05 -3.534977e-05 -0.00014041133 -1.5012129e-05 7.056307e-05 -8.023309e-05 0.49358183 -0.00013020121

readout.2.weight f4 [1, 16]
00000000: 9019 14b9 2fbe 05bf 7a8d 2339 1041 0b3f
00000010: 819c 0bbf 5384 07b9 dbf9 1a39 fc12 23b9
00000020: 8c5f acb8 23ae a6b8 5f49 cbb8 9b81 aa38
00000030: a6e4 ce38 8a36 ccb8 c44d 80be 8b65 ecb8
-0.00014123903 -0.5224332 0.00015597595 0.5439615 -0.5453568 -0.00012923898 0.00014779663 -0.00015551964
-8.219396e-05 -7.947932e-05 -9.693461e-05 8.1303726e-05 9.8654345e-05 -9.737637e-05 -0.2505933 -0.00011272271
