models/best_demon_len=5000_qbits=32_{Gen=false_L1=32_cp=2.565e-5_w=Inf}_{L2=4_cp=0}.pth (torch, 711446 bytes, 53 tensors)

input_proj.weight f4 [64, 3]
000000 e5 5a ad 3e 92 5a 93 be e9 7d 23 bf d2 cd 21 bf
       0.3385841 -0.28780037 -0.63864 -0.6320468
000010 c6 ae 18 3d a8 28 d1 3e 6a 68 5f bd d5 c1 58 be
       0.037276052 0.4085133 -0.054542936 -0.21167691
000020 89 cb 99 be 96 1f 96 be 85 a4 05 bf e4 09 c4 be
       -0.30038098 -0.29320973 -0.5220416 -0.38288796
000030 eb 74 2a bf 20 b4 9d be 04 fd 90 bd ef c8 6a be
       -0.6658465 -0.30801487 -0.07079509 -0.22928213
000040 23 f2 3b 3e ea 40 21 3f f2 c8 18 bf 50 dc d5 3d
       0.18354087 0.62989676 -0.5968162 0.10442412
000050 cb 36 8d bd 73 37 79 bd c6 0e 97 bd 56 05 9b 3e
       -0.068952166 -0.060843896 -0.07375865 0.30277508
000060 2e 04 02 be a0 b9 ff bd 38 04 97 bd 9b b7 3a 3e
       -0.12696907 -0.12486577 -0.073738515 0.18234102
000070 d7 79 c1 3d 7e ac 06 3f 4c cd 2a bf 34 1c 28 bf
       0.09447067 0.5260695 -0.6671951 -0.65668035
000080 41 63 17 be fe e5 09 bf 8e 01 50 be 06 3d e4 be
       -0.14783956 -0.53866565 -0.20313093 -0.44577807
000090 ff d4 76 3f 93 95 bd bd b0 d9 6f be 81 81 e5 3d
       0.96418756 -0.09257045 -0.23422885 0.112063415
0000a0 14 08 04 bd cc db 97 be b1 b1 f3 3d da 18 a8 3b
       -0.032234266 -0.2965988 0.11899126 0.0051299157
0000b0 2e b7 dd 3e dd d9 0e be db eb 0f bf 40 07 29 3e
       0.43303818 -0.13950296 -0.5621926 0.16506672
0000c0 52 60 08 be 65 cf 4d be f7 e9 40 bc ae 7b 32 3f
       -0.13317993 -0.20098646 -0.011774532 0.6971997
0000d0 d7 3e 0d 3f d5 c4 a3 be fe 68 8b 3c 94 4f 77 bf
       0.5517401 -0.31986108 0.017017838 -0.966058
0000e0 6d 46 5b be 74 bd 13 bf e1 96 f1 bd 9f 49 a8 be
       -0.21413584 -0.5771096 -0.11796356 -0.32868668
0000f0 55 45 ea 3e 1d 34 26 3f aa 2c 5b bd e0 f0 77 be
       0.4575602 0.6492327 -0.05350939 -0.2421298
000100 6f 43 b4 be 1c 88 95 3e e9 f2 4b bf f6 81 e2 be
       -0.35207698 0.29205406 -0.79667526 -0.44239777
000110 dd 34 e7 bd 7c 6a cf 3e 03 a2 89 be fc 93 de bc
       -0.1128938 0.4051093 -0.26881418 -0.027170174
000120 4d 20 21 3f 08 c0 20 3f 2c 17 0d bf 22 27 7e 3d
       0.6293991 0.62793016 -0.5511348 0.06204904
000130 f0 bf 21 bf c5 20 c1 3e e0 7b 38 be b5 c8 0f 3f
       -0.631835 0.37720314 -0.18016005 0.5616563
000140 04 b8 cf 3d 7a 8f 64 3f d3 04 c2 be 9a 2c 0c bf
       0.1014252 0.8928143 -0.37894306 -0.54755557
000150 d9 39 18 3f 05 22 d5 be b9 5b 07 bf 0d 3b 41 3e
       0.5946327 -0.41627517 -0.5287433 0.18870182
000160 69 aa 4a 3f 25 ed 04 3e 4d cc 17 3e ed b3 05 3f
       0.79166275 0.12981088 0.14824028 0.5222767
000170 4b 3b 54 3e f1 68 92 be 5e d3 1d 3e 9d ac 15 3f
       0.20725743 -0.2859569 0.15412661 0.5846651
000180 20 da 33 bf fc 14 a9 be c1 25 05 be 58 cf b3 3e
       -0.7025471 -0.33023822 -0.13002683 0.35119128
000190 27 80 00 bf df 1e 8b be 51 55 9e be e4 14 e0 be
       -0.50195545 -0.2717199 -0.30924466 -0.43765938
0001a0 0e f9 a6 be bc 54 6c 3e 29 29 88 3d bf 24 08 3e
       -0.3261189 0.23079199 0.06648476 0.13295268
0001b0 75 67 1d 3f 9e 01 12 be dc bd 5f bd ed c2 0d be
       0.6148599 -0.1425843 -0.054624423 -0.1384389
0001c0 27 fb bd 3e ab 63 20 be 05 df ca be 3e b4 7d be
       0.37105677 -0.1566302 -0.39623275 -0.24775788
0001d0 c8 ec b5 3d 46 ac 28 3f 7d ec 97 be 94 73 58 3e
       0.08883053 0.6588787 -0.29672614 0.2113784
0001e0 ae 4f da 3b 54 54 7b be 02 e5 c5 3d 51 cb e2 be
       0.0066623306 -0.24543887 0.096628204 -0.44295743
0001f0 19 3f ac 3e 4f ac 40 3e e9 96 0c 3f 66 f3 10 3f
       0.3364189 0.1881573 0.5491777 0.56621397
000200 67 b9 8f bd 33 07 76 be 42 d1 78 3e 94 1d 77 3e
       -0.070177846 -0.24026184 0.24298576 0.24132377
000210 9a cb 43 be 32 e0 01 3f 30 da 0b bf 07 24 ed 3e
       -0.19120637 0.5073272 -0.546298 0.4631655
000220 43 35 d9 be 80 b2 c1 be 92 43 c5 3d 77 08 d9 be
       -0.42423448 -0.37831497 0.09632029 -0.4238927
000230 6a 05 ee be 5d 95 3d 3f 2d f7 47 3e ed 5f 11 bf
       -0.46488506 0.74056035 0.19527884 -0.56786996
000240 6b 15 c9 be a8 04 04 bf 1f 69 1a 3f c7 64 3b 3e
       -0.39274153 -0.51569605 0.6031665 0.18300162
000250 b8 bd bf bd 24 60 78 bd 1f 07 4c 3e a1 3a c9 3e
       -0.09362358 -0.06063856 0.19924591 0.39302543
000260 30 12 63 be d5 77 e1 3e d2 42 e1 be b4 8a de be
       -0.22174907 0.44036737 -0.43996292 -0.43465197
000270 94 7d ff be 0f f4 3a bf 96 07 28 bd 79 e4 25 bf
       -0.49900496 -0.73028654 -0.04102286 -0.64801747
000280 ad b4 05 bf a3 e0 0e 3f fb 2e 2a 3e 3e 05 1e bf
       -0.52228814 0.5581152 0.16619484 -0.6172675
000290 43 ca e3 be cd 3b db 3e bb 81 1d 3f 80 11 d8 be
       -0.4449025 0.42819062 0.6152608 -0.4220085
0002a0 9e 70 8a 3f 43 60 77 be f7 d2 e7 bc 75 eb e9 3e
       1.0815618 -0.24157815 -0.028298838 0.45687452
0002b0 7d d6 bd be c6 bd 37 be b4 47 29 3e 37 0d 09 bf
       -0.37077704 -0.17943487 0.16531259 -0.5353579
0002c0 3d 73 d8 3e 82 ba 8a be 39 07 ba 3e 62 b6 62 3d
       0.4227542 -0.2709542 0.36333635 0.055349715
0002d0 94 6c cc 3e 90 7c 83 be a9 52 85 bd 82 1e 4b bf
       0.3992659 -0.2568097 -0.06509907 -0.79343426
0002e0 37 21 07 bf 37 e9 a4 3e 1a 4a 01 bf 00 2e 67 bd
       -0.52785057 0.3220918 -0.50503695 -0.056440353
0002f0 3c 5c fc 3e 49 f0 df bc 84 11 23 3f e5 81 c6 bd
       0.4928912 -0.027336257 0.636986 -0.09692744

input_proj.bias f4 [64]
000000 9b 36 a8 3e 46 27 82 3d da 3c 2f 3e 45 f4 d4 3e
       0.3285416 0.06355147 0.17113057 0.41592613
000010 e6 84 17 3f 70 ec 37 be 67 c9 e2 3e 7b 9c 28 3e
       0.5918716 -0.17961287 0.44294283 0.16465943
000020 f0 73 6b 3e 86 96 a3 be bb 7d 4a 3e be c9 04 3f
       0.22993445 -0.31950778 0.19774525 0.51870334
000030 5b fd 99 3d 5b aa 7d be 86 4c db bc 1c a1 92 3e
       0.07519027 -0.24772017 -0.026769888 0.28638542
000040 be 1a 76 3e b5 60 41 bd 52 ef 22 be 8e a5 05 3f
       0.24033639 -0.047211368 -0.15911606 0.5220574
000050 38 7c da be b6 e1 19 3d e4 e6 a4 3e d7 c5 09 3e
       -0.42672896 0.03756877 0.32207406 0.13454376
000060 7f c9 3e 3c 00 f4 9d bd 5b 96 2a 3e 82 39 13 bb
       0.01164472 -0.07712555 0.16658919 -0.0022464697
000070 9c c0 be be a1 7a 30 3e 47 fb 5c 3e 93 b1 b7 be
       -0.37256324 0.17234279 0.2158023 -0.35877666
000080 ae e7 b8 3e f9 38 35 be 35 29 dc 3e 03 b5 ca 3e
       0.36114258 -0.17697515 0.43000188 0.39591226
000090 e0 15 9d 3d 51 3a 7c 3e f8 d6 fe 3e 3f 0d 90 be
       0.07670188 0.24631621 0.49773383 -0.28135106
0000a0 02 e0 71 be 15 f1 71 be e4 71 c7 bd fc fa 95 bd
       -0.23620608 -0.23627122 -0.0973852 -0.07323262
0000b0 8c 10 95 3e 3d 4b a8 be a4 75 85 bd d1 50 e9 be
       0.29114187 -0.32869902 -0.06516579 -0.4556947
0000c0 6f 39 f5 3e 0f c7 c4 3e c2 a8 71 3e fd de 16 be
       0.4789538 0.3843312 0.23599532 -0.14733501
0000d0 b5 9b ec 3e b7 ac f4 3d 5e 92 cb 3c e3 52 97 3d
       0.46212545 0.11947005 0.024850067 0.07388856
0000e0 a5 73 3d bd fa c6 64 3d 19 23 d2 be eb a9 2d 3d
       -0.046252865 0.05585382 -0.41042402 0.042398375
0000f0 b3 32 76 be 27 ec f2 3d f3 52 96 3d df 2e 89 3e
       -0.24042778 0.11861449 0.0734004 0.26793572

layers.0.conv.norm.weight f4 [64]
000000 f6 97 86 3f 78 56 b1 3f 9c a0 90 3e 3b 74 18 3f
       1.0515125 1.3854513 0.28247535 0.59552354
000010 f6 f0 72 3f c7 97 7e 3f c1 aa 74 3f d5 9e ee 3e
       0.9489893 0.99450344 0.9557305 0.46605554
000020 1a 97 b4 3e aa fe 4c 3f 23 78 a7 3f 98 d7 5d 3f
       0.3527153 0.80076087 1.3083538 0.86657095
000030 ca 6b a4 3f ed 68 65 3f b1 ba 02 3f 39 8a 65 3f
       1.2845395 0.8961323 0.5106612 0.89664036
000040 ee f4 dd 3e 20 25 a4 3f 04 b4 78 3f aa 39 56 3f
       0.4335093 1.282383 0.9714968 0.8368174
000050 94 36 68 3f 4c 0b 87 3f 59 0e 9d 3f 1d 60 86 3f
       0.9070828 1.0550323 1.2270004 1.0498081
000060 90 5e b3 3f b7 ef 6e 3f 50 a6 5a 3f 20 8b 9e 3f
       1.4013233 0.93334526 0.8541002 1.2386208
000070 04 0e 30 3f 56 08 7c 3f 34 5c 80 3f 85 ae 82 3f
       0.68771386 0.9845022 1.0028138 1.0209509
000080 ef c7 8e 3f 1c ab 2f 3f 46 32 e5 3e 40 cf 7d 3f
       1.1154765 0.6862047 0.44764918 0.99144363
000090 b1 18 8f 3f 0b 1b 60 3f 28 f0 02 3f 8f 48 79 3f
       1.117941 0.87541264 0.511477 0.9737634
0000a0 14 f2 69 3f 28 80 85 3f 20 46 8e 3f 3f 82 85 3f
       0.91385007 1.0429735 1.111515 1.0430373
0000b0 4f 18 3a 3f b8 89 05 3f cb da 50 3f 0c e0 6f 3f
       0.7269334 0.5216327 0.8158385 0.93701243
0000c0 83 d4 34 3f 36 04 73 3f 80 07 82 3f 7d f7 5f 3f
       0.7063677 0.949283 1.0158539 0.8748701
0000d0 67 8b 72 3f f8 b4 b8 3f e0 2f 78 3f 1b 8d 96 3f
       0.9474396 1.4430227 0.9694805 1.1761812
0000e0 b2 32 a0 3f 44 73 8f 3f dd 1e 6f 3f 3e e6 8b 3f
       1.2515471 1.1207051 0.9340647 1.0929639
0000f0 5e 19 09 3f 12 d2 a7 3f dd 03 b2 3f 12 bf 6d 3f
       0.5355433 1.3110983 1.3907429 0.92869675

layers.0.conv.norm.bias f4 [64]
000000 2e c3 7a 3b 6c 16 f3 bc 2e 4e 7f bb 88 21 fb 3b
       0.0038263309 -0.029673778 -0.003895651 0.0076639093
000010 42 be 4a bd 24 61 0c 3d 75 a9 e5 bd 8b 40 3e bd
       -0.04949785 0.034272328 -0.11213962 -0.04644827
000020 95 4b 12 bd e3 de 34 3e 36 e1 24 bd 69 3d ea bd
       -0.035716612 0.1766315 -0.04025384 -0.11437494
000030 53 ca 60 3c d6 72 a9 3d 26 d7 5a 3b ea 1b 85 3d
       0.013720113 0.08273856 0.0033392399 0.06499465
000040 43 c7 8e bc a1 ea 66 3d 1a de f0 3c a7 c1 b5 bd
       -0.017429 0.056376103 0.029402781 -0.08874827
000050 08 06 87 bb 58 ac 1d bc 5b 1a 55 bd da 58 b3 bb
       -0.004120592 -0.0096236095 -0.052027088 -0.0054732384
000060 23 c9 0c 3d a9 94 53 3d 60 91 84 be d5 27 46 3d
       0.034371506 0.051655445 -0.25892162 0.04837783
000070 a7 8f 2b 3e 18 b7 1c bd 38 81 36 bc ca 4f b0 ba
       0.16754018 -0.03826055 -0.011139207 -0.0013451513
000080 ab b5 48 bd 54 4e 34 3e 60 37 b2 bc fe df d1 bc
       -0.049001377 0.17608005 -0.02175492 -0.025619503
000090 49 f7 bb 3c a2 43 c4 bd c7 5b d0 bd 95 34 ba 3d
       0.022945063 -0.095832124 -0.10173755 0.090920605
0000a0 96 40 b4 3d 05 ba 61 bc 59 b8 78 3d 48 f4 0a bc
       0.08801381 -0.013777261 0.060722683 -0.008481093
0000b0 68 ae 6b be 08 11 57 3e a0 ae 3c 3e 60 fe 4b 3d
       -0.2301575 0.2100259 0.18425989 0.049803138
0000c0 d8 fd a9 3c 12 1d 5b bd 92 e0 b6 ba 0f 2c c3 3d
       0.020750925 -0.05349452 -0.0013952425 0.09529888
0000d0 d0 62 de bc 40 ae fb bc 63 90 f9 3d 5c 22 0f 3c
       -0.027146727 -0.030722737 0.12185743 0.008736219
0000e0 64 b6 57 3d d7 15 23 bc bc 05 35 3d 29 be c9 bc
       0.052664176 -0.0099539375 0.04419492 -0.024626808
0000f0 0c b8 0a 3e 25 8c 01 bd cb 80 e0 bc 83 b1 6c bd
       0.13546771 -0.031627793 -0.027405163 -0.057786476

layers.0.conv.msg_mlp.0.weight f4 [64, 64]
000000 44 2f 57 b7 fc ad 55 b7 51 4e f9 ab 14 ff 62 12
       -1.28260035e-05 -1.2736298e-05 -1.7714251e-12 7.1627434e-28
000010 c9 26 75 b7 f1 f0 05 b7 f8 76 df 36 62 b4 c3 33
       -1.4612168e-05 -7.983516e-06 6.6597677e-06 9.1132065e-08
000020 f7 ad 17 25 3b e4 04 36 6c f1 a8 38 0c 6e 75 34
       1.3156104e-16 1.980238e-06 8.0558326e-05 2.2857438e-07
000030 92 7b 43 b9 82 12 48 38 49 57 07 b4 e8 f7 98 b7
       -0.00018642683 4.7700953e-05 -1.2604609e-07 -1.8235252e-05
000040 20 8c 93 2f 51 7c 3f b7 6f d7 f2 37 de b5 8c 35
       2.683871e-10 -1.1413432e-05 2.8948967e-05 1.0483743e-06
000050 7c 95 01 38 ea bd cf 36 3d 89 49 38 7a d4 c5 b7
       3.0895215e-05 6.1911896e-06 4.8049948e-05 -2.3583172e-05
000060 43 15 77 38 24 b6 1f 35 a6 ec 01 36 16 3a 1a 38
       5.890919e-05 5.9497165e-07 1.9360245e-06 3.6770558e-05
000070 ad 89 4d 38 3a 74 4d b7 07 48 14 b8 9a eb 88 38
       4.900403e-05 -1.2246013e-05 -3.535303e-05 6.5288696e-05
000080 a0 a3 b5 37 b3 dd 01 b6 0c 42 28 18 cb d0 14 b9
       2.1653075e-05 -1.9351544e-06 2.1746836e-24 -0.00014192161
000090 1a f8 71 b8 eb e3 0b 9c d0 be 87 33 32 0c ef b6
       -5.768994e-05 -4.628582e-22 6.321136e-08 -7.1241748e-06
0000a0 1e 6b c6 36 61 cc fa 38 96 02 83 b7 b6 cb 8d 37
       5.91333e-06 0.000119589975 -1.5617621e-05 1.690337e-05
0000b0 70 27 fa 36 2e 83 88 33 bc b8 3a 37 3e 26 5d 39
       7.4551717e-06 6.356855e-08 1.1129476e-05 0.00021090449
0000c0 cd 1a 04 b9 5c c8 13 b8 06 63 19 b7 15 8c e4 37
       -0.00012598485 -3.523413e-05 -9.142566e-06 2.7244949e-05
0000d0 ed 92 54 b6 a4 cb c1 b8 ba a1 ff 36 b6 2b a7 36
       -3.1675984e-06 -9.240888e-05 7.6184197e-06 4.9820765e-06
0000e0 3f 07 5d b9 51 d0 97 b7 8c 5f cc 36 34 9b 39 37
       -0.00021078902 -1.8097608e-05 6.090797e-06 1.1062995e-05
0000f0 71 a7 d7 b4 4e 32 6f 38 83 52 a7 b8 03 a2 c3 b4
       -4.01687e-07 5.702889e-05 -7.9785495e-05 -3.643946e-07
000100 19 3c 15 bb 24 5b e5 3a 08 f4 cb ba 01 2a d2 b9
       -0.0022771417 0.0017498475 -0.0015560398 -0.00040085617
000110 2c 93 40 3a bb ab 18 3b fd 3b 1a 3a 22 fa cb 3a
       0.0007346149 0.0023295719 0.0005883573 0.0015562216
000120 e8 68 5c 39 6d 88 4f 3b 7d 1b 0e 3a 00 7c 7f ba
       0.00021019916 0.003166701 0.0005420966 -0.00097459555
000130 5f 3a b6 ba 04 72 8c 3a 45 32 d9 3a 01 0d de b9
       -0.0013902894 0.0010715132 0.0016570768 -0.00042352828
000140 a2 43 bb 39 ff 9c cd ba 79 2c b3 3a a7 04 b3 b9
       0.0003571781 -0.0015687047 0.001366987 -0.00034145007
000150 22 88 4f 3a 4b b2 02 3b a6 15 48 3a ee c5 6c ba
       0.0007916709 0.0019942697 0.00076326204 -0.00090321794
000160 96 e0 f9 ba 5e 06 3a 3b 01 07 86 3a 04 a3 d3 ba
       -0.0019064124 0.0028385143 0.0010225476 -0.0016146605
000170 fe 19 9f ba f8 0f 93 ba 81 69 8d ba 2c 37 20 3b
       -0.0012138484 -0.0011219969 -0.0010788889 0.0024446948
000180 bd cb 25 3a bc aa 88 ba bd 22 38 ba c9 73 af ba
       0.000632461 -0.0010426859 -0.00070242194 -0.0013385947
000190 71 b2 31 ba 48 88 ea b8 22 c5 6c 3a da 70 04 39
       -0.0006778604 -0.00011183374 0.00090320606 0.00012630541
0001a0 07 95 f6 3a 14 e8 c2 3a a9 0c 8b ba 7d b8 fa 3a
       0.0018812724 0.001487019 -0.0010608631 0.0019128468
0001b0 45 58 49 ba 7e 13 91 ba 25 7d 91 ba 92 3e bf ba
       -0.00076806947 -0.0011068431 -0.0011099918 -0.0014590791
0001c0 03 a9 60 3a 50 c0 cb ba fc d4 be ba c6 ca b4 ba
       0.00085701066 -0.0015544984 -0.0014559324 -0.0013793341
0001d0 20 01 8c 3a 05 99 fb 3a c9 fe c7 ba 42 2b 00 bb
       0.0010681488 0.0019195384 -0.0015258427 -0.0019557034
0001e0 08 5b 88 ba 5c 7e a9 ba 59 cb c1 3a d8 3a 9b 3a
       -0.0010403106 -0.0012931335 0.0014785334 0.0011843098
0001f0 d7 f9 11 ba d6 ee d5 3a 5f 4f f7 3a 69 cd eb ba
       -0.000556854 0.0016321789 0.0018868259 -0.0017990294
000200 ef 93 44 9b 3d 58 01 a3 09 87 c7 82 b8 b4 2b 82
       -1.626054e-22 -7.011789e-18 -2.9317928e-37 -1.261496e-37
000210 c6 11 5d a3 48 aa 6d 16 b3 36 a0 a0 3d 0b b3 02
       -1.1984198e-17 1.9198439e-25 -2.714125e-19 2.6308137e-37
000220 24 25 1d 82 f7 a1 99 02 ea 3d ce 24 1b 2b 9f 91
       -1.1545197e-37 2.2574293e-37 8.9443146e-17 -2.5112343e-28
000230 e3 af b8 1f 8d 9d 0f 1e 39 f0 85 82 d8 54 e1 84
       7.821801e-20 7.602938e-21 -1.9680475e-37 -5.2975162e-36
000240 45 e1 40 81 bf 3d 7c a4 35 cc 0f 2c c1 63 14 98
       -3.5426453e-38 -5.469609e-17 2.043488e-12 -1.9178915e-24
000250 f3 a1 9c 1e 15 64 36 08 5e 83 0a 9c bc e2 a1 82
       1.6584123e-20 5.488628e-34 -4.583016e-22 -2.3786963e-37
000260 3a e6 0a a8 20 28 c9 17 bd 7a 14 95 39 25 8f 27
       -7.710461e-15 1.299945e-24 -2.9985185e-26 3.973083e-15
000270 05 1a e3 23 a0 57 42 a9 cc 96 c6 a7 b0 8d 45 25
       2.4622409e-17 -4.3152656e-14 -5.5119534e-15 1.7135032e-16
000280 45 ba 8e 95 53 e4 ac 14 40 f1 93 02 dd 78 f2 a7
       -5.7647225e-26 1.745762e-26 2.173818e-37 -6.7299533e-15
000290 d7 f8 80 92 5a b0 c4 95 cc a8 99 82 54 91 9b 1c
       -8.139279e-28 -7.9442003e-26 -2.2578214e-37 1.0294606e-21
0002a0 4d 3c 80 1d 67 fa 27 22 71 be 12 9d ad 92 31 8b
       3.3943667e-21 2.2765282e-18 -1.9421395e-21 -3.4199307e-32
0002b0 6a 60 8d 82 b6 e5 49 12 5b d7 0b 14 a3 6b 05 29
       -2.0773427e-37 6.3707557e-28 7.060178e-27 2.9625292e-14
0002c0 25 3a 03 9f 8b 6e f1 9f b3 1c 8a a2 e5 05 a2 20
       -2.7788425e-20 -1.0225035e-19 -3.743536e-18 2.7447768e-19
0002d0 12 41 0b 96 74 c7 cb 24 0b 2e 50 1d 05 82 0c a4
       -1.1248863e-25 8.83751e-17 2.7552374e-21 -3.0467792e-17
0002e0 07 e2 53 24 73 e7 85 11 ba 5e 85 29 09 76 63 91
       4.5944784e-17 2.1126342e-28 5.922819e-14 -1.7943515e-28
0002f0 60 ed 7c 02 48 a8 25 26 5a 29 76 a0 b3 eb b7 a5
       1.8582159e-37 5.747394e-16 -2.0850693e-19 -3.1905156e-16
000300 36 42 3c 3e e7 85 1c be 96 ef 2a 3c 64 81 b4 bb
       0.18384632 -0.15285455 0.010433098 -0.0055085886
000310 1b 62 ca bc 1b 94 34 be 21 32 50 bd c3 83 3b 3c
       -0.024704983 -0.17634623 -0.050829057 0.011444989
000320 6b 23 bb 3c 4a 11 5e 3d 7b b9 11 be fd 3e 01 be
       0.022844037 0.054215707 -0.14230911 -0.12621684
000330 03 c6 0d 3e af 97 dc bd f3 c2 25 3c 4d 33 66 3d
       0.13845067 -0.10771119 0.01011728 0.056201268
000340 91 5c c9 bc b4 6a 98 3e 80 6f 23 be c9 88 16 be
       -0.024580272 0.29768908 -0.15960503 -0.14700617
000350 45 37 20 3b 38 46 48 be 51 f7 6a be e6 d3 e9 3d
       0.0024447006 -0.19558036 -0.22945906 0.114173695
000360 86 38 81 3e 17 30 0c be 7b 08 4c 3b 68 46 62 3e
       0.25238436 -0.1369022 0.0031132984 0.2209717
000370 6d 7d 32 3b 39 c5 2a 3e 24 16 0f 3e 33 55 1d be
       0.0027235404 0.16676797 0.1397329 -0.15364532
000380 1b ce da bc b6 30 05 be f4 bc 17 3c 5b 33 e5 bc
       -0.026709607 -0.13006863 0.0092613585 -0.02797859
000390 6f c3 16 3c a1 ea 90 3d a0 f7 48 bd 70 b4 1b 3e
       0.009201868 0.07076002 -0.04906428 0.1520555
0003a0 a1 47 1a 3d 8d d4 dd bd f4 1c 62 3e ff fb 28 be
       0.037665967 -0.108315565 0.22081357 -0.16502379
0003b0 4f 80 42 bc fa e3 c4 bd 50 23 2e bd 16 c6 ca 3c
       -0.011871411 -0.096137956 -0.042514145 0.024752658
0003c0 00 18 a0 3c 55 c7 12 bd e8 14 f2 3d ea 28 53 bd
       0.019542694 -0.03583463 0.11820394 -0.05155269
0003d0 ac 76 25 be 9f 7c dc be ca e6 33 3d 53 2c 6a 3e
       -0.16158551 -0.43063828 0.04392127 0.22868471
0003e0 07 02 0d 3e 00 0c 0c 3e 33 1a 39 be 0f 7b 02 be
       0.13770305 0.13676453 -0.180764 -0.12742256
0003f0 c4 a0 14 3d 37 73 a3 be c6 d3 b2 be bd e5 28 3e
       0.03628613 -0.3192384 -0.34927195 0.16493888

layers.0.conv.msg_mlp.0.bias f4 [64]
000000 b9 e8 8e b8 0c 70 ae ba da a5 a0 a5 d4 fd a2 bc
       -6.8144356e-05 -0.0013308539 -2.786796e-16 -0.019896425
000010 73 17 e0 ae 4d ce 4c 3b 30 b6 03 ba 78 30 2f bc
       -1.0190506e-10 0.0031250895 -0.00050244015 -0.010692708
000020 a9 07 19 3d 1a 3a b3 3d e8 36 3b 81 d3 df 16 bc
       0.03736082 0.08751316 -3.438587e-38 -0.009208637
000030 55 8a 8d 80 62 50 cc 9e 0f d4 b1 3d 0c 79 9b bc
       -1.2998429e-38 -2.1632586e-20 0.08683025 -0.018978618
000040 ad e8 39 b6 bd d4 dc 3c 34 f3 2b bd 98 10 08 3e
       -2.7702583e-06 0.02695691 -0.041979983 0.1328758
000050 a9 11 87 bd 2c a6 10 82 8a ff b2 3a 44 61 30 b9
       -0.06595165 -1.0627138e-37 0.0013656479 -0.00016820902
000060 3b 5e 84 bd bc ff a9 bd b1 25 2c ba 39 92 b5 3d
       -0.064632855 -0.083007306 -0.0006566896 0.088657804
000070 ae 4a bc b9 7d 36 77 3d e3 2b 80 3d 79 4e 07 b9
       -0.00035913795 0.0603547 0.06258371 -0.00012903837
000080 89 fd 95 3c b4 ac 67 3d 9d d9 cf ba d0 6a 2e 86
       0.018309372 0.056561187 -0.00158577 -3.2804236e-35
000090 26 7f 11 3e 34 79 ac bc 3f 0b d9 3d 98 a1 73 bc
       0.1420866 -0.021053888 0.10597848 -0.01487007
0000a0 ad e9 75 3d 9d c2 9e 3d ad cd c9 b5 b6 3e c4 b8
       0.060037304 0.07751963 -1.5035527e-06 -9.357689e-05
0000b0 10 ec 07 82 c4 c4 32 ae 99 23 22 bb 8f 5f 33 b5
       -9.98598e-38 -4.0647277e-11 -0.0024740456 -6.682175e-07
0000c0 37 40 c1 bd 0d a7 18 3b 98 39 2d 3a 41 e3 b4 3d
       -0.09436076 0.002329293 0.00066080084 0.08832408
0000d0 70 1c 18 3e 5d 49 e4 a8 72 50 d9 80 33 e0 c2 bc
       0.14854598 -2.5344901e-14 -1.9957161e-38 -0.023788547
0000e0 48 9b 1f ba 34 d2 1c b8 17 df 22 bc ff 30 8f 3d
       -0.00060885074 -3.7389065e-05 -0.009940884 0.06991767
0000f0 fe 1c 27 b9 5b cf 5e bd 70 95 4c b8 75 a3 ae b1
       -0.00015937162 -0.05439697 -4.8776565e-05 -5.0826494e-09

layers.0.conv.msg_mlp.2.weight f4 [64, 64]
000000 b7 78 e6 32 d0 31 0f ba 96 07 89 82 27 d7 5e 3e
       2.6830419e-08 -0.000546244 -2.0134695e-37 0.21761762
000010 8a 27 8d 24 1d f7 7b be 7c d1 65 38 77 7c 6f 3b
       6.1215984e-17 -0.24605985 5.4792952e-05 0.0036542693
000020 e2 4e 91 be 84 9c 3d 3d 99 04 32 00 e2 04 ea bc
       -0.28380495 0.046291843 4.593424e-39 -0.028566781
000030 63 53 24 00 4c b4 08 03 a9 0e f3 bc 70 63 19 bb
       3.335991e-39 4.017378e-37 -0.029670076 -0.0023405217
000040 73 e8 31 b0 85 b6 c9 3d 52 88 23 3d 57 00 2b bd
       -6.4722555e-10 0.09849266 0.039924927 -0.04174837
000050 7c 40 a4 3d 00 18 1b 80 c4 54 03 3a a2 57 93 35
       0.08020112 -2.488168e-39 0.00050098845 1.0977858e-06
000060 fe 43 75 be ec a1 0b 3e 00 47 a4 38 62 44 e7 3d
       -0.23951718 0.13635987 7.833354e-05 0.1129234
000070 d2 32 43 3a 36 b0 43 3d 97 2a c3 bd 61 be 9a 37
       0.00074462325 0.04777547 -0.09529608 1.8446883e-05
000080 56 df 18 3e a7 0f 8d 3e 73 20 9c 3a ab ca fb 81
       0.14928946 0.27551004 0.0011911526 -9.249365e-38
000090 6a 29 67 3e 99 8a 9b bd 5e 13 e8 3d 71 7a 56 3e
       0.22574392 -0.07594795 0.11331819 0.20945145
0000a0 f3 ad 04 be 46 69 35 3d f9 72 2e b3 a2 0e a0 36
       -0.12956981 0.04428985 -4.06171e-08 4.770075e-06
0000b0 d3 58 c8 80 9e 84 35 1a ca 2b 29 ba e3 07 3e ac
       -1.8398963e-38 3.753705e-23 -0.00064533635 -2.7005002e-12
0000c0 57 15 55 3a a3 03 3f 3b 34 2b 91 3a 14 3f 27 3d
       0.0008128485 0.0029146455 0.0011075498 0.04083164
0000d0 1f 41 9b 3e 0e 22 c3 85 a4 e8 5a 80 73 89 5f 3d
       0.3032312 -1.8350222e-35 -8.34865e-39 0.05457444
0000e0 0e 72 fc 37 b5 b4 a8 b2 9d 96 d8 3d c1 9b 5d 3e
       3.0093852e-05 -1.963995e-08 0.10575602 0.21641447
0000f0 83 b4 1d b9 a7 ce a6 b7 57 b4 31 33 4d 27 93 2a
       -0.00015039933 -1.9884972e-05 4.1375042e-08 2.6139716e-13
000100 a3 17 1e b8 59 fb 86 ba 3a 95 08 ad d4 c5 24 3e
       -3.769215e-05 -0.0010298296 -7.76384e-12 0.1609109
000110 f3 bf e1 ae a0 77 86 3e 19 30 ab 3a 28 90 66 3e
       -1.02659124e-10 0.26263142 0.0013060599 0.22515929
000120 46 e0 1d 3e ff b0 1c bd 03 00 5e 02 38 5f 79 3d
       0.15417585 -0.038254734 1.6309987e-37 0.060881823
000130 00 d8 54 00 6e f7 00 32 58 f4 e0 bd 31 31 50 3d
       7.791668e-39 7.50684e-09 -0.10984105 0.050828163
000140 b0 42 96 b6 b3 e4 a9 bc f9 bd e3 3d 4a 07 f9 3d
       -4.478112e-06 -0.020738935 0.11120219 0.121595934
000150 fd 0c 81 bd a1 76 39 03 9f ff 9c 3b ef 5e 48 b9
       -0.063013054 5.4502793e-37 0.0047912146 -0.00019108852
000160 8f 4c 1d 3e 20 41 89 bc 9b 7f 7d 39 e0 19 5d 3e
       0.15361236 -0.016754687 0.00024175497 0.21591902
000170 8f 2c 83 b7 85 7e 10 3e 36 04 3a 3e f0 e5 57 38
       -1.5637166e-05 0.14110763 0.18165669 5.147414e-05
000180 91 04 3d 3d 74 d0 a4 3e 51 ac 5a 3a 38 3b 11 29
       0.046146933 0.32190287 0.0008341717 3.2247832e-14
000190 00 82 65 3e ed 00 97 3d d9 c9 29 3e 14 d5 b5 3d
       0.22412872 0.073732235 0.16580905 0.08878532
0001a0 0a 61 ee 3d 49 e9 92 3d 93 a6 00 b9 10 9d 22 b6
       0.116396025 0.07173402 -0.00012269085 -2.4231304e-06
0001b0 7d ca 27 83 f7 fd 8f b1 25 09 a7 3c b4 7f a2 33
       -4.9309334e-37 -4.19072e-09 0.020390103 7.566942e-08
0001c0 d7 ef 13 3e dd 19 cf 3a 57 7b 4d ba a7 65 68 3e
       0.1444696 0.0015800555 -0.00078385085 0.22695027
0001d0 c4 86 b4 3e 10 25 87 36 0e b3 8a 00 29 da 0d 3d
       0.35259068 4.027628e-06 1.2737531e-38 0.034631882
0001e0 bb 1d 9d ba f0 97 49 b7 9c 5e a3 3d 94 d9 8e 3e
       -0.001198701 -1.2015909e-05 0.0797703 0.27900374
0001f0 59 36 5d 3a 6e 44 44 3c 5a e6 ac b9 91 11 d1 31
       0.00084385794 0.0119792055 -0.00032978022 6.0846976e-09
000200 6d 13 7d 94 60 60 54 ba 72 9c 11 02 ed 4f c7 bd
       -1.2777067e-26 -0.0008101519 1.0697815e-37 -0.097320415
000210 4f e8 d0 23 17 0e 17 bd 39 ac 01 b9 67 55 6d bb
       2.2649792e-17 -0.03687867 -0.00012366557 -0.0036214234
000220 94 81 26 be 4b 39 7d bd dc c1 9d 00 3b 5b 1d be
       -0.16260368 -0.061822217 1.4487717e-38 -0.15366833
000230 2b 59 60 00 e1 2f 08 03 4d bc 9b bc 70 9d 96 ba
       8.848195e-39 4.002177e-37 -0.019010687 -0.0011491012
000240 6a 63 c5 af 45 5b d5 bd 72 80 9b 3d b1 fc ce bd
       -3.590473e-10 -0.10417799 0.075928584 -0.10106791
000250 20 4a 10 bd 26 dd 1e 01 3f f6 4e bb 91 d5 92 ad
       -0.03522694 2.9178683e-38 -0.003157988 -1.669312e-11
000260 68 c1 f1 bd ee 62 0e be 99 8d 1c 37 ef 2b 42 bd
       -0.118044674 -0.13904926 9.331293e-06 -0.04740518
000270 37 06 79 39 b9 95 e1 bd c7 39 5f bd e5 16 d0 38
       0.00023748806 -0.110148855 -0.05449846 9.922477e-05
000280 ee 86 97 bd c1 59 de bd f6 43 c7 b9 2c fa 2d 03
       -0.07398783 -0.10856963 -0.00038006873 5.1127314e-37
000290 4c 3e d6 3d 2c 86 0a be 86 06 8a bd 22 e6 be bc
       0.10461101 -0.13527745 -0.067395255 -0.023303095
0002a0 93 81 28 be cf 4d e4 bd cf f5 61 ad 41 34 50 b6
       -0.16455679 -0.11147653 -1.284435e-11 -3.102483e-06
0002b0 c9 92 03 01 d8 be 66 a2 a4 82 7e bb 0d 9c a1 2b
       2.4166213e-38 -3.1271844e-18 -0.0038835192 1.1483051e-12
0002c0 5f 9d ce bd 01 7f 28 39 71 c7 66 39 7b 94 26 bd
       -0.1008861 0.00016069041 0.00022008807 -0.040668946
0002d0 d8 39 7d 3d 10 f9 f8 13 b4 9e 53 00 ae ad 3a 3d
       0.061822742 6.2849596e-27 7.679278e-39 0.04557579
0002e0 e5 2d c8 37 b3 ce 96 af d4 a9 a2 bb 42 de 71 3d
       2.386323e-05 -2.743171e-10 -0.0049640927 0.059049852
0002f0 29 64 57 b4 03 14 72 ba d6 cd 62 33 c7 49 84 25
       -2.0059873e-07 -0.00092345494 5.2806932e-08 2.2948343e-16
000300 35 bb 8a a2 74 3f 80 bb c1 5f 3f 82 20 b7 b5 bd
       -3.760319e-18 -0.003913814 -1.4059944e-37 -0.08872819
000310 d6 25 00 a3 b3 32 80 bd e9 ab e7 b9 8c ad b6 bd
       -6.946906e-18 -0.0625967 -0.00044187836 -0.0891982
000320 4e 7c 5f be 72 3f 0b be c0 05 0e 80 ef c8 d4 3d
       -0.21824762 -0.13598421 -1.28776e-39 0.103898875
000330 7a 07 2f 80 16 79 08 03 af 70 94 3c 50 3d b2 ba
       -4.31895e-39 4.010581e-37 0.018120138 -0.0013598595
000340 51 53 b2 ad d1 86 89 3d b0 a5 92 bd ac a3 78 3d
       -2.0273257e-11 0.06715167 -0.07160509 0.060702965
000350 85 27 9d bd e8 b7 b0 81 d8 c7 ec bb 02 19 a3 1b
       -0.076735534 -6.491608e-38 -0.0072259717 2.698225e-22
000360 37 bd 69 be ed e7 52 bc bf b4 77 37 d4 16 a0 3d
       -0.22826086 -0.012872678 1.47644305e-05 0.07816854
000370 12 7e 6d 38 c9 c7 9f 3d 2e 4b f6 bd 63 d6 a9 37
       5.6622615e-05 0.07801778 -0.12026058 2.0246202e-05
000380 61 5f 04 be 47 34 3c 3e b9 22 04 ba de 3a 33 03
       -0.12927009 0.18379317 -0.00050405745 5.267095e-37
000390 96 6e 5e bc 0d f8 7d 3d ef 13 70 bd 7b 37 81 bc
       -0.01357617 0.062004138 -0.05861276 -0.015773525
0003a0 65 6b 49 bd 1b a6 ab bc 57 46 9b 19 04 a2 13 b6
       -0.049174685 -0.020953229 1.6055034e-23 -2.1999012e-06
0003b0 9f f0 f8 00 f7 3d ca 05 93 1d 06 bb aa 4c 08 2a
       2.2861522e-38 1.9018751e-35 -0.0020464405 1.2105825e-13
0003c0 ef 37 e7 bd 5b 1f 97 ba ed 69 17 ba 24 7b f2 bb
       -0.11289965 -0.001152973 -0.0005775977 -0.0073999334
0003d0 5a 13 97 bd 57 da ea 25 bc 20 9b 80 9a 5b 6d 3d
       -0.07376738 4.0740482e-16 -1.4246245e-38 0.057948686
0003e0 50 ea 5b 39 9a d4 0e af de 9d 94 3d 19 57 19 3e
       0.00020972756 -1.2990356e-10 0.07256673 0.14974631
0003f0 b3 85 9b 35 d8 70 92 b6 3b 1a e5 34 f8 ff 65 9f
       1.1587312e-06 -4.364276e-06 4.267366e-07 -4.870437e-20

layers.0.conv.msg_mlp.2.bias f4 [64]
000000 bb a1 02 3e 29 13 52 be 81 95 39 3d 59 42 bc 3d
       0.12757008 -0.20515122 0.045308594 0.09192342
000010 ad 53 fd 3c 07 bb d1 bc 67 ce 1a bd 87 ff 04 3e
       0.030923689 -0.025601877 -0.037794497 0.12988101
000020 6f 10 f5 bd 6f b9 24 bd cc 83 09 be c2 a1 98 3e
       -0.11966025 -0.040215906 -0.13429183 0.2981091
000030 95 5c be bc de da 94 3d ca 31 03 be a8 91 03 3c
       -0.023237506 0.07268308 -0.12811962 0.008030333
000040 ac fd 63 3e c6 50 e6 3d 23 7d 2a be 1c f0 33 be
       0.22264737 0.11245875 -0.16649298 -0.17572063
000050 fa ef 34 be 21 7a 1e 3e d0 67 f3 3d 00 d4 8a bc
       -0.17669669 0.15476276 0.11885035 -0.016946793
000060 4a 80 62 3d b2 eb 06 be 93 e2 ee bc 40 3b 93 3d
       0.055298127 -0.13175848 -0.029160773 0.071890354
000070 94 ef 43 be b8 16 d5 bd af 40 3a bb 73 f2 42 3c
       -0.1913436 -0.10404724 -0.0028419902 0.011898625
000080 45 2e 57 3d 4f 53 bd bd 1a 25 21 3d 56 7b 96 bb
       0.05253436 -0.092444055 0.039342023 -0.0045923395
000090 be 48 32 be 1a c5 29 be d3 e4 03 3e 49 99 83 bc
       -0.17410561 -0.16579095 0.12880258 -0.016064303
0000a0 fb 20 82 3d df 5a e7 bc 00 d0 b5 3d b5 14 8c bc
       0.06353947 -0.028241573 0.088775635 -0.017099718
0000b0 c3 b0 60 3d b2 77 7e bc 3c 10 e4 3d 9e 65 18 bd
       0.054856073 -0.015531467 0.11135909 -0.037206285
0000c0 58 be 8c 3d 8d 9f 8e bd 5f e9 1f bd cd d3 0b be
       0.06872243 -0.06964026 -0.03904092 -0.13655014
0000d0 1c 34 d6 3d 09 02 58 bd 67 92 94 be cc e2 c1 bd
       0.10459158 -0.052736316 -0.29017946 -0.09467086
0000e0 bb 21 0d be c3 56 8d 3d cd 50 94 3d 6c e0 9a bd
       -0.13782398 0.06901314 0.07241974 -0.07562336
0000f0 23 52 c8 3d a7 d8 94 3c 98 75 df bc 8d 61 74 3e
       0.09781291 0.018169714 -0.027277753 0.23865338

layers.0.mlp.norm.weight f4 [64]
000000 14 3f 20 3f 18 06 51 3f c9 be a5 3e cf 2e 16 3f
       0.6259625 0.81649923 0.3237212 0.58665174
000010 c7 55 3c 3f af 76 35 3f a6 8b 66 3f 69 fa 05 3f
       0.73568386 0.7088422 0.90056837 0.5233522
000020 27 c2 85 3e 9b c6 10 3f ab 81 1b 3f 49 ff 66 3f
       0.2612469 0.5655305 0.6074473 0.90233284
000030 05 47 5f 3f 74 2c 73 3e 4e 02 0d 3f 15 40 22 3f
       0.8721774 0.23747426 0.5508164 0.6337903
000040 59 37 4e 3f 40 56 2a 3f 01 e8 34 3f cf 7e 62 3f
       0.80553204 0.6653786 0.7066651 0.88474745
000050 b2 19 2e 3f 80 90 2e 3f 93 d1 68 3f 75 f9 18 3f
       0.6800796 0.6818924 0.90944785 0.5975564
000060 bd 22 f4 3e 80 de 4a 3f 23 60 f0 3e e7 da 6e 3f
       0.47682753 0.7924576 0.46948346 0.9330277
000070 8e 67 44 3f ef 7e 54 3f 9d 5b 0b 3f 24 2b 2e 3f
       0.7672051 0.83006185 0.54436666 0.6803458
000080 76 c5 37 3f ca a5 03 3f eb cf 16 3f e7 8f 27 3f
       0.71785676 0.5142485 0.5891101 0.6545395
000090 34 ce 50 3f 26 b1 18 3f 85 d7 2c 3f be 1d 47 3f
       0.8156464 0.5964531 0.67516357 0.7777976
0000a0 4e b4 bc 3e 4c 6d 2c 3f 4c d5 26 3f 62 43 24 3f
       0.36856312 0.67354274 0.65169215 0.6416532
0000b0 3a 50 58 3f 06 34 1c 3f 53 01 67 3f d4 10 f3 3e
       0.84497416 0.6101688 0.90236396 0.47473776
0000c0 b7 51 44 3f e3 17 3a 3f df 33 24 3f c6 9e 9e 3e
       0.76687187 0.726927 0.6414165 0.3098051
0000d0 c3 3d 56 3f a3 c8 2f 3f 28 b2 e3 3e 06 39 dd 3e
       0.8368799 0.6866552 0.4447186 0.43207568
0000e0 b8 da 5d 3f 6a dd 37 3f ab 19 08 3f b9 99 37 3f
       0.86661863 0.71822226 0.53164166 0.7171894
0000f0 71 25 54 3f 16 d2 04 3f ab c2 49 3f c7 9c 63 3f
       0.8286963 0.51883066 0.78812665 0.889111

layers.0.mlp.norm.bias f4 [64]
000000 4b b6 85 bc 70 53 0a be a5 1b 5d 3d 6c 20 de 3c
       -0.016322276 -0.13508391 0.053981442 0.02711507
000010 ac e7 c8 bd 3f 25 1b bc d4 ca 8e bd e7 9b 35 3d
       -0.09809813 -0.009469329 -0.0697228 0.044338133
000020 d6 dc 9c 3d a0 f6 f0 bc 55 b8 f6 bc 21 a8 36 3d
       0.076593086 -0.029414475 -0.030117193 0.044593934
000030 71 ae c6 3d b8 13 d5 3b 5b 27 63 3c 2e 7e a9 bd
       0.09701241 0.006502595 0.013864364 -0.0827602
000040 3c 15 4b 3d d2 e6 2a be ee c5 41 3e 3e 82 c6 bd
       0.049580798 -0.16689613 0.1892316 -0.096928105
000050 0f 84 a9 3d c1 df c5 bd af e6 31 3d e3 c7 85 bd
       0.08277141 -0.09661818 0.043432888 -0.06532266
000060 ed d2 d6 bd 82 5e 88 bd 62 9e 97 bd fa 15 01 3e
       -0.1048945 -0.06658651 -0.07403256 0.1260604
000070 eb ec bd bc 01 15 3f be c9 73 7d bd 91 b2 18 bc
       -0.02318426 -0.18660356 -0.061878 -0.009319917
000080 d7 df ea 3d 97 55 c6 3d b2 8f 08 be 92 10 10 bc
       0.11468475 0.09684294 -0.13336065 -0.008793013
000090 c9 e4 ef bd 58 09 62 bd 0b d8 e3 bb 63 6a dd 3d
       -0.11713559 -0.055184692 -0.0069532446 0.10811307
0000a0 d4 c9 2c bd ed 86 09 3e 74 92 80 3d 21 3b 05 3c
       -0.042184666 0.13430376 0.06277934 0.008131773
0000b0 17 7e 21 3d 67 73 e2 bc 00 39 bb 3d 2a c5 a6 bc
       0.03942689 -0.027642919 0.09141731 -0.020357687
0000c0 ff dd 93 3b b8 82 fd bc ad 5d 81 bd 1c a4 1d 3d
       0.004512548 -0.03094612 -0.06316695 0.038486585
0000d0 c4 31 3a bd fc af 95 3d b7 a2 be bd 36 04 b3 bd
       -0.045457616 0.07308957 -0.09308379 -0.087410375
0000e0 3e 53 07 3d 27 2b 9e bd 69 22 20 3e 7d 58 4b bc
       0.03303837 -0.077230744 0.15638126 -0.012411234
0000f0 7d 02 bf 3d d7 ee ed bd bb c3 a0 3d 4d 55 ad 3c
       0.093266465 -0.11617821 0.078498326 0.021158839

layers.0.mlp.mlp.0.weight f4 [256, 64]
000000 a1 19 81 bc c8 14 a0 bb 4d 37 ee b9 68 63 8a b9
       -0.015759291 -0.00488529 -0.000454361 -0.00026395475
000010 84 52 b9 bb 81 e8 be 3b ab bd 13 bc 1d f8 da ba
       -0.0056555886 0.0058260565 -0.009017388 -0.0016706024
000020 88 8c 8e b9 b5 75 7a 3b 5b 60 7f 3b 21 36 0b bd
       -0.00027189055 0.0038217132 0.0038967344 -0.03398717
000030 c3 87 93 bc 90 02 20 39 46 f0 8f b9 a6 10 c7 b9
       -0.018009072 0.00015259744 -0.00027454103 -0.00037968642
000040 39 20 28 bd 19 67 9d bc ef 60 e5 3c a3 48 9e 3c
       -0.041046355 -0.0192142 0.028000323 0.019321745
000050 0e 9a bd 3c 7e 34 03 bc 67 42 bd bc 72 61 ce 3b
       0.023144748 -0.008008121 -0.023102952 0.0062982375
000060 72 35 33 ba f0 58 55 3c 11 54 44 bb fb 40 61 3b
       -0.0006836272 0.013021693 -0.0029957334 0.0034371007
000070 a7 e3 d5 3c 83 c6 86 bb fd d5 ce bb a4 74 06 3c
       0.02610953 -0.00411302 -0.0063121305 0.00820652
000080 45 24 f0 bb c1 e1 ca 39 d2 cf 15 bc e9 fc 6e bc
       -0.0073285424 0.00038696642 -0.0091437865 -0.014586666
000090 7b 85 52 3c f4 e4 33 bb c7 77 58 bb 66 8c 45 3b
       0.012849207 -0.00274497 -0.0033030377 0.0030143498
0000a0 c6 a7 f6 3a 9a 7a c7 3b 7e 0c 9c 3b 88 1f ab 3b
       0.0018818311 0.0060876133 0.0047622314 0.0052222647
0000b0 56 73 4d bb 18 10 a8 3a f5 a7 d9 bc 4c fa c7 ba
       -0.0031349263 0.0012822179 -0.026569346 -0.0015257089
0000c0 8a c3 a7 3a 5e c9 1a 3a f5 cc d0 ba da ab 97 3a
       0.0012799364 0.000590464 -0.0015930223 0.0011571601
0000d0 50 bb c4 bc 49 28 93 3b 82 24 81 3b ad 45 26 3a
       -0.024015099 0.0044908863 0.0039411196 0.000634278
0000e0 57 8b 1f bc ba a6 b6 bb b0 6d 0f 3b 6b 2f 0a 3c
       -0.009737811 -0.0055740746 0.0021885447 0.008434157
0000f0 3c de 8c ba fd 8b 22 3a d3 01 ca 3b 48 e0 a5 bc
       -0.0010747383 0.00062006694 0.0061647682 -0.020248547
000100 21 04 8d bc 33 cb 30 bd 72 d8 e9 ba 2a 4d c5 bb
       -0.017213883 -0.043162536 -0.0017840995 -0.0060211616
000110 14 80 d9 bc 9b 66 04 3c 11 47 f9 bb 1e 45 86 3c
       -0.02655033 0.008081104 -0.0076073487 0.01639038
000120 a2 dd 59 3b d2 89 d0 3b c6 ae 83 bc ac 15 15 bd
       0.0033243676 0.0063640857 -0.01607455 -0.03639762
000130 45 0f 37 3d 46 89 0f bb a2 5c 41 3c 20 49 ff bb
       0.044692297 -0.002190189 0.011801871 -0.0077906996
000140 91 8b d3 3c 66 00 a2 bc bb c6 2d 3c fc 9e 40 bc
       0.025823386 -0.01977558 0.010606463 -0.011756655
000150 a2 a3 48 3d 72 3a 14 bc 73 09 20 ba d4 3b de bc
       0.048984177 -0.009047138 -0.00061049237 -0.027128138
000160 f6 16 71 ba ed 51 3b 3a bf ff cc bb 6c be 57 39
       -0.0009196842 0.0007145692 -0.0062560732 0.00020574935
000170 87 6d 50 3d e8 cd 22 bb aa 82 95 bc 1f 24 cf 3b
       0.050885703 -0.0024841968 -0.018250782 0.0063214446
000180 06 0f e2 3c 6e ca 7f 3b 1d 19 c5 bc 2e 91 32 bc
       0.027595054 0.003903057 -0.024059827 -0.010898871
000190 95 8e 04 bd 0c ec 4b bb 5c 2b 14 3d a0 d4 89 3c
       -0.03236254 -0.0031116037 0.036174163 0.01682502
0001a0 59 6a 45 3b 67 c3 ad 3b b9 74 00 3d 24 52 0a 3c
       0.0030123203 0.005302835 0.031361315 0.008442435
0001b0 5b 4f 01 3c 55 13 fa 3b bd 7a 1e 3d ce 20 24 bc
       0.007892455 0.007631699 0.03869127 -0.010017587
0001c0 9f 60 53 3d a6 46 05 bb 50 02 ef ba d4 85 91 3b
       0.051605817 -0.00203363 -0.0018234942 0.0044410024
0001d0 4d 3b 36 bd b9 8b 91 3b 3a 6c 5f 3b 68 01 0a 3b
       -0.044490147 0.004441705 0.0034091608 0.0021057967
0001e0 18 a3 a6 bc a2 32 9c bb 09 19 0c 3c 70 4a 3d 3c
       -0.020341441 -0.004766778 0.008550891 0.011553392
0001f0 05 08 52 3c 46 6c b5 bb d8 79 2a 3c 8e 0e da 3b
       0.012819295 -0.005536589 0.010405026 0.006654567
000200 42 67 fe bb ce a7 7a 3c 8b 31 90 ba a4 d3 ff b9
       -0.007763774 0.015298797 -0.0011001093 -0.00048795075
000210 ad 59 f5 bb b4 6e 8e 3b a5 60 ad bb 28 91 69 3a
       -0.007487497 0.004346693 -0.005291062 0.00089098746
000220 6c 46 1d 3a 64 8f 57 3b 7a 7f 72 bb b7 d5 cc bc
       0.00059995684 0.0032891864 -0.0037002251 -0.02500425
000230 6d 71 39 bb be 89 37 b8 67 1a 40 3b e1 0d cf b9
       -0.0028296367 -4.3758882e-05 0.0029312612 -0.00039492457
000240 a7 b4 8a bc 75 6b 89 bb 54 1c 6b bb f3 ed 80 38
       -0.016931845 -0.004193718 -0.003587504 6.147837e-05
000250 02 6f 7d 3c 18 61 4b bb 7e ce 2c bc 35 73 83 3a
       0.015468361 -0.0031033214 -0.010547278 0.0010028841
000260 21 51 f3 ba 16 99 28 3c 1f 36 9e ba d4 27 51 3b
       -0.0018563607 0.010290405 -0.0012070573 0.0031914609
000270 68 b4 b6 3b 73 7b aa b9 47 66 3b 3b 8e 5d bc 3b
       0.0055757053 -0.00032516904 0.0028594898 0.0057484573
000280 8a 14 d4 bb ee 51 1c 3b 51 06 06 bc f1 03 a2 bb
       -0.006472175 0.0023852545 -0.008180217 -0.0049443175
000290 9e 63 ea 3b 1c d2 18 bb e2 ab 6e bb 98 d3 c1 3b
       0.0071529886 -0.0023318594 -0.0036418368 0.0059151165
0002a0 f9 76 83 3a 94 77 dc 39 e4 4b 2a ba 81 f4 3a 3b
       0.0010029963 0.00042050763 -0.0006496294 0.0028527083
0002b0 e8 95 7e 39 cd a2 8b bb 28 74 d0 bb 8e 97 59 bb
       0.00024279172 -0.0042613507 -0.006361503 -0.0033201906
0002c0 66 13 98 bb cb 53 76 bb 90 42 0b bb 12 78 68 bb
       -0.0046409843 -0.0037586566 -0.002124939 -0.0035471958
0002d0 11 0f 95 bc 84 62 c0 3a 2d b7 8b bb f8 96 00 3b
       -0.01819566 0.0014677797 -0.0042637796 0.0019621234
0002e0 5e 9a 8e 3b 9a 66 4d ba 72 a6 9b 39 2f 7d 79 3b
       0.004351898 -0.0007835418 0.00029687915 0.0038069
0002f0 41 80 32 3b c3 05 4e ba 69 90 0f 3c f5 73 ac bb
       0.002723709 -0.0007859135 0.008762457 -0.0052628466
000300 b8 38 6c bd 66 70 3d 3c ea 81 25 bc 49 ca 34 bd
       -0.05767128 0.011562442 -0.010101775 -0.044138227
000310 cb b1 8c bd e6 aa 4a 3d 34 e3 62 bd 5c 5b 93 3b
       -0.06869849 0.049479388 -0.05539246 0.004496975
000320 a4 8f 6f 3c b8 d4 05 3d 32 83 ec bc b6 a0 92 bd
       0.014621649 0.032673568 -0.028871153 -0.071595594
000330 e4 5b 30 3d 20 7b ae bb e3 91 48 3d 4f c8 70 bc
       0.043056384 -0.0053247362 0.048967253 -0.014696195
000340 6d 50 ec bc 79 f6 0c bd b5 3e 09 3d 3c 5a 34 bd
       -0.028846944 -0.034414742 0.033507068 -0.044031367
000350 f5 a1 d3 3d 86 28 12 bd 77 8c 05 bd de e0 70 bc
       0.10333625 -0.035683177 -0.03260466 -0.01470205
000360 3b 65 35 bb 6f 6a 15 3d 91 bc 90 bc 7b 00 9b 3c
       -0.0027678746 0.036478456 -0.01766804 0.018921128
000370 75 9c 56 3c fb ae 94 bb 1c 2a b8 bc 30 f5 6f 3d
       0.013098826 -0.004537461 -0.022481017 0.05858344
000380 ad 04 a2 bc 86 34 e7 3c 9b fd 43 bd 2e 67 1b bd
       -0.01977762 0.028223287 -0.04784928 -0.037940197
000390 e3 ac 09 bb 3f 58 4e bc 85 50 84 bc 2e 5d 2e 3d
       -0.002100759 -0.012594282 -0.016151676 0.04256933
0003a0 be b8 b4 3b 3a 82 91 3c 8e ca d1 3c a6 59 cc 3c
       0.005515187 0.017762292 0.02560928 0.024945091
0003b0 3f d3 c2 3b ad 1e 70 3c f1 e2 43 3c e6 41 9e bb
       0.0059455927 0.014655751 0.0119559625 -0.004829633
0003c0 be 6e f9 bb 1c fc b0 bc f7 95 80 bc ed 56 1e 3a
       -0.0076120785 -0.02160459 -0.015696509 0.00060401746
0003d0 a3 15 00 be 3a 5e a6 3c f9 b6 00 3c 02 fc 14 3c
       -0.12508254 0.020308603 0.007856124 0.0090932865
0003e0 eb 7b b4 3b 7e 1b a8 bb 89 9c e4 3c 9a 3d 2d 3d
       0.0055079362 -0.0051302304 0.027906673 0.042295076
0003f0 2b 5e 0a 3d 27 4a c3 bc 35 4b 8e 3d ce 16 08 bd
       0.03378121 -0.02383907 0.06947938 -0.033224873

layers.0.mlp.mlp.0.bias f4 [256]
000000 05 77 d6 bc d3 78 6e bd e5 9a 86 bc d8 1f aa bc
       -0.0261798 -0.058220696 -0.016431281 -0.020767137
000010 7d d8 41 bc 5c a6 89 3d 00 02 0a bd fe f9 5e 3c
       -0.0118314 0.06721184 -0.033693314 0.0136094075
000020 87 23 b6 3a 74 53 36 bd b9 44 21 bd 36 04 0d 3b
       0.0013896086 -0.04451318 -0.03937218 0.0021517402
000030 48 97 eb bc ad 53 ab bc 55 49 cf 3d 25 80 53 3d
       -0.02875866 -0.020913923 0.10121409 0.05163588
000040 bf eb 0b 3d fc 9b f9 bc b7 46 4e bd bb 1b dd bc
       0.034160372 -0.030469887 -0.050360408 -0.026990762
000050 2b 74 36 bd c7 6b 3a bd 24 4e d8 bc 03 2b 82 bb
       -0.04454438 -0.04551294 -0.026404448 -0.0039724126
000060 45 13 04 bd 47 eb 26 bc 01 30 b3 bc 7a bc 65 bc
       -0.03224494 -0.01018793 -0.021873476 -0.014021987
000070 52 a6 86 3d e5 32 4c bb d0 ec ac bc d6 4b 2a 3c
       0.06574692 -0.0031158265 -0.021109015 0.010394057
000080 b6 00 c4 bb 9a 08 0e bd 36 86 ea bc 3f 5c eb bb
       -0.00598153 -0.03467617 -0.02862845 -0.0071826275
000090 dd 3d 3d 3c 01 1a d2 3b b6 78 f4 bc 06 7d 15 bd
       0.011550394 0.0064117913 -0.029842716 -0.036496185
0000a0 63 6a 17 bd 13 56 33 bd e3 ce 00 bd 86 fe 01 3c
       -0.036966693 -0.04378326 -0.031447303 0.007934218
0000b0 f1 4e f8 bc e0 bf e2 bc 5a b6 0c 3d dd fb 02 bc
       -0.03031108 -0.027679384 0.03435359 -0.007994619
0000c0 35 dd c8 bc ab 7e 10 bd 94 33 42 bd 1a 1c 37 b9
       -0.024519542 -0.03527705 -0.04741247 -0.00017462709
0000d0 95 e8 28 bd 4c 67 fc bc 24 f4 87 bc 36 3d 7e bd
       -0.041237433 -0.030810975 -0.016595908 -0.062070094
0000e0 72 42 c4 bc b6 84 9c bc db 5f c2 3d 96 d5 49 bd
       -0.023957465 -0.01910625 0.09490939 -0.049275957
0000f0 fd 18 08 bb 23 c7 92 bc c2 6f 9e 3d 1d ae 95 3d
       -0.0020766847 -0.017917221 0.0773616 0.073086
000100 d6 3a 1d bd 57 ab cd bc 01 4d 7e bc 63 2f e0 bc
       -0.03838619 -0.025106115 -0.015521289 -0.027366346
000110 f0 b6 ac bc e4 10 01 bb 37 02 5b bc 3f 58 f4 bc
       -0.021083325 -0.0019693905 -0.013367227 -0.029827235
000120 54 fd f3 bb 21 b2 de 3c d1 e2 2a 3d 7a 55 14 3e
       -0.0074459706 0.027184548 0.041720215 0.14485732
000130 fa 15 b1 bc 1f 3c cd bc df cf 8d bc 3f 07 11 3d
       -0.021616925 -0.025053082 -0.017311035 0.0354073
000140 b5 22 11 bd 55 5d 2f bd c1 d1 ea bc 01 b5 ef bb
       -0.03543349 -0.042813618 -0.028664472 -0.0073152785
000150 f9 71 80 bc 5e 80 6d bc 70 e4 fb bc ea de 0f 3c
       -0.015679346 -0.014495937 -0.030748576 0.008781174
000160 2e 15 08 bd 2c d4 d2 3d dc 69 11 bd 67 c9 ff ba
       -0.033223324 0.10294375 -0.035501346 -0.0019514979
000170 0f 89 6e 3c 90 05 81 bd 11 fe b4 bb 45 ff f9 38
       0.0145590445 -0.06299889 -0.005523451 0.00011920793
000180 ff 6b 37 bd 43 e2 10 bd be f2 19 bc ec 55 79 ba
       -0.044780727 -0.03537203 -0.009396253 -0.00095113995
000190 01 e3 a5 3c b9 68 fa bc 42 41 5f 3c ad b2 2c 3b
       0.020249845 -0.030567514 0.0136263985 0.0026351616
0001a0 d7 cb 48 bc 5e 24 86 bd 86 71 c0 bb 84 a2 cc bc
       -0.01225563 -0.06549905 -0.005872908 -0.024979837
0001b0 68 18 84 bd ec 17 e6 bc 6f 29 eb bc 63 39 8b ba
       -0.064499676 -0.028087579 -0.02870628 -0.0010621961
0001c0 13 bb a2 bc 91 68 3d 3d d0 cf 37 bc 84 8c e2 ba
       -0.019864595 0.0462423 -0.01121898 -0.0017284309
0001d0 7b 87 b0 bc 29 58 17 bc f8 8a e2 bc f3 08 87 bd
       -0.021548977 -0.009237328 -0.027654156 -0.06593504
0001e0 0f fd 67 bc 71 0c c8 3d 5e 39 9b bc 5c cd 40 bc
       -0.014159455 0.09767998 -0.018948253 -0.0117677115
0001f0 87 1a 93 3b 54 a6 9e bd ec c0 82 3c 9f 0b cc bc
       0.0044892463 -0.07746568 0.015961133 -0.024907885
000200 d3 97 c1 bc fa 4e d7 3d 67 41 2e bc 53 81 9d bc
       -0.023631966 0.105131105 -0.01063571 -0.019226706
000210 10 57 b1 bc 5e 7e da bb 28 af be bc d0 0f 03 3b
       -0.02164796 -0.006667896 -0.02327688 0.0019998439
000220 97 80 0b bd 07 ea 71 3b b4 07 03 bd 4d c3 f8 bc
       -0.03405818 0.0036913173 -0.03198977 -0.030366564
000230 bb 5a e9 bc 28 f8 49 bd 2e 0c 81 bc a9 a7 f7 3b
       -0.028485646 -0.049308926 -0.015752878 0.0075578284
000240 2b 4e bb bc e8 c9 5c bd e6 76 e1 3c 62 9c e4 bc
       -0.022864422 -0.05390349 0.027522516 -0.0279066
000250 46 50 85 bc e0 f1 7e bb f4 22 1b bc df a7 d1 bc
       -0.016273629 -0.0038901493 -0.009468783 -0.025592742
000260 f8 b4 6d bd 69 90 5f 3c df ed 69 bb 7b d1 a7 bc
       -0.058033913 0.01364527 -0.003569476 -0.02048563
000270 aa 80 dc bb 77 d8 8c bc 31 b5 45 3a c5 b3 1e 3c
       -0.006729205 -0.017193062 0.0007541953 0.009686415
000280 2f 78 83 bb 04 80 7e bc 42 5a 03 bd 22 fe 78 bc
       -0.0040121297 -0.015533451 -0.0320685 -0.015197309
000290 19 62 ec bc 2a 94 f4 bc 59 01 04 bd 14 5c cc bc
       -0.02885537 -0.029855806 -0.032227848 -0.02494625
0002a0 c3 28 1f bb ca eb 9c bc 65 40 83 b9 8f a1 e6 bc
       -0.002428577 -0.019155402 -0.00025034245 -0.028153209
0002b0 76 06 08 bc ec eb 4d 3d 3d 33 39 bd 75 31 45 3d
       -0.008302322 0.05027382 -0.04521488 0.04814287
0002c0 e1 b2 0f bc fb f1 83 3d 7c 36 ab 3c fb 2b a9 bc
       -0.008770675 0.064426385 0.020900004 -0.020650854
0002d0 7a a4 fd bc 44 d2 0e 3c 6d d3 14 bc f9 f9 a8 3d
       -0.030962218 0.008717123 -0.009083611 0.082508035
0002e0 92 52 81 bb 6e c4 9c bc 51 1c 87 bc 96 db d7 bb
       -0.0039466107 -0.019136634 -0.016492995 -0.006587456
0002f0 1c cd 0c 3c 00 04 d6 bc 12 13 46 bd c6 d3 0f bc
       0.008593824 -0.026124954 -0.04835803 -0.008778518
000300 4e c9 36 bd 5e 42 b8 3a 2d 43 89 bd db 11 91 bb
       -0.044625573 0.0014057865 -0.06702266 -0.0044271774
000310 26 32 49 3d 88 77 0a bc 24 07 01 3e cf 60 99 bc
       0.04912009 -0.00845135 0.1260038 -0.01872292
000320 82 2e 29 bc a0 0c 0b bd a9 86 0d bd af de 5f bd
       -0.01032603 -0.033947587 -0.03455225 -0.054655727
000330 1f 00 db 3b 56 67 e0 bc fd 42 eb ba 35 76 cb bd
       0.006683364 -0.027393024 -0.0017949041 -0.099346556
000340 6d 54 50 bd ec 99 4d b9 20 b7 d8 bc b6 4c 5e bc
       -0.050861765 -0.00019607664 -0.026454508 -0.013568094
000350 41 36 08 3e fe e6 17 3c 90 5c 74 bc a0 99 42 bb
       0.13301946 0.009271381 -0.014914647 -0.0029693618
000360 86 90 51 bc 41 d1 57 3a 83 d9 0d bb 76 e5 82 bc
       -0.012790805 0.00082327804 -0.002164454 -0.015978556
000370 18 2d 23 bd fa c4 39 3b e8 97 28 bd e3 04 f3 bc
       -0.039837927 0.0028346167 -0.041160494 -0.029665416
000380 1a 55 01 bc 38 be 17 3d 20 1f 0a bd a2 dd 50 bd
       -0.007893825 0.03704664 -0.03372109 -0.050992616
000390 67 e2 1b bd 90 6a a2 bc b3 90 d3 bc 7c c2 57 3c
       -0.03805771 -0.019826204 -0.025825834 0.013168927
0003a0 df 40 65 bd 7f bf 92 bb 76 e7 ad 3c de fe cf bb
       -0.05597007 -0.0044783945 0.021228533 -0.006347521
0003b0 9f 4e 79 bc 75 c5 fc ba 7b 26 6e bb 6f 11 62 bc
       -0.015216499 -0.0019284921 -0.0036338854 -0.013798102
0003c0 89 7c 65 bc a7 75 d8 bc 6d 02 b2 bd 79 19 e3 3b
       -0.014006742 -0.026423289 -0.08691869 0.006930527
0003d0 4c ac 33 bd c1 99 0d 3b a6 d0 e7 bc 8c 60 77 bd
       -0.043865487 0.0021606537 -0.028297734 -0.06039481
0003e0 bb bd 94 bc 80 d3 df 3c df d3 93 3c 98 2a b0 bd
       -0.018156877 0.02732253 0.018045364 -0.08601874
0003f0 27 22 17 bc 55 82 de bc 8e 6c c8 bc 2f 86 73 bd
       -0.009224451 -0.027161757 -0.024465825 -0.05945414
