models/best_demon_len=99699_qbits=20_{Gen=true_L1=34_cp=0.00123418_w=Inf}_{L2=2_cp=1.0e-15}.pth (torch, 47094 bytes, 29 tensors)

input_proj.weight f4 [16, 3]
000000 a7 c9 a3 3c 55 46 00 bc 45 ab 8d bd 76 15 27 3d
       0.019993616 -0.007829268 -0.06917433 0.04079195
000010 a5 ef 34 3f 93 e1 60 be a9 9b fb be d5 18 1f bd
       0.7067817 -0.2196105 -0.49142197 -0.03884204
000020 39 d2 63 bd 91 66 00 bc 44 8b b4 bc ed b1 6c bc
       -0.055620406 -0.007836954 -0.022039063 -0.014446718
000030 f4 3b 09 bf 97 aa 25 bf 76 6d 01 bd 54 65 b1 be
       -0.53607106 -0.64713424 -0.03159853 -0.3464762
000040 5c 86 b8 be 14 0e ef 3c 90 23 15 bc c1 05 f2 bc
       -0.36040008 0.029181518 -0.009102717 -0.02954376
000050 71 e4 c7 bc 1c 3b 0d 3d b7 d8 f5 bb dd a1 9f bc
       -0.024400922 0.0344802 -0.007502641 -0.019486362
000060 1b 95 d4 bc 02 8f 60 bd 5c 79 12 be a8 46 03 bc
       -0.025950005 -0.054823883 -0.14304107 -0.008012451
000070 da e9 b0 bc e2 33 34 bc 04 68 04 3d bf 63 ae 3b
       -0.021595884 -0.010998698 0.03232576 0.0053219493
000080 03 01 85 bd fe 32 2b bc 75 d2 c2 bc d8 1b 3d bc
       -0.064943336 -0.010449169 -0.023781994 -0.011542283
000090 71 27 d4 bc ac 53 23 bd ee 82 fc bb 75 6b a1 3f
       -0.025897713 -0.039874718 -0.0077060377 1.2610918
0000a0 b6 66 eb 3b 88 3a 01 bd e7 27 85 be 7b 4b 95 be
       0.007183875 -0.03154996 -0.26007006 -0.2915915
0000b0 73 54 6c 3c 7f b2 03 bc 51 75 b0 bc 16 45 36 bc
       0.014424431 -0.008038162 -0.021540316 -0.01112487

input_proj.bias f4 [16]
000000 91 36 c3 3a bb 4e f3 3d 7a 53 39 3d e3 9b 03 3d
       0.0014893581 0.11880251 0.045245625 0.032131087
000010 88 39 82 3e 75 57 bf 3e f4 8c 09 3d 34 bb 6c 3b
       0.25434518 0.37371412 0.03358169 0.0036122324
000020 59 04 45 3d 0f 8a 0a 3d e3 cd 31 bc 74 1f 13 3d
       0.04809985 0.03382307 -0.01085231 0.035918668
000030 f0 a4 57 3d 3a ca 2c 3b cf c1 99 3e f1 bb 09 3d
       0.05264753 0.0026365654 0.30030677 0.0336265

layers.0.conv.norm.weight f4 [16]
000000 23 73 0e 37 d5 f6 8f 3f 39 4a 92 3f a7 4e 4f b8
       8.490667e-06 1.1247202 1.1428901 -4.9425897e-05
000010 f3 9d 62 3f bf 28 4c 37 20 26 9c 38 6c 17 c2 39
       0.8852226 1.21688345e-05 7.445761e-05 0.00037020014
000020 52 60 99 39 26 66 28 39 95 8d ae 37 d5 4c c9 b8
       0.00029254198 0.00016059782 2.0808346e-05 -9.598738e-05
000030 7e 39 d2 b8 6e f9 bd 3f 38 37 90 39 36 ed 89 b8
       -0.00010024289 1.4841745 0.00027506961 -6.576853e-05

layers.0.conv.norm.bias f4 [16]
000000 0e b2 d7 b7 7a 52 e5 3d df e1 ed ba 80 6d 00 39
       -2.571291e-05 0.11197372 -0.001814898 0.00012247823
000010 b8 00 d0 3d 7e a6 83 b4 bd 33 88 b8 56 a4 26 35
       0.10156387 -2.452179e-07 -6.494622e-05 6.207896e-07
000020 1f 5c 86 b8 8c 06 bc b8 60 79 31 38 18 75 33 b8
       -6.406777e-05 -8.965758e-05 4.2313128e-05 -4.2785978e-05
000030 40 f3 1b b8 c6 f5 ca 3d d5 61 dc b8 0f 5d 0b 39
       -3.7181424e-05 0.09910159 -0.0001050864 0.0001329074

layers.0.conv.msg_mlp.0.weight f4 [16, 16]
000000 6f 27 fa b8 bb 60 3b be 52 3f 1a bf 4e 99 0d 3a
       -0.00011928274 -0.18298618 -0.6025287 0.00054015673
000010 3f d1 2d be 52 bb df b6 ab 47 9c b9 9e 92 35 ba
       -0.16974352 -6.667725e-06 -0.00029808035 -0.000692645
000020 83 73 0d ba 05 6a de b9 48 ec 15 39 2e 36 93 b9
       -0.0005395936 -0.0004242213 0.00014297769 -0.00028078392
000030 4f d5 d4 b9 b3 76 75 3f f3 a4 0b ba b0 af 14 3a
       -0.00040594718 0.95884246 -0.00053270085 0.00056719314
000040 f4 d3 ab b8 fd 3d 11 be b6 df d9 be 03 0c 11 3a
       -8.193395e-05 -0.14183803 -0.4255349 0.0005533101
000050 be 4b c7 bd 16 bc 91 b7 1e 4b 79 b9 ea 92 27 ba
       -0.097312436 -1.7372931e-05 -0.00023774474 -0.00063924363
000060 5c b8 11 ba 1a 5c b5 b9 fb 75 4f 39 5d be ad b9
       -0.0005558783 -0.0003459163 0.0001978501 -0.00033138963
000070 9d e5 d0 b9 94 0d 13 3f e5 02 11 ba 4d 96 1a 3a
       -0.00039843927 0.57442594 -0.00055317424 0.00058970304
000080 3c 1e e6 b1 86 6c 59 b9 33 e6 b3 39 be c3 33 30
       -6.6973183e-09 -0.00020735161 0.00034313052 6.5397987e-10
000090 fc 2c 25 b9 d3 1e b9 b1 5e 9f b0 b0 d4 8f 2c 2f
       -0.00015752384 -5.387713e-09 -1.285098e-09 1.5694407e-10
0000a0 8e c5 a1 32 76 d7 15 b1 37 5b 1b 32 09 74 e0 b1
       1.8832704e-08 -2.180483e-09 9.042927e-09 -6.5324497e-09
0000b0 96 99 48 b1 ef a8 57 ba 08 15 46 b3 cd a9 e4 30
       -2.9191134e-09 -0.0008226772 -4.6119595e-08 1.6637444e-09
0000c0 94 38 7f 8d 9d bd cc b9 13 91 09 3b 27 49 79 8e
       -7.8646045e-31 -0.00039051185 0.0020991012 -3.0726841e-30
0000d0 5f 65 23 b9 2c 3a 23 0d 19 c2 90 8d 49 c3 2d 8e
       -0.00015582655 5.0298275e-31 -8.9214125e-31 -2.1417923e-30
0000e0 1e 6a d0 0c 26 1a 3b 0d b6 3f 3a 8d 17 c7 87 8c
       3.2111341e-31 5.76553e-31 -5.7392364e-31 -2.0919866e-31
0000f0 41 bf da 0d ca 9a 0e bb 8c ca f5 8d 4e 7a e1 0d
       1.348133e-30 -0.0021759742 -1.5148052e-30 1.3896139e-30
000100 a5 b4 c8 19 3b 3a 9c b5 7b 2f 9e 35 0b 13 c5 99
       2.0752477e-23 -1.1639853e-06 1.1785736e-06 -2.0377014e-23
000110 03 15 4c b6 d3 b4 aa 1b 78 74 b7 98 fb ad 08 1b
       -3.04106e-06 2.8240996e-22 -4.7421995e-24 1.1305872e-22
000120 14 24 57 9a 07 c1 a3 99 99 ef 86 9a 7e 5b e5 18
       -4.4490102e-23 -1.6931768e-23 -5.580819e-23 5.9287496e-24
000130 62 69 91 19 9a ab 43 b7 57 bf 06 1b 34 a5 d3 18
       1.5035212e-23 -1.166286e-05 1.1146045e-22 5.4709034e-24
000140 09 a7 ad b8 7b eb 12 be b2 33 8b be 24 c6 15 3a
       -8.2803956e-05 -0.14347641 -0.27187878 0.0005713424
000150 6f aa e5 bd d7 b3 37 b7 2a 47 81 b9 41 e5 29 ba
       -0.11214148 -1.0949522e-05 -0.0002465782 -0.0006481
000160 96 f8 14 ba 70 ba bb b9 39 da 39 39 b9 02 ad b9
       -0.0005682794 -0.00035806326 0.00017724269 -0.0003299916
000170 4a be cd b9 81 7a 28 3f e2 c3 14 ba 6f a7 1f 3a
       -0.00039242423 0.65811926 -0.0005674941 0.0006090318
000180 d8 bd 6a a8 7f c9 2c b9 3c 5b 66 39 19 e0 af 2a
       -1.3030775e-14 -0.00016478261 0.00021968497 3.1241744e-13
000190 74 3e 47 ba 1a 7c 0d a7 c3 3a 4d a8 9e 28 33 2a
       -0.0007600554 -1.9634956e-15 -1.1392528e-14 1.5912486e-13
0001a0 40 96 c0 a7 54 61 d4 a8 ec e8 88 a8 62 dd c2 28
       -5.3453607e-15 -2.3578937e-14 -1.5200047e-14 2.1634336e-14
0001b0 80 dd 13 a8 af 82 07 39 f1 c7 06 2a d0 3b 81 2a
       -8.208169e-15 0.00012923287 1.197096e-13 2.2956506e-13
0001c0 c3 0e ac b1 e1 4a c4 ba f9 5e 15 3b b8 89 b0 32
       -5.007537e-09 -0.0014975929 0.0022792204 2.0551724e-08
0001d0 be 30 48 3a 24 b9 bc b0 13 b5 d3 b2 3d b4 0d b2
       0.00076366577 -1.373142e-09 -2.4645976e-08 -8.248262e-09
0001e0 3d f7 e0 31 38 65 40 b3 09 6c db b0 73 f1 c3 b1
       6.5473658e-09 -4.479554e-08 -1.5965053e-09 -5.7026965e-09
0001f0 7e 84 2c 30 d9 5d 29 b9 99 62 0c b3 d4 71 75 b1
       6.276152e-10 -0.00016152057 -3.2685964e-08 -3.5716896e-09
000200 c6 46 a9 a8 07 ea 80 b9 ea 87 c8 38 aa f6 26 aa
       -1.8793462e-14 -0.00024588426 9.562059e-05 -1.482934e-13
000210 96 d7 ce b9 3c 5a 47 a7 98 13 aa 29 ea 35 12 ab
       -0.00039452006 -2.7665714e-15 7.5529155e-14 -5.194444e-13
000220 28 4f fe 2a 1c 0e de 28 d2 a0 0a 2b 9a 9e 34 a9
       4.517439e-13 2.465307e-14 4.925063e-13 -4.0105594e-14
000230 2e 24 97 aa 57 c3 91 37 db dc db aa 69 5e 67 ab
       -2.6848093e-13 1.737631e-05 -3.9055464e-13 -8.2198706e-13
000240 b1 61 d0 37 58 41 20 3f 20 e9 af bd be e0 9e b9
       2.4841023e-05 0.62599707 -0.08589387 -0.00030303554
000250 64 59 d5 be 4f c3 64 b7 39 c3 0c 39 10 2e c9 39
       -0.41669762 -1.3635333e-05 0.00013424167 0.00038372027
000260 3b 2f 8b 39 f0 49 51 39 99 65 b3 b8 09 c7 49 39
       0.00026547335 0.00019959337 -8.554309e-05 0.00019243
000270 14 3d 94 39 cc f4 10 bd 30 ab 85 39 f4 4d 8a b9
       0.00028274267 -0.035389706 0.0002549528 -0.0002637949
000280 8d 2f 5e 1e 8b 9d d7 b9 da cd da 3a 16 97 6e 1f
       1.17624154e-20 -0.00041125374 0.0016693429 5.0523436e-20
000290 64 98 0c 39 d6 70 9c 9e 0e 58 ee 1c e0 4e 4b 9d
       0.0001340821 -1.656381e-20 1.577228e-21 -2.6907604e-21
0002a0 0a 0f 9b 1f 04 48 17 1b 2c 3c b5 1c 34 c4 e5 9e
       6.5669933e-20 1.2513697e-22 1.1993129e-21 -2.4327466e-20
0002b0 50 bd ec 9e 65 f0 68 ba d4 ff 08 1f f4 99 b7 1d
       -2.506577e-20 -0.0008885919 2.9010736e-20 4.859888e-21
0002c0 a3 01 23 0b 8c 7c 25 bb 05 20 34 3b 11 90 43 8d
       3.139389e-32 -0.0025251238 0.0027484905 -6.026243e-31
0002d0 f6 6a b9 ba 9e 2b e9 89 9a eb 33 0b ac 86 4a 0c
       -0.0014146257 -5.6133727e-33 3.4651393e-32 1.560204e-31
0002e0 a6 a4 fb 09 86 12 4d 0b 7b c4 8a 8b da 89 68 0b
       6.0580887e-33 3.94955e-32 -5.34513e-32 4.4785283e-32
0002f0 1e 99 8d 0b 09 b2 58 3a 70 8c 3d 0b b6 58 c5 0b
       5.454161e-32 0.00082662754 3.650573e-32 7.601512e-32
000300 45 57 38 8a 84 1a a9 ba b0 fd 40 39 b2 ae bf 0b
       -8.875691e-33 -0.0012901579 0.00018405053 7.3833376e-32
000310 2c 2a 61 b9 2a b3 0d 08 b4 82 4f 8a 7d b8 b7 89
       -0.00021473382 4.264125e-34 -9.99127e-33 -4.422914e-33
000320 34 77 6e 8a 10 80 28 89 de 58 18 8b 34 7e 08 0a
       -1.1481703e-32 -2.028248e-33 -2.934099e-32 6.571898e-33
000330 06 0d 54 0a c4 16 75 39 9e 9e 97 09 1a d7 bf 0a
       1.0209878e-32 0.00023373502 3.650109e-33 1.8473543e-32
000340 b9 ba eb b8 03 0b 6d be e7 35 12 bf 84 16 30 3a
       -0.00011240453 -0.23148732 -0.571135 0.0006717222
000350 af ce 61 be 0f b6 e6 36 af 48 9b b9 fd ed 44 ba
       -0.220515 6.8757286e-06 -0.00029618057 -0.00075122697
000360 60 db 33 ba 18 3a de b9 be 99 7c 39 07 4b be b9
       -0.00068609975 -0.00042386423 0.00024089866 -0.00036295524
000370 05 11 e1 b9 e1 00 75 3f 68 93 35 ba ae 24 3f 3a
       -0.00042928025 0.95704466 -0.00069265673 0.00072915375
000380 6e 4a 8d 8e 80 bc 20 a8 fc 85 3a 19 be 44 14 8f
       -3.4830857e-30 -8.922659e-15 9.6430325e-24 -7.310203e-30
000390 a0 66 88 a6 d9 8e 87 90 28 60 39 8d bc 10 44 8f
       -9.464712e-16 -5.34682e-29 -5.712327e-31 -9.666769e-30
0003a0 1b 40 5f 0e 10 eb 04 0d bb bd c1 0f 5f 8a 85 0d
       2.7517738e-30 4.0958587e-31 1.9104351e-29 8.2300695e-31
0003b0 dc 71 85 0e 01 d9 65 a8 4f 23 b6 0f b8 55 03 8f
       3.2896674e-30 -1.2759109e-14 1.7960186e-29 -6.4753075e-30
0003c0 ac f9 c8 38 38 3f 28 3f 1d 75 97 3d b7 7a bc b9
       9.583248e-05 0.65721464 0.073953845 -0.00035949584
0003d0 15 62 dc be 95 65 8d 37 d3 1d 4a 39 76 a9 e7 39
       -0.4304358 1.6855813e-05 0.00019275332 0.00044186012
0003e0 90 dd cc 39 36 48 95 39 6b c8 07 b9 bb e1 59 39
       0.0003907499 0.00028473296 -0.00012949265 0.00020778824
0003f0 d4 62 80 39 4a 7b d9 3d dc 80 bb 39 1b 5b d7 b9
       0.00024487695 0.10619219 0.00035763427 -0.00041075874

layers.0.conv.msg_mlp.0.bias f4 [16]
000000 af d7 e6 3d 1b ee 13 3e f6 88 f5 b9 39 0d 47 bb
       0.11271607 0.14446299 -0.00046832085 -0.0030372872
000010 5a 00 0e b7 0b 53 1d 3e 24 a3 8e ba b7 ad e4 ba
       -8.463941e-06 0.1536371 -0.001088236 -0.0017446791
000020 90 11 f3 b9 67 6b 6c 3e f6 8b b0 ba f6 89 53 bb
       -0.00046361657 0.23087846 -0.0013469446 -0.0032278276
000030 88 d9 92 ba 9a 10 7e 3e 84 b9 95 a9 21 f3 cd 3e
       -0.0011203745 0.2481102 -6.649111e-14 0.40224555

layers.0.conv.msg_mlp.2.weight f4 [16, 16]
000000 a2 00 9a be 36 d6 5a be 3d c0 27 38 da a3 aa b9
       -0.30078608 -0.21370777 3.999494e-05 -0.00032547006
000010 45 82 9b b2 1a e3 6d be 7b 41 96 b6 13 61 1f ba
       -1.8103615e-08 -0.23231164 -4.4779713e-06 -0.0006079834
000020 59 f1 ef b5 fa b6 92 be 45 71 38 b9 62 d8 b1 39
       -1.7877129e-06 -0.28655225 -0.00017589804 0.0003392129
000030 1f 44 04 b8 6f 9c d1 be a8 8c 9b 13 e1 88 a8 be
       -3.1534695e-05 -0.40939662 3.92662e-27 -0.3291693
000040 33 07 e0 be a7 bb 83 be 3c f9 b1 b7 6c 0c 9e b9
       -0.43755493 -0.25729105 -2.1216103e-05 -0.00030145363
000050 66 8d 41 b0 e7 dd 86 be bc b1 37 b6 6d 7f 0f 3a
       -7.041393e-10 -0.26341173 -2.737258e-06 0.0005474005
000060 12 90 8e 32 51 4c 61 be 13 62 18 38 8e 92 7e 3a
       1.6596491e-08 -0.22001769 3.6330963e-05 0.00097111694
000070 f1 87 0c 36 7b e3 c7 be b3 70 b2 94 87 0f 87 be
       2.0940754e-06 -0.3904074 -1.8017859e-26 -0.26379034
000080 73 ce 92 be e4 11 46 be 84 d0 8b 36 c9 c8 11 b9
       -0.28673133 -0.19342762 4.166797e-06 -0.00013903076
000090 2c 0d ba 2c 20 1e 87 be 3c 6c 27 b4 25 37 1c ba
       5.2879003e-12 -0.2639017 -1.5592462e-07 -0.0005959145
0000a0 29 06 e0 b2 bf 30 a0 be 34 c1 34 b7 fc 64 ba 38
       -2.6079833e-08 -0.3128719 -1.077382e-05 8.887981e-05
0000b0 8e 38 5c b4 7d a3 c3 be e2 72 c6 94 67 56 94 be
       -2.0509671e-07 -0.3821067 -2.0038204e-26 -0.2897217
0000c0 00 7e ad be 37 2b 65 be 33 7d 8b 30 e6 5e 3c b3
       -0.33885193 -0.22379766 1.0149165e-09 -4.385847e-08
0000d0 b4 af 49 19 ee b2 71 be 09 25 59 2e fa 60 bb b9
       1.04269394e-23 -0.23603413 4.937298e-11 -0.00035739673
0000e0 e7 9d 6b 2e fa 61 8b be 04 4d 1c aa 52 30 06 b8
       5.357306e-11 -0.27223188 -1.3882304e-13 -3.199309e-05
0000f0 56 76 0b b2 e7 ba b8 be 09 da 8f 14 9a fe a6 be
       -8.117771e-09 -0.36080095 1.452531e-26 -0.3261612
000100 a2 c1 9d be 76 33 16 be a5 c6 7c 37 6f 51 a9 b8
       -0.30811793 -0.14668068 1.5066621e-05 -8.073716e-05
000110 4b 28 5f ad d1 7f 6e be 9f 1a 7c b3 4a 64 81 ba
       -1.2685029e-11 -0.23290946 -5.8697534e-08 -0.0009871807
000120 9d ec 49 b5 3b 9b a6 be a9 80 aa b8 54 8e aa 38
       -7.522265e-07 -0.32540306 -8.1301965e-05 8.1327424e-05
000130 09 bf 16 b6 ec f4 96 be e0 4b f4 91 3a 14 ae be
       -2.246294e-06 -0.29483736 -3.8543174e-28 -0.33999807
000140 c9 32 56 be fc 51 bd be d7 e1 9d 39 72 ae 44 ba
       -0.2091781 -0.36976612 0.00030113637 -0.0007502801
000150 14 7f 0f b2 b5 fe 98 be 6f 50 bd 35 10 59 18 ba
       -8.35259e-09 -0.29881826 1.4105007e-06 -0.0005811611
000160 cc 4b b2 b5 a7 65 d8 be 5f 26 c7 b9 5a bf f8 b8
       -1.3284093e-06 -0.42265055 -0.00037984826 -0.000118612035
000170 2e 19 07 35 38 b5 c3 be 46 d2 40 95 e3 a5 d7 be
       5.032806e-07 -0.38224196 -3.8939968e-26 -0.4211875
000180 7b b5 8a be 9c 6f 48 be 15 5f 0b 36 26 ef 96 b8
       -0.27091584 -0.19573826 2.076796e-06 -7.197102e-05
000190 d0 9c a0 ae 50 f1 54 be 3a 6e 4c b3 40 12 15 ba
       -7.303813e-11 -0.20795178 -4.7597702e-08 -0.00056866184
0001a0 8a f9 05 b3 21 fd 73 be ed e6 6a b7 43 e6 51 39
       -3.119343e-08 -0.2382703 -1.40012535e-05 0.00020017572
0001b0 a6 d1 98 b6 f3 f9 e2 be 9a 13 e8 93 31 2d 9e be
       -4.5543593e-06 -0.4433132 -5.8584362e-27 -0.30893853
0001c0 ad 64 96 be 8e 32 94 be 62 d7 46 34 07 01 cd 38
       -0.29373685 -0.2894482 1.8518543e-07 9.775353e-05
0001d0 8a 6e 06 a9 63 89 90 be 65 f0 7f b2 fe f2 26 ba
       -2.9849854e-14 -0.28229818 -1.4897613e-08 -0.0006368606
0001e0 cd ee 22 b1 19 12 78 be f6 af 92 b6 95 07 16 b8
       -2.3709845e-09 -0.24225654 -4.3716236e-06 -3.576985e-05
0001f0 ce db 7e b5 20 56 9c be ef 28 08 13 69 00 ae be
       -9.494223e-07 -0.30534458 1.7185795e-27 -0.33984688
000200 59 e4 1b be f8 fc b4 be 17 5f 30 38 58 75 a5 b9
       -0.15223826 -0.3534925 4.205023e-05 -0.0003155868
000210 34 87 54 b0 75 8c 7f be 6a 25 f0 b5 4d 76 1d ba
       -7.7317286e-10 -0.24955924 -1.7892282e-06 -0.0006006703
000220 1e 5d 9a b5 d2 66 a1 be 5b ee 55 b9 3c 73 f4 39
       -1.1500995e-06 -0.31523758 -0.00020402057 0.00046625163
000230 fe 03 bd b7 ff 20 f1 be c6 8d 25 15 d8 f4 c1 be
       -2.2532415e-05 -0.47095487 3.3433324e-26 -0.37882113
000240 0f 9f b6 be 45 a9 5a be 3a 82 87 30 9f a1 7a 2d
       -0.35668227 -0.21353634 9.859555e-10 1.4246742e-11
000250 b7 2c b1 98 40 6f 62 be 8c 9a 06 2c e0 69 7f b9
       -4.579858e-24 -0.22112751 1.9128336e-12 -0.00024358137
000260 82 5a a0 2e 38 6b 8d be c9 43 f0 a4 7f a3 07 b8
       7.292035e-11 -0.27620864 -1.0419824e-16 -3.2338776e-05
000270 c1 17 72 b0 3b 5e b8 be ea 1d 94 13 74 98 a5 be
       -8.8072843e-10 -0.36009392 3.738995e-27 -0.32342875
000280 bb a7 be be 00 3d d7 bd 60 98 04 38 99 34 9e b9
       -0.37237343 -0.10509682 3.1613163e-05 -0.00030175297
000290 99 9e 54 b2 3c cf fd bd 27 86 3e b6 64 d7 1b ba
       -1.2376085e-08 -0.123930424 -2.8390293e-06 -0.00059448765
0002a0 77 40 a4 b5 b7 6d 82 be d3 3b 28 b9 45 a4 bc 39
       -1.2237714e-06 -0.2547433 -0.00016044015 0.00035980545
0002b0 5a 3d dc b7 f3 2e f7 be 62 dd 2f 15 0a 51 bc be
       -2.6254613e-05 -0.48278007 3.551561e-26 -0.36780578
0002c0 ac 30 b7 be 71 11 5a be 1b 9e 85 30 1c 3f b8 ac
       -0.3577932 -0.21295716 9.72196e-10 -5.236601e-12
0002d0 f8 86 27 96 f1 f7 60 be 92 e6 e6 2a 36 9e 62 b9
       -1.3532741e-25 -0.21969582 4.1016198e-13 -0.00021611978
0002e0 dd 9b 8a 2d df e0 8d be 1b 96 a6 a4 5b e6 b7 b7
       1.5758e-11 -0.27710626 -7.224531e-17 -2.1922568e-05
0002f0 94 d2 04 b0 5f 8e b8 be 52 cd eb 93 8b 68 a5 be
       -4.832057e-10 -0.3604612 -5.95248e-27 -0.32306322
000300 da 4b b3 be 4d 52 5c be e8 0e d5 30 80 23 93 b0
       -0.35018808 -0.2151577 1.5502026e-09 -1.0705747e-09
000310 89 06 a4 98 73 9f 74 be 5f b9 48 2c 5a 12 83 b9
       -4.2399605e-24 -0.2388895 2.852461e-12 -0.0002499994
000320 bb ee da ad 75 0b 8d be 46 22 9d 22 5f ae 0a b8
       -2.4889748e-11 -0.27547804 4.2591224e-18 -3.306416e-05
000330 4e 4b e6 af 99 9d b0 be 9c 8f 82 94 57 bd 9f be
       -4.1890263e-10 -0.34495237 -1.318329e-26 -0.31199142
000340 3e ec ea be fe 7b 72 be e5 de 98 39 ee bf e1 ba
       -0.45883363 -0.23680112 0.0002915777 -0.0017223337
000350 13 6f 2d b6 0d 6d 47 be 0e 45 54 b9 dd b7 dc 39
       -2.5843663e-06 -0.19475193 -0.0002024362 0.0004209866
000360 e6 5c 85 35 51 33 9b be 55 7d e0 38 31 34 01 3a
       9.936309e-07 -0.3031259 0.00010704497 0.00049287366
000370 3a 4f 32 3a c3 85 e7 be 9d 1d 50 aa 70 a0 02 bf
       0.0006801967 -0.4521924 -1.8484385e-13 -0.5102606
000380 f9 37 79 be 11 cd 99 be 12 bd 12 39 fd d4 be b7
       -0.24337758 -0.30039266 0.00013994079 -2.2748945e-05
000390 0f 9d a6 b3 70 fb d7 be 30 16 19 b3 30 d8 b0 ba
       -7.758546e-08 -0.4218402 -3.5643268e-08 -0.0013492163
0003a0 f5 06 5a b6 01 94 ac be 98 db 1d ba 0d 2c f0 39
       -3.248858e-06 -0.33706668 -0.0006021797 0.00045809188
0003b0 a9 cb b3 b8 89 7b 52 be 20 25 e5 94 d0 ce ae be
       -8.57332e-05 -0.20554937 -2.3137734e-26 -0.3414216
0003c0 5a 9a b7 be b1 a6 59 be 87 72 84 30 27 11 7e 2d
       -0.35859948 -0.21254994 9.636815e-10 1.4442037e-11
0003d0 a0 60 b4 98 46 b1 60 be 9c 60 14 2c ed 44 80 b9
       -4.6626476e-24 -0.21942624 2.1085694e-12 -0.00024465416
0003e0 28 0c a8 2e f4 7c 8d be 9b 82 af a4 dc 11 07 b8
       7.641915e-11 -0.27634394 -7.6115406e-17 -3.220314e-05
0003f0 5a 97 7a b0 26 4b b8 be e5 54 c3 13 71 ad a5 be
       -9.1164554e-10 -0.35994834 4.9308633e-27 -0.32358888

layers.0.conv.msg_mlp.2.bias f4 [16]
000000 1f 78 5a 3d 68 5b 2d bd b6 f6 c6 3c ed e5 38 bc
       0.053337213 -0.0423235 0.024287563 -0.011285287
000010 d8 42 5b bd 85 2c 8a 3e 76 c5 1d be f8 79 d2 bd
       -0.053530544 0.2698709 -0.15407357 -0.1027717
000020 bd b4 95 3e cb 19 98 bb 3d e3 c5 3d 37 ad 49 bb
       0.29239455 -0.0046417466 0.09662483 -0.003077341
000030 d9 61 64 bd ac 9e 8d 3e a2 e6 9f bc 3a 3b 7d bb
       -0.055757377 0.2766012 -0.019519154 -0.0038640038

layers.0.mlp.norm.weight f4 [16]
000000 10 5b 81 34 6c f4 e2 3e 51 ab b8 b4 65 69 06 b5
       2.409438e-07 0.44327104 -3.439732e-07 -5.007226e-07
000010 e5 00 c5 b8 be 32 5a 3f 3b 5f 19 b8 e4 0f 1d b1
       -9.3938586e-05 0.85233676 -3.6566733e-05 -2.285554e-09
000020 10 dd 17 3e dd 90 58 b4 3b 7f dc 36 05 06 06 35
       0.14830422 -2.0169269e-07 6.5713225e-06 4.992765e-07
000030 5f 42 e3 37 f1 dd 5d 3f 75 b5 66 35 a6 3e a0 b4
       2.7091415e-05 0.8666678 8.594573e-07 -2.9847905e-07

layers.0.mlp.norm.bias f4 [16]
000000 93 f4 1c 34 36 96 7c 3d 92 2e c3 b3 95 66 2c b5
       1.4617608e-07 0.06166669 -9.088866e-08 -6.422427e-07
000010 5b 98 eb 38 a6 89 2d bc 12 4c 35 b8 08 cc 71 b1
       0.000112340516 -0.0105919 -4.322461e-05 -3.5186094e-09
000020 61 88 1d 3c 96 8f 9e b4 46 e4 9a 38 50 1c 09 35
       0.009615035 -2.9534266e-07 7.3858115e-05 5.107768e-07
000030 d0 ab 09 37 bb 7d e1 3d ac 90 70 b5 b6 1a a9 b4
       8.20584e-06 0.11010309 -8.961749e-07 -3.1498138e-07

layers.0.mlp.mlp.0.weight f4 [96, 16]
000000 2f a3 38 af f5 c0 ef 37 69 49 5b 2f 46 34 1d af
       -1.6792677e-10 2.8580873e-05 1.9944014e-10 -1.4297638e-10
000010 18 65 4f b2 8b 6e 3b 37 90 63 bc 33 2d 44 3e 2d
       -1.2071972e-08 1.1171806e-05 8.7725425e-08 1.0815388e-11
000020 90 eb 23 b7 00 0d 14 2d c0 fc 92 b3 c9 8d 82 2f
       -9.770403e-06 8.415713e-12 -6.84463e-08 2.3747607e-10
000030 37 98 f0 31 fa 58 b1 b6 42 f8 e2 b0 b4 78 0f af
       7.002224e-09 -5.2853693e-06 -1.6514223e-09 -1.3048657e-10
000040 88 6b 30 2f 08 6a 79 39 5f 63 fa 30 6a fb 98 b0
       1.604531e-10 0.0002378599 1.8218137e-09 -1.1130912e-09
000050 10 42 37 b6 f9 5f af 39 f8 16 5d 35 d8 17 a8 ad
       -2.7307578e-06 0.00033450106 8.236234e-07 -1.9109977e-11
000060 79 45 29 b9 76 f8 f0 30 62 39 01 b5 62 34 76 30
       -0.00016142977 1.7532915e-09 -4.813975e-07 8.956872e-10
000070 2d 61 95 33 c4 dd 86 39 0d 8c 97 32 06 be 80 b0
       6.956029e-08 0.000257237 1.7642401e-08 -9.367234e-10
000080 0a 88 3d 31 64 cc 05 b8 8a 4c d0 b0 85 ab 86 b1
       2.758045e-09 -3.1900025e-05 -1.5155746e-09 -3.919413e-09
000090 d7 39 22 36 a2 27 87 b9 12 d1 3a b4 8c b9 47 ae
       2.4173548e-06 -0.00025778735 -1.7398659e-07 -4.541216e-11
0000a0 54 ea 4f 39 9f b3 1a b1 6b 08 91 35 68 02 3e 30
       0.00019828352 -2.2512052e-09 1.0805792e-06 6.9125017e-10
0000b0 2e a5 1a b3 34 69 8c b9 3e c1 77 b2 dd 5e d3 2e
       -3.600615e-08 -0.00026781263 -1.442123e-08 9.61202e-11
0000c0 9d f7 96 b1 b4 61 44 b9 2b 52 8c 31 58 db 07 32
       -4.393725e-09 -0.00018728414 4.0838777e-09 7.907907e-09
0000d0 0f 30 9f b5 4f bf 62 37 94 9d c1 b5 b0 96 87 ac
       -1.186041e-06 1.3515192e-05 -1.4425482e-06 -3.8536604e-12
0000e0 8c 7a 49 b9 c2 60 d8 30 20 ad 9d b4 53 eb 96 b1
       -0.00019214506 1.5743569e-09 -2.9369494e-07 -4.392328e-09
0000f0 66 7c 04 b3 88 b6 a1 39 ec 3a 01 32 a0 fd 0e 31
       -3.0846785e-08 0.0003084431 7.5221855e-09 2.0807889e-09
000100 9e b2 bd 31 0f f1 8d 39 cf 7f 93 b1 b5 d0 35 b2
       5.5209304e-09 0.00027073218 -4.2927932e-09 -1.0583041e-08
000110 8c 51 96 35 79 06 c3 b8 89 36 9e 35 41 40 64 af
       1.1199604e-06 -9.29953e-05 1.1787789e-06 -2.0759307e-10
000120 10 56 9f 39 a6 09 5c b1 90 e9 ae 34 f5 c3 b6 31
       0.00030390965 -3.2019698e-09 3.2579965e-07 5.319175e-09
000130 49 50 8e b2 8c 3d 0b ba f0 54 f6 b1 34 00 1c b1
       -1.6567485e-08 -0.00053116004 -7.1691986e-09 -2.2701103e-09
000140 36 ba e1 31 d2 97 02 3a 38 60 be b1 4a fb 50 b2
       6.5695316e-09 0.00049817294 -5.5406666e-09 -1.216433e-08
000150 e7 9d ca 35 a4 2b fa 36 be 05 f8 b5 64 93 6b ae
       1.5096128e-06 7.455661e-06 -1.8479111e-06 -5.3563723e-11
000160 af 11 8d 39 4a 86 8a b1 d6 9b 99 35 72 33 ee 31
       0.0002690679 -4.0315955e-09 1.1444743e-06 6.9325603e-09
000170 9f e9 b0 32 11 52 12 ba a0 58 ba 30 78 e3 45 b1
       2.0595335e-08 -0.0005581687 1.355847e-09 -2.8796574e-09
000180 bc c4 9d b1 fb 89 c7 39 e6 e6 c8 31 52 03 1b 32
       -4.5916675e-09 0.0003805904 5.847016e-09 9.022942e-09
000190 9e ed 76 b6 d4 09 fa 39 0c f1 29 35 c8 f8 12 2f
       -3.6795168e-06 0.00047691038 6.3308175e-07 1.3367008e-10
0001a0 44 26 61 b9 6e 98 6c 31 a7 82 c0 b5 fb e6 84 b0
       -0.00021471927 3.4429166e-09 -1.434314e-06 -9.669913e-10
0001b0 02 b4 a1 33 e8 8e d9 39 34 52 5f 32 40 35 15 ac
       7.52989e-08 0.0004149594 1.2998999e-08 -2.1203733e-12
0001c0 1c 14 c1 30 a6 ab b0 38 b4 1c 57 af d9 98 27 b1
       1.4048314e-09 8.424306e-05 -1.9564333e-10 -2.4388582e-09
0001d0 49 99 2b 35 49 98 bf b7 cc 23 20 34 d2 0c 3d ae
       6.3925523e-07 -2.2839888e-05 1.4914184e-07 -4.298501e-11
0001e0 44 1d b2 38 56 62 29 b0 01 a1 95 34 a4 f6 99 30
       8.4931526e-05 -6.1621586e-10 2.7870558e-07 1.1202315e-09
0001f0 0f 3f 17 b2 79 63 a8 b8 36 e3 bb b0 f5 ce 26 b0
       -8.803695e-09 -8.0293925e-05 -1.3670618e-09 -6.068455e-10
000200 ca 47 2f 31 04 47 02 3a 4e d8 98 b1 02 2b 09 b2
       2.550666e-09 0.00049696886 -4.4483732e-09 -7.984228e-09
000210 c4 86 d1 34 b1 be 35 39 ac 0b c1 b4 18 53 88 ad
       3.9027339e-07 0.00017332543 -3.5957544e-07 -1.5498311e-11
000220 90 b7 15 39 62 3d 04 b1 e4 ac d3 34 12 b6 90 31
       0.0001427813 -1.924342e-09 3.9427607e-07 4.2116506e-09
000230 a8 87 e1 32 23 50 94 b9 ab d0 8b b2 a8 2a 14 b1
       2.6255137e-08 -0.00028288466 -1.6276621e-08 -2.1561082e-09
000240 50 4f 15 30 4d 08 af b8 e6 f5 30 32 04 f2 f4 b0
       5.4318594e-10 -8.3461964e-05 1.0300459e-08 -1.7822122e-09
000250 3e 31 99 b6 e2 88 c3 39 eb c6 2c 37 22 ca b8 ae
       -4.565488e-06 0.00037295284 1.0298313e-05 -8.403257e-11
000260 96 a7 d5 b9 90 0d 80 31 d1 92 15 b6 c9 b0 14 31
       -0.00040751387 3.726832e-09 -2.2288189e-06 2.1637325e-09
000270 4a ae ec 33 fc 04 42 3a 7c db 89 b3 32 00 0a b1
       1.10213094e-07 0.00074012554 -6.4194836e-08 -2.0081754e-09
000280 f8 d3 89 2f 59 bc 1f 3a a9 ef 0f b2 fa 9a 80 b0
       2.5070768e-10 0.00060934346 -8.378188e-09 -9.357273e-10
000290 af db e9 36 17 57 3e b9 c8 a0 d0 b6 06 75 c6 2e
       6.9695157e-06 -0.00018152256 -6.2176005e-06 9.024785e-11
0002a0 d2 69 d2 39 f5 e9 85 b1 02 ff d8 35 a7 7c 9d b0
       0.00040133164 -3.8974073e-09 1.6167471e-06 -1.1458682e-09
0002b0 42 6b 16 b4 97 9e 72 ba 42 48 3e b2 e8 b2 bb 30
       -1.4008859e-07 -0.0009255199 -1.1075885e-08 1.3656889e-09
0002c0 2b ce 18 b2 65 f1 3e 39 f8 a8 01 31 6f ea 36 32
       -8.894442e-09 0.00018209738 1.8868018e-09 1.0647098e-08
0002d0 e9 47 4a b6 01 81 a7 39 11 d4 0a 35 f8 dd c5 2f
       -3.0142203e-06 0.00031948838 5.1717603e-07 3.599181e-10
0002e0 cf 14 41 b9 e6 9c b3 30 a5 c7 2e b6 20 28 b4 ad
       -0.00018413666 1.3068557e-09 -2.604423e-06 -2.048145e-11
0002f0 f2 3a 43 31 bd e2 8d 39 ee 64 ad 31 69 a9 a3 30
       2.8409741e-09 0.0002706255 5.046437e-09 1.190796e-09
000300 49 a0 b1 32 fa ad 0b 38 00 ae 7d ae de 99 a6 b2
       2.0678401e-08 3.330221e-05 -5.7680083e-11 -1.9394914e-08
000310 47 5c 8d 36 0c 3b f4 b9 ef d5 de 35 b4 0a 7c ad
       4.21287e-06 -0.000465833 1.6602552e-06 -1.4326918e-11
000320 fc 83 f6 39 e0 db 8f b1 e7 fd af 35 ea 19 4c 32
       0.00047019112 -4.1868446e-09 1.3112411e-06 1.1880255e-08
000330 e8 ab 1c b3 f5 fd 38 ba 7e 54 dc 32 48 24 eb b1
       -3.647793e-08 -0.00070568855 2.5649793e-08 -6.843525e-09
000340 78 bd 68 2f 17 f7 a4 b8 67 ad bc af ec ea a0 af
       2.116759e-10 -7.8661535e-05 -3.432021e-10 -2.9270752e-10
000350 51 6a 1f 34 07 ea c5 b8 56 fc da 33 cc 29 92 ab
       1.4846707e-07 -9.437283e-05 1.0197316e-07 -1.0385525e-12
000360 76 2f a2 37 de 65 c5 ae c0 89 88 33 8c 57 c4 2d
       1.9334006e-05 -8.976618e-11 6.35805e-08 2.2321499e-11
000370 e1 35 86 b1 2e 10 9b b8 3f 23 ad b0 8c 5a 98 2e
       -3.9060386e-09 -7.39399e-05 -1.2597424e-09 6.928244e-11
000380 03 67 09 b1 3a c8 ce b8 f5 b1 d5 31 a2 d1 41 31
       -1.999468e-09 -9.8601406e-05 6.2193473e-09 2.8204359e-09
000390 66 d5 7a b6 cf b6 d3 39 c2 e5 d5 b5 48 41 87 ae
       -3.7377117e-06 0.0004038126 -1.5936605e-06 -6.1506855e-11
0003a0 13 3d e9 b9 14 88 94 31 5a 93 32 b5 96 0b 55 2f
       -0.00044486727 4.322837e-09 -6.652459e-07 1.9376353e-10
0003b0 fe 2d d8 33 34 d9 2e 3a 0c ab 5a b2 2e 0d 0b b0
       1.006665e-07 0.0006669939 -1.2728162e-08 -5.0586635e-10
0003c0 05 bb 31 af 28 b2 6a b7 72 86 6c 2f 3a 6e 33 2e
       -1.6164499e-10 -1.3988967e-05 2.151184e-10 4.079779e-11
0003d0 a8 81 94 32 0f 65 39 b7 c5 61 0d 33 02 df 95 2c
       1.7288428e-08 -1.1050389e-05 3.291804e-08 4.2595935e-12
0003e0 ba b4 21 b7 3f a9 80 2e 5d 5a 05 b3 18 24 6c 2e
       -9.6384265e-06 5.85083e-11 -3.104866e-08 5.3692245e-11
0003f0 b7 d4 85 31 e9 2a b5 b6 d2 5c d6 af 68 3c 37 ad
       3.8949923e-09 -5.3992158e-06 -3.8992326e-10 -1.04157585e-11

layers.0.mlp.mlp.0.bias f4 [96]
000000 93 12 67 b7 a3 90 f2 b9 23 49 c0 39 07 b1 c0 b8
       -1.3772998e-05 -0.000462656 0.00036675585 -9.188247e-05
000010 53 24 57 39 85 88 98 38 cc 2e 27 ba f0 26 04 38
       0.0002051753 7.2733535e-05 -0.0006377518 3.1507516e-05
000020 5b 40 3c b9 3a 6a 17 ba b8 9e c4 39 1d 57 e9 b9
       -0.00017953051 -0.0005776022 0.00037502288 -0.00044506128
000030 47 dd 37 3a 3d 14 01 39 30 cf 24 ba 91 2b 6c 37
       0.0007013869 0.00012309938 -0.0006286977 1.407684e-05
000040 01 20 fd 39 84 c3 3e ba 84 10 0d 39 2b 62 23 ba
       0.00048279765 -0.0007277059 0.0001345296 -0.0006232585
000050 8b 1d 24 39 17 29 8b b9 63 58 11 3a 26 fe b5 b9
       0.00015651264 -0.0002654276 0.00055444817 -0.00034712366
000060 00 a3 0c 3a 9d ba 18 b8 71 07 93 b8 5c f0 12 ba
       0.0005364865 -3.641342e-05 -7.010892e-05 -0.00056052743
000070 0d a3 15 be 58 2a e2 b8 69 fb a1 39 f0 fc f3 b9
       -0.1461298 -0.00010784407 0.00030895628 -0.00046537025
000080 c8 02 4e b9 57 8b f7 b8 55 b5 00 ba a3 58 58 38
       -0.00019646727 -0.00011803832 -0.0004909833 5.1580962e-05
000090 d1 2e 3f 39 fd ab 04 3a 75 6a f3 b8 39 e2 a9 39
       0.0001823262 0.00050610286 -0.00011606972 0.0003240274
0000a0 d0 f3 07 ba 3f d3 b6 b9 e6 14 b2 39 3e c8 16 3a
       -0.0005186172 -0.00034871136 0.00033966376 0.00057518843
0000b0 89 1f 18 b8 f8 c6 01 b9 fc ee 57 3a 96 c8 37 3a
       -3.6268993e-05 -0.0001237652 0.00082372106 0.00070107856
0000c0 17 b9 f5 38 43 f9 6c b9 f0 e4 37 ba 3b 70 03 ba
       0.00011716986 -0.00022599571 -0.00070150103 -0.0005013977
0000d0 9a 04 c7 38 69 5d de 38 78 16 27 ba ce be 47 b9
       9.4899166e-05 0.00010603184 -0.00063738925 -0.00019049199
0000e0 5e 4c 89 b9 9e cd 03 b9 35 bd 5a b9 ce fd b6 39
       -0.00026187574 -0.00012569732 -0.00020860585 0.00034902844
0000f0 a1 39 da b9 7c ad ed b9 18 6a b8 3d 47 d0 69 39
       -0.00041623137 -0.00045333419 0.09004611 0.00022298201
000100 5c 93 91 b9 cd 4f 61 39 83 d7 1d ba 44 46 30 3e
       -0.00027766346 0.000214874 -0.00060211885 0.17214304
000110 16 3b 6e b9 4e 5d f0 b9 ec aa d6 b8 43 ac 09 b9
       -0.0002271946 -0.00045845885 -0.00010236152 -0.0001312951
000120 59 48 3c 3a 27 de ea b8 07 6b 44 b8 2a 75 20 ba
       0.00071824115 -0.000111993686 -4.682972e-05 -0.00061209744
000130 2a bb 6d b9 a1 9a 34 b9 d7 92 bc b7 ff e4 0d 3a
       -0.00022671805 -0.00017223741 -2.2479724e-05 0.0005412846
000140 7d 66 ed 3c cc 74 8f 38 82 5f bc b7 b8 05 d7 b9
       0.028979534 6.8405265e-05 -2.245582e-05 -0.00041012256
000150 7b e8 83 b9 3b 9a 81 b9 ac ac ac b9 03 0e 23 b9
       -0.00025159479 -0.00024719708 -0.00032935047 -0.00015550111
000160 2a a2 f4 39 1c 8c 61 39 9b ca 25 3a 4d 0e b9 b8
       0.00046660128 0.00021509867 0.0006324441 -8.824151e-05
000170 27 b3 6c b9 de 40 63 b9 a9 f7 7f b9 d7 dc 1b 3a
       -0.00022573453 -0.00021672572 -0.00024410956 0.00059456885

layers.0.mlp.mlp.3.weight f4 [16, 96]
000000 42 65 d9 b7 db 61 93 b8 a4 b9 46 b7 40 45 e3 38
       -2.5915568e-05 -7.027733e-05 -1.18449425e-05 0.00010837102
000010 66 0b e9 b8 39 86 29 b9 96 e0 59 b8 50 c2 89 38
       -0.00011112429 -0.00016167098 -5.1945994e-05 6.5688626e-05
000020 08 74 2c b9 66 43 fb 38 b1 f5 16 b9 8c 98 94 35
       -0.00016446423 0.000119811666 -0.00014396642 1.1071256e-06
000030 71 38 87 b8 fc af 80 b7 c8 39 d9 38 03 2b 87 b7
       -6.447815e-05 -1.5340738e-05 0.00010358129 -1.6113283e-05
000040 97 9d 7a b8 24 6c 1b b7 82 d9 96 38 93 37 89 38
       -5.975141e-05 -9.263898e-06 7.193071e-05 6.5430206e-05
000050 7c ca 2c b9 b4 25 20 38 4a 46 76 38 99 43 36 39
       -0.0001647863 3.8182086e-05 5.8716432e-05 0.00017382055
000060 05 d4 f7 b7 db 51 84 b6 a9 31 4e 37 12 3f 19 37
       -2.9543424e-05 -3.943436e-06 1.2290119e-05 9.134195e-06
000070 ed b7 31 be 41 cd 82 38 c0 0d 19 b9 1b 7d 1c 39
       -0.17355318 6.2371146e-05 -0.0001459634 0.00014923925
000080 48 ce 09 38 54 f4 02 37 73 0c a2 38 55 09 31 b9
       3.285546e-05 7.805491e-06 7.727081e-05 -0.00016883512
000090 f0 09 3c b9 09 e8 3f b9 d8 6a 9c 38 95 15 12 b9
       -0.00017932779 -0.0001830162 7.458561e-05 -0.00013931685
0000a0 0a ab b2 37 80 11 41 38 68 99 7f b7 1a 65 22 38
       2.12989e-05 4.6031084e-05 -1.5234902e-05 3.8717968e-05
0000b0 17 06 aa b8 d2 a1 aa b8 57 e3 1b b8 50 47 38 b9
       -8.107366e-05 -8.136373e-05 -3.7166606e-05 -0.00017574173
0000c0 fa 34 bc b8 f8 eb ea 38 66 f8 5e b8 20 3e 3f 39
       -8.974406e-05 0.00011201942 -5.3160264e-05 0.00018238323
0000d0 86 5f 1f 39 08 ca 97 b8 0f a3 59 37 8e e5 e6 38
       0.00015199007 -7.237872e-05 1.2972173e-05 0.000110100125
0000e0 23 da 8a 37 1e d0 ef b7 b8 da 28 39 27 24 34 b9
       1.655246e-05 -2.8587932e-05 0.00016103208 -0.00017179605
0000f0 2c 00 86 37 a8 bf 5d b8 2c 72 86 bd 16 c9 02 b9
       1.5974125e-05 -5.2869e-05 -0.06564745 -0.00012472676
000100 09 66 3a b8 eb 0b 03 b9 6c 3c 6d 38 4f c8 54 be
       -4.4440883e-05 -0.00012497573 5.6561476e-05 -0.20779537
000110 86 4b bb b8 d0 61 48 38 66 95 7b b8 7a 14 0d b8
       -8.930922e-05 4.777481e-05 -5.99822e-05 -3.363609e-05
000120 bb 87 3f b9 f0 ed b2 b8 fe e6 37 39 0d 8d 31 39
       -0.00018265743 -8.532021e-05 0.00017538291 0.00016932581
000130 30 c3 be 37 31 20 46 b9 23 3a 23 b9 1f 53 be b8
       2.2740656e-05 -0.00018894744 -0.00015566549 -9.0753885e-05
000140 3e 4d 32 3e e0 bc 53 b7 a0 e1 0f b8 84 76 f5 37
       0.17412278 -1.2620556e-05 -3.4303986e-05 2.9261464e-05
000150 a8 3c 9c 37 de a6 d6 38 38 e0 5c b8 ea 56 42 b8
       1.8624894e-05 0.000102353966 -5.2660907e-05 -4.633415e-05
000160 45 81 c3 b8 ad d6 2f 38 79 c9 57 38 54 4e 41 b8
       -9.322403e-05 4.1923184e-05 5.144763e-05 -4.6087735e-05
000170 4e 74 2a b8 7e 56 e6 37 15 0a 92 38 9b 1f 08 37
       -4.0639476e-05 2.7458413e-05 6.9637004e-05 8.11359e-06
000180 87 cc 80 b7 4c e9 23 39 1e 22 78 b8 b4 05 23 38
       -1.535403e-05 0.00015631801 -5.915958e-05 3.886754e-05
000190 61 b3 21 b8 7a 38 2f b8 5a bc 7f 39 6e 37 f7 36
       -3.855245e-05 -4.177585e-05 0.00024388861 7.3676265e-06
0001a0 ff 59 83 38 aa fc a6 39 27 85 55 b9 64 7a 10 39
       6.26333e-05 0.00031850237 -0.00020362866 0.00013778504
0001b0 d1 9e 8b b9 ef 77 43 b9 97 f7 22 39 4a b5 3d b8
       -0.00026630473 -0.00018641328 0.00015541758 -4.522995e-05
0001c0 c9 50 d6 b9 e1 8e bb 39 f7 3e fb b8 7c b1 2f 39
       -0.0004087745 0.00035773873 -0.00011980341 0.00016755419
0001d0 85 4c 02 b8 f8 56 d5 38 54 05 88 b9 b9 22 7d 39
       -3.106568e-05 0.00010172831 -0.0002594391 0.00024140895
0001e0 c6 98 d0 b9 db 79 a8 38 f4 36 ca 38 ce a6 b3 39
       -0.00039786677 8.0335616e-05 9.6423464e-05 0.0003426582
0001f0 a8 4c c9 bc 72 71 44 37 c3 db 2d b8 28 ff ad 39
       -0.024572685 1.1708924e-05 -4.1451083e-05 0.00033187238
000200 1e 25 d6 38 e8 a6 f6 b8 c6 ab 6f 39 72 de 50 b8
       0.00010211229 -0.00011761283 0.00022856807 -4.9798233e-05
000210 1f bc 49 b9 d8 8b c1 b9 12 18 e1 36 eb 07 1d b8
       -0.00019238934 -0.0003691602 6.7083247e-06 -3.743909e-05
000220 4a d2 b0 39 2f 68 01 39 b3 09 c4 b8 39 ff 7e b9
       0.00033726013 0.0001234121 -9.347815e-05 -0.00024318405
000230 99 02 80 38 e3 fa b3 37 74 23 9d b9 e1 80 bd b9
       6.1039995e-05 2.1455291e-05 -0.00029971788 -0.0003614491
000240 c5 0e 6e b9 ce fa 32 38 94 3d 82 39 1a 37 9e 39
       -0.00022702951 4.2672087e-05 0.00024841412 0.00030177162
000250 ff 68 93 37 59 50 b3 b8 94 39 b6 39 df 74 fc 38
       1.7572658e-05 -8.550351e-05 0.00034756644 0.00012038065
000260 82 b5 2b 39 04 bb 44 37 87 f2 54 39 cd bd 83 b9
       0.00016375448 1.1726053e-05 0.00020308244 -0.0002512768
000270 7f 5c fe 38 67 28 3a 39 66 79 61 3a 38 d1 23 b9
       0.000121288926 0.00017753393 0.00086011586 -0.00015622831
000280 f1 7f 81 39 d4 3c c9 b8 89 9e 3d 39 22 af f7 3b
       0.0002470012 -9.595757e-05 0.00018083504 0.0075587193
000290 4c a3 0b 38 d2 13 15 39 d0 52 9e 38 b1 2b b3 36
       3.3292265e-05 0.00014217131 7.549452e-05 5.339702e-06
0002a0 8e e7 c5 b9 61 29 a3 38 40 29 0c 35 1b db a5 39
       -0.0003774729 7.780153e-05 5.221409e-07 0.000316345
0002b0 cd f0 52 39 c8 3c 03 38 a7 49 70 b7 6a 81 bd b9
       0.00020116866 3.128944e-05 -1.4322263e-05 -0.0003614531
0002c0 4a 60 4a bd 91 a1 ee b8 dd 4d 47 b6 32 b2 aa 38
       -0.049408235 -0.000113788185 -2.9698633e-06 8.139423e-05
0002d0 5d 34 77 39 1d 98 5b 38 fe fd 07 39 ae ae 90 38
       0.00023575262 5.2355335e-05 0.00012969223 6.898992e-05
0002e0 99 85 ac b8 9e 53 3b b9 d0 80 48 b9 18 84 8b 38
       -8.2264836e-05 -0.0001786486 -0.00019121473 6.652641e-05
0002f0 a5 d3 89 38 47 87 b7 38 78 a9 18 39 79 14 6a b9
       6.572091e-05 8.7513174e-05 0.00014558982 -0.00022323606
000300 15 fa d9 b8 cb a8 01 39 a8 99 fc b8 a4 18 b7 b8
       -0.00010393948 0.00012365279 -0.00012044917 -8.73071e-05
000310 24 0d c9 b8 54 ac f5 38 0e 62 6a 39 ba 0a 8d 38
       -9.5868745e-05 0.00011714609 0.00022352507 6.725402e-05
000320 24 e5 25 39 72 bd 01 39 27 f0 03 39 64 d1 1c 39
       0.00015820988 0.00012372973 0.00012582597 0.00014955323
000330 7b 88 3b b9 40 0e 58 b9 9c 52 3c 39 4f 6c 02 b9
       -0.00017884553 -0.00020604674 0.00017959852 -0.00012438114
000340 80 8c a9 b9 fc fb 7b 39 c1 4f 82 b9 d1 e1 0e 39
       -0.00032338873 0.00024031097 -0.00024854954 0.00013626298
000350 a2 b8 13 b9 ec 08 5a 39 8c 10 6b b9 3c 85 70 b8
       -0.00014087794 0.00020793424 -0.0002241751 -5.7344543e-05
000360 e0 5d 80 b9 4d d5 ea 38 d6 87 ea 38 38 76 4e 39
       -0.00024484005 0.0001119772 0.00011183291 0.00019689731
000370 c5 4c ba bd b3 0a 17 39 5a 44 1a b9 3f 3b b2 b8
       -0.09096674 0.00014404468 -0.00014712047 -8.498737e-05
000380 41 f7 56 39 4a 5f 4c 39 a2 8c 95 38 ce ce 77 38
       0.0002050074 0.00019490454 7.1310686e-05 5.908199e-05
000390 53 3f 4d b7 be f0 bc 37 83 46 14 39 5a 21 2f b9
       -1.2233696e-05 2.252345e-05 0.00014140648 -0.00016701725
0003a0 c1 4d 92 39 13 ad 6c 39 d9 08 8d b8 76 56 60 b9
       0.0002790522 0.00022571189 -6.725052e-05 -0.00021394514
0003b0 c2 56 8d 38 39 50 01 39 7e 37 5c b9 68 b6 33 b9
       6.739564e-05 0.00012332284 -0.00021001507 -0.00017138722
0003c0 69 b3 ce b8 14 e5 32 39 b8 4d 6d 39 25 aa de 37
       -9.856263e-05 0.00017060741 0.00022631034 2.6543692e-05
0003d0 7e a5 83 b7 32 f8 27 b9 d8 a8 96 39 bf 53 fd b8
       -1.569348e-05 -0.00016018821 0.00028736028 -0.00012079579
0003e0 e5 da 75 39 c8 64 41 39 98 fa 64 b8 2e 77 5d 38
       0.00023446565 0.00018443458 -5.459282e-05 5.28015e-05
0003f0 a4 ef b1 38 5a 33 36 39 1a 6b a7 bd 82 8c 37 39
       8.484654e-05 0.00017376003 -0.08174725 0.00017504583

layers.0.mlp.mlp.3.bias f4 [16]
000000 aa d9 65 3d 2e 7c 90 3c 02 2a ab 3d 83 00 6c bc
       0.056115784 0.017637338 0.08357622 -0.014404419
000010 f7 5c b0 3d 27 f0 51 ba 77 ec f6 bb 15 4e 57 bd
       0.08611482 -0.0008008503 -0.007535513 -0.0525647
000020 95 e8 84 bd ff 53 54 bd 43 2e 4c 3d 8f 28 5a bd
       -0.06489674 -0.051837917 0.049848806 -0.053261336
000030 27 10 59 bd 05 cf 8a bc 5f 6a 75 bd af 10 53 bd
       -0.05299392 -0.016944418 -0.059915897 -0.051529583

layers.1.conv.norm.weight f4 [16]
000000 b5 0d 91 39 1a 91 ed b6 b7 fd 33 b9 c2 d9 05 38
       0.00027666768 -7.0800425e-06 -0.00017165286 3.1912474e-05
000010 a9 30 4c 38 1f 4b 66 b9 43 0c b3 b8 9a ab 68 3f
       4.868271e-05 -0.00021962494 -8.537669e-05 0.90886843
000020 41 07 f8 b9 00 fc 68 37 50 86 b4 38 e8 73 e6 b8
       -0.0004730765 1.3886951e-05 8.6080865e-05 -0.00010988844
000030 5e de b3 38 8f 76 ba b9 e9 d6 40 39 62 1e 16 b9
       8.576804e-05 -0.00035565018 0.00018390607 -0.00014316433

layers.1.conv.norm.bias f4 [16]
000000 cf c1 d2 b9 20 b2 77 38 e7 57 3b 39 f3 75 cb b8
       -0.0004019872 5.905528e-05 0.00017866456 -9.701764e-05
000010 16 30 26 b8 0e 26 19 39 54 2c 3a 39 0f 6c 66 bd
       -3.9622268e-05 0.00014605394 0.00017754856 -0.056255396
000020 95 42 e8 39 53 c1 7d b7 3a e5 fc b8 77 e2 cc 38
       0.00044300096 -1.5124987e-05 -0.00012058993 9.7696604e-05
000030 7e 40 b1 b9 81 81 73 b8 ed 8c bd b8 b0 7f 2f 39
       -0.0003380812 -5.8056325e-05 -9.038472e-05 0.00016736868

layers.1.conv.msg_mlp.0.weight f4 [16, 16]
000000 84 62 e7 b2 78 d7 c8 31 5b ce 03 32 03 1c c3 b1
       -2.6936739e-08 5.845262e-09 7.672123e-09 -5.6784315e-09
000010 d9 50 f6 b1 a6 3c e0 b1 76 21 84 32 d2 34 d2 37
       -7.1687336e-09 -6.526153e-09 1.5382039e-08 2.5058547e-05
000020 ec 24 cd 32 6b 7e 5d b0 4b 17 06 b2 4b ed bc 31
       2.3881931e-08 -8.057898e-10 -7.805123e-09 5.498497e-09
000030 93 2e c0 b2 6e 41 c9 b2 43 ba bc b2 9c 90 28 32
       -2.2372921e-08 -2.3429234e-08 -2.1970783e-08 9.811767e-09
000040 f2 ed 1b 26 70 fa c8 23 f4 aa 82 23 40 22 c1 a3
       5.4098904e-16 2.1790108e-17 1.416703e-17 -2.0939607e-17
000050 98 fa e0 a1 ba e0 a9 a0 8c 91 61 25 a8 58 50 39
       -1.5245162e-18 -2.8778425e-19 1.9564952e-16 0.00019869453
000060 87 0c 1d a5 d3 c6 4d 24 f0 ba e8 22 e8 20 ea a3
       -1.3621824e-16 4.46207e-17 6.3081654e-18 -2.5384267e-17
000070 a2 89 e1 a4 87 eb 04 a6 30 46 89 a2 24 d1 82 24
       -9.7811355e-17 -4.61159e-16 -3.720824e-18 5.673281e-17
000080 fd 1b 4f b4 7f e9 0c b2 d8 60 65 31 00 55 a7 30
       -1.928856e-07 -8.202163e-09 3.3378935e-09 1.2175008e-09
000090 7f 8a cf 32 e8 80 64 33 b4 1e 0d 32 df 1c fb 3a
       2.4160952e-08 5.3202626e-08 8.214261e-09 0.0019158385
0000a0 80 ed d7 33 ce a5 12 31 b6 b6 7b b3 62 b1 42 b3
       1.0054919e-07 2.1340045e-09 -5.8606666e-08 -4.5330474e-08
0000b0 da e4 32 b2 2f 9e 79 b2 e8 32 82 b2 d8 d4 d2 33
       -1.04129985e-08 -1.4529674e-08 -1.5157141e-08 9.817603e-08
0000c0 ac 73 c8 b3 b0 8a e1 af 09 af d8 32 3b 79 9e b1
       -9.334266e-08 -4.1025805e-10 2.5225306e-08 -4.6121875e-09
0000d0 d0 8d af 31 c7 d9 38 33 5e 67 78 33 0d 48 ce 39
       5.1092925e-09 4.3038906e-08 5.783601e-08 0.00039345064
0000e0 3f 26 fa 33 6e 84 e8 b0 9c 24 c4 b2 ea 94 42 32
       1.1648489e-07 -1.691786e-09 -2.2834051e-08 1.1326145e-08
0000f0 48 26 c0 b2 55 39 f5 31 a9 9d d9 31 b0 8a 53 31
       -2.236915e-08 7.1369564e-09 6.333455e-09 3.0783376e-09
000100 16 ff 60 31 68 9c 0d b0 82 d3 a8 b0 ab 53 84 2f
       3.274129e-09 -5.151777e-10 -1.2283723e-09 2.407011e-10
000110 a7 da 85 2f 45 54 14 b1 b6 cb f6 b0 0a 0c 4c 38
       2.434792e-10 -2.1584736e-09 -1.7956754e-09 4.8648602e-05
000120 6e f9 7c b1 e3 05 38 2f 38 a7 f0 2d 39 72 bb af
       -3.681261e-09 1.6736794e-10 2.7359101e-11 -3.4096262e-10
000130 5e 83 29 31 6a fe b6 af 0b bc f5 30 9e e1 1f b1
       2.466741e-09 -3.328638e-10 1.7879541e-09 -2.3265794e-09
000140 be 01 f7 36 51 a9 f5 b5 91 60 db b6 59 0f 2c 36
       7.3613764e-06 -1.83032e-06 -6.5379504e-06 2.563893e-06
000150 e6 57 c7 35 c2 5f 3a b5 ab ab 04 b6 3d c9 73 3b
       1.4852237e-06 -6.9429746e-07 -1.9769457e-06 0.0037198805
000160 ca 36 0f b6 d2 8a 0c 35 c2 d4 62 36 ee 6d 69 b5
       -2.1340552e-06 5.2356074e-07 3.3800466e-06 -8.695923e-07
000170 14 e3 93 36 82 ea c9 b5 42 d0 f5 34 38 48 8c b5
       4.4073768e-06 -1.5043918e-06 4.5786334e-07 -1.0451831e-06
000180 0b bc da b8 41 b3 69 38 e0 f0 03 b8 7f 33 9a b8
       -0.00010430076 5.5718472e-05 -3.1457166e-05 -7.352884e-05
000190 b8 70 50 37 ea d3 74 b9 41 ab 3a 39 39 65 1c 3d
       1.24240105e-05 -0.00023348597 0.0001780214 0.03818247
0001a0 19 82 0a b9 d4 28 bc b6 57 4d 40 b8 1d 5a 0f b8
       -0.0001320917 -5.6075896e-06 -4.5848396e-05 -3.417778e-05
0001b0 df b0 ce b8 c6 18 a0 39 09 32 d3 38 cb c0 96 b7
       -9.85579e-05 0.00030536036 0.00010070584 -1.797117e-05
0001c0 88 9f 50 a2 22 41 93 a2 b2 95 65 21 d5 f8 1b 24
       -2.8273712e-18 -3.991339e-18 7.778634e-19 3.3821036e-17
0001d0 d4 6b 11 a2 2b 18 63 9f ee 6e bb a4 30 83 54 39
       -1.9708248e-18 -4.808911e-20 -8.1286245e-17 0.00020266767
0001e0 17 7b 81 a3 c0 78 66 22 ba cc 2b 21 ed 4f 8b a2
       -1.4038339e-17 3.1234737e-18 5.8208007e-19 -3.776065e-18
0001f0 f7 2d 0e 22 60 43 54 24 20 91 24 a3 cc cc ff a2
       1.9268922e-18 4.602724e-17 -8.921189e-18 -6.9334726e-18
000200 cc a8 2d 81 58 3d 9b 81 7a e2 31 80 f4 ab e8 80
       -3.1896187e-38 -5.702603e-38 -4.581184e-39 -2.136752e-38
000210 5a 25 10 81 34 a2 66 01 9c 0c 04 00 b2 9f ea 38
       -2.647542e-38 4.2360703e-38 3.71865e-40 0.00011187735
000220 4c 9f 5c 81 34 8f b5 80 58 c9 1d 80 78 f8 a4 01
       -4.0521908e-38 -1.6673596e-38 -2.735458e-39 6.060062e-38
000230 51 bd 3f 81 ff bb 32 81 6a 92 93 00 26 e2 a2 01
       -3.5216987e-38 -3.2828317e-38 1.3552341e-38 5.983391e-38
000240 a1 0b 1e ba 63 d0 a7 38 12 7a 86 39 28 c5 14 b9
       -0.00060289545 8.0019956e-05 0.0002564942 -0.00014187826
000250 92 b7 b9 b7 ac 71 16 39 5f 1e 8a 39 78 9d 68 3f
       -2.21392e-05 0.00014347461 0.0002634404 0.9086528
000260 cb 91 0f 3a d7 e0 f7 b7 0b 4c 3a b9 e0 7c 0e 39
       0.0005476742 -2.9549394e-05 -0.0001776667 0.00013588695
000270 4d eb e4 b9 e8 f1 79 38 0f 8f 10 b9 57 e6 4b 39
       -0.00043662862 5.959152e-05 -0.00013786204 0.00019445397
000280 0c 2b 92 01 eb b0 48 00 2f 00 36 01 88 43 9c 01
       5.36937e-38 6.675622e-39 3.3428252e-38 5.740225e-38
000290 f9 b9 6f 80 f9 fc a9 00 87 23 85 81 68 3b 58 b3
       -1.0260454e-38 1.5610948e-38 -4.8907463e-38 -5.034545e-08
0002a0 f6 f8 8d 01 87 43 a1 81 96 f8 85 80 1e 70 9c 00
       5.215246e-38 -5.9238957e-38 -1.2303297e-38 1.4366557e-38
0002b0 e3 45 9c 81 1d 6e 8c 81 92 4f 38 00 76 11 94 80
       -5.740563e-38 -5.158588e-38 5.171332e-39 -1.3597917e-38
0002c0 fd d6 10 80 92 49 6f 80 0c 67 20 81 8a e8 43 01
       -1.546491e-39 -1.0220132e-38 -2.946129e-38 3.5982682e-38
0002d0 32 47 82 81 0c 48 48 01 86 23 25 01 17 5f 1e b9
       -4.785662e-38 3.678589e-38 3.03312e-38 -0.00015103478
0002e0 2c 96 3e 01 2c d8 7a 00 38 a1 71 80 25 7a fd 00
       3.5005232e-38 1.1281478e-38 -1.0435245e-38 2.3278198e-38
0002f0 18 6f 6f 80 19 14 b6 01 7a 07 95 80 22 62 84 81
       -1.0233593e-38 6.688508e-38 -1.3686171e-38 -4.8629956e-38
000300 20 87 3e a4 46 ef 17 25 d8 92 02 23 1a f4 9f a5
       -4.1314138e-17 1.3178231e-16 7.0784095e-18 -2.7747513e-16
000310 2e 82 1c a3 3c 14 45 9f ac 77 52 25 5c 86 61 37
       -8.4843436e-18 -4.173311e-20 1.8255143e-16 1.3442328e-05
000320 a8 eb 61 22 64 51 4f 22 fc 8d b6 a2 d8 6d d2 a3
       3.0617941e-18 2.809682e-18 -4.948153e-18 -2.2814766e-17
000330 64 db fc a1 9f de a8 a2 69 ed 39 22 3e eb 0b 24
       -1.7134256e-18 -4.57722e-18 2.519786e-18 3.0340078e-17
000340 6f ae 06 a9 4d 57 c2 27 2c fe 15 28 8f 29 d7 a7
       -2.9905274e-14 5.394047e-15 8.326276e-15 -5.9719545e-15
000350 d0 4d f7 a7 7d 85 2e a8 c6 4a 98 28 13 79 dc ad
       -6.8640636e-15 -9.687886e-15 1.6907818e-14 -2.5064872e-11
000360 0d d6 f3 28 e7 45 81 a6 a1 33 1a a8 80 15 a5 27
       2.707125e-14 -8.97012e-16 -8.5599125e-15 4.582001e-15
000370 48 d8 d5 a8 dc 8d c3 a8 c6 4e d1 a8 6a 82 2d 28
       -2.3741547e-14 -2.171087e-14 -2.3237824e-14 9.631708e-15
000380 48 95 d8 00 87 fc b8 03 96 7f cd 82 ea 79 01 04
       1.9890019e-38 1.08725255e-36 -3.0195273e-37 1.5219857e-36
000390 c3 0d 91 84 d7 92 3d 01 ce 86 27 85 30 47 34 39
       -3.4101974e-36 3.481917e-38 -7.877062e-36 0.00017192657
0003a0 ae 79 30 01 d7 e5 73 04 f8 e6 27 00 0f c5 90 03
       3.2413396e-38 2.867005e-36 3.66444e-39 8.508802e-37
0003b0 0a 36 d3 83 1f 36 48 84 75 a5 a4 03 c4 e1 8a 02
       -1.2413872e-36 -2.3534738e-36 9.677041e-37 2.040686e-37
0003c0 77 86 ca 38 cc e4 34 36 8b b6 90 b8 8e bf 81 b6
       9.6571566e-05 2.6955267e-06 -6.900456e-05 -3.8667995e-06
0003d0 0d 3d 8e b6 bc 89 b1 b9 52 be e3 38 3d 16 86 bb
       -4.239037e-06 -0.0003386269 0.000108596534 -0.0040920065
0003e0 6c 93 ad b9 c8 0a 96 b2 6c 68 61 38 6b ae e3 b8
       -0.0003310697 -1.7467201e-08 5.374143e-05 -0.000108566914
0003f0 e2 a8 8c 38 3e 6d 3c 38 fc 95 b9 37 30 22 3d b9
       6.707177e-05 4.4924433e-05 2.212356e-05 -0.0001803718

layers.1.conv.msg_mlp.0.bias f4 [16]
000000 36 d4 88 b7 05 11 5d ba 02 5b 71 bb 76 7a ac ba
       -1.6311282e-05 -0.0008433017 -0.0036827927 -0.0013159055
000010 08 2f 25 b9 76 1f 0f bb 22 a5 e7 3c 61 f2 37 ba
       -0.00015753147 -0.002183882 0.028276984 -0.0007017013
000020 2f 7b 28 ba 99 eb 6c bd 34 66 fb b3 d7 72 df b9
       -0.0006427047 -0.05784187 -1.1706689e-07 -0.00042619437
000030 d9 a9 24 bb 22 e4 75 ae 1e 1f 27 ba c2 ed 06 3b
       -0.002512565 -5.5909173e-11 -0.0006375181 0.0020588492
